CompareCQR/Experiments/EXP2/model_bin/TS_LSTM_pred.pth (torch, 88764 bytes, 9 tensors)

lstm.weight_ih_l0 f4 [160, 11]
0	0x3f08219d	0.5317629
1	0xbf83e1ac	-1.0303245
2	0x3f7e2f48	0.99290895
3	0x3f631b51	0.88713557
4	0x3d76fee9	0.060301695
5	0x3f169f1c	0.5883653
6	0xbfa9a792	-1.3254263
7	0x3d5deb30	0.05417937
8	0x3ca71d55	0.020399729
9	0x3f685d0e	0.9076699
10	0xbe1253fd	-0.14289851
11	0xbf25c8f7	-0.64759773
12	0x3dd08456	0.10181491
13	0x401dc294	2.465001
14	0x3e03d129	0.12872757
15	0x3df382ae	0.118901595
16	0x3f50963f	0.8147926
17	0x3d0de294	0.03463991
18	0xbf6f986a	-0.9359194
19	0xbf8e07e5	-1.1096159
20	0x3f041f01	0.5160981
21	0x3e5afbe8	0.21385157
22	0xbd2c82f3	-0.04211707
23	0x3d196a79	0.037455056
24	0x402739e2	2.612908
25	0x3d75ab0c	0.059977576
26	0xbfb2e2af	-1.3975428
27	0x3f41cd39	0.7570377
28	0xbfb141b9	-1.3848182
29	0x3f668593	0.9004757
30	0x3f2221a2	0.6333257
31	0x3f89abe9	1.0755588
32	0x3f945144	1.15873
33	0x3ed1650d	0.40897408
34	0xbe455436	-0.19270405
35	0xbfddc5ec	-1.7326026
36	0xbea07949	-0.31342533
37	0x3dc5c516	0.09656732
38	0x3c6d92b3	0.014500308
39	0x3f0b8020	0.5449238
40	0xbe2498f3	-0.1607397
41	0x3d093759	0.03350005
42	0xbf10da32	-0.5658294
43	0x3e729e58	0.23693216
44	0x3f53e7e9	0.8277574
45	0x402e6627	2.724985
46	0x3f932a12	1.1497214
47	0xbcc61d0a	-0.024183769
48	0x3c7b1056	0.015323719
49	0xbcff4536	-0.031160932
50	0xbe0edb79	-0.1395091
51	0x3eb1a747	0.34697935
52	0xbebc5c60	-0.36789227
53	0x3f09fe75	0.53903896
54	0xbee09c1e	-0.43869108
55	0x3ef5d6ae	0.4801535
56	0xbe808eea	-0.25109035
57	0xbf9250e2	-1.1430933
58	0x3f4bc91a	0.7960373
59	0xbed2ebf8	-0.41195655
60	0x3f92ae3f	1.1459426
61	0xbead9a44	-0.33906758
62	0x3e4d8cd5	0.20073254
63	0x3dcecf7d	0.10098169
64	0xbdafdf77	-0.085875444
65	0x3def8514	0.116953045
66	0xbee441b1	-0.4458137
67	0x3e044f15	0.12920792
68	0xbea8dd5e	-0.3298139
69	0x3f002626	0.5005821
70	0xbf1cc812	-0.61242783
71	0xbf28eb61	-0.6598416
72	0xbec3fc51	-0.3827844
73	0xbe21491c	-0.15750545
74	0xbd90ee5f	-0.07076716
75	0x3e917816	0.2841193
76	0x3e8e13dc	0.27749527
77	0xbec9feec	-0.39452302
78	0x3f3176de	0.69322
79	0x3f8a4f78	1.0805502
80	0xbdda26e0	-0.10651946
81	0x3c822702	0.015887741
82	0x3d98c60d	0.0745965
83	0x3eeb0829	0.45904663
84	0xbfa135c7	-1.2594537
85	0xbfaf8389	-1.3712016
86	0x3ecf3ae2	0.40474612
87	0x3e4a40da	0.19751301
88	0xbebc8667	-0.3682129
89	0x3f467402	0.77520764
90	0x4031698b	2.7720668
91	0x3cc03c73	0.023466324
92	0x3f229fca	0.6352507
93	0x3e5be72b	0.21474902
94	0x3f0095fd	0.50228864
95	0xbe494158	-0.19653833
96	0xbe1eb73d	-0.15499587
97	0x3e209e93	0.15685491
98	0xbdb42be3	-0.08797433
99	0x3d7bcfef	0.061477598
100	0x3e9d6c2f	0.307466
101	0x40275d80	2.6150818
102	0x3ec509af	0.3848395
103	0x3e86d18b	0.26331744
104	0xbf61d86a	-0.88220847
105	0xbef512ad	-0.4786581
106	0xbf7d227c	-0.98880744
107	0xbf864f31	-1.0492917
108	0x3eda5e00	0.4264984
109	0xbf3578c8	-0.7088742
110	0x3fbefa0d	1.492006
111	0xbf884503	-1.0646061
112	0x40325f57	2.787069
113	0x3e01753d	0.12642379
114	0x3f90325e	1.1265371
115	0x3f831388	1.0240335
116	0xbfbc98fc	-1.4734187
117	0xbf461452	-0.77374756
118	0xbe91ed07	-0.2850115
119	0xbee99dfb	-0.45628342
120	0x3f8bd18f	1.0923327
121	0x3e155825	0.14584406
122	0x3d97b90f	0.07408344
123	0x4040c156	3.0118003
124	0xbe023f93	-0.12719564
125	0xbe5342d6	-0.20630965
126	0x3f1ae15f	0.6050014
127	0x3f04963e	0.5179175
128	0xbfa903c6	-1.3204277
129	0xbfa411a3	-1.2817882
130	0xbe6d90d2	-0.23199776
131	0xbedfb618	-0.43693614
132	0xbcf65e59	-0.030074285
133	0x3ebe3999	0.3715332
134	0x400e3119	2.2217467
135	0xbe667645	-0.22506054
136	0xbe53c977	-0.20682321
137	0xbf4a52aa	-0.79032385
138	0xbe8ec631	-0.27885583
139	0xbcff0003	-0.031127935
140	0xbe1ad2d1	-0.15119483
141	0x3e4836c9	0.19552149
142	0x3ddafb8e	0.106925115
143	0xbe1a1c30	-0.15049815
144	0xbf4d7612	-0.80258286
145	0x3fcbef13	1.5932335
146	0xbf1e05b4	-0.6172745
147	0x3f435149	0.76295906
148	0x3df9176b	0.1216267
149	0xbe55af6c	-0.208677
150	0xbea7c8ef	-0.32770488
151	0xbe911826	-0.28338736
152	0x3f98deb4	1.1942964
153	0x3f4ac4bc	0.7920644
154	0x3faa9ce1	1.3329126
155	0xbf67b2b2	-0.9050704
156	0x3ff1eec9	1.8900996
157	0xbe871f3d	-0.2639102
158	0xbea436db	-0.320731
159	0x3f66770a	0.9002539
160	0x3f47fe2b	0.78122205
161	0xbfcca018	-1.5986357
162	0xbfdacb2f	-1.7093257
163	0xbef42f56	-0.47692364
164	0x3f899035	1.0747133
165	0x3f796a8b	0.97428197
166	0xbe6ddd3b	-0.23228924
167	0x3df21cde	0.11821912
168	0xbe9148db	-0.28375897
169	0xbf1ce5ab	-0.61287946
170	0x3dd02a2d	0.101642944
171	0xbe41a058	-0.18908823
172	0xbfc30206	-1.5234993
173	0xbfe251b2	-1.7681181
174	0xbf35e8aa	-0.7105814
175	0xbee877a1	-0.4540377
176	0x3eeac146	0.4585058
177	0x4024a5e3	2.572625
178	0x3f9bccb3	1.2171844
179	0x3f2dae7c	0.6784437
180	0x3e457c53	0.19285707
181	0xbf2b7cb0	-0.66987133
182	0xbbcba066	-0.0062141893
183	0x3ef5832e	0.47951645
184	0x3ebecbd9	0.37264898
185	0xbf160105	-0.58595306
186	0xbee422f2	-0.4455791
187	0x3db38b69	0.08766825
188	0x3e08fb3b	0.13377087
189	0x40016793	2.0219467
190	0x3d01d203	0.031694423
191	0xbe85f2cb	-0.261618
192	0x3d9f64a1	0.07782865
193	0xbef8727a	-0.4852484
194	0xbefa2de6	-0.48863143
195	0xbed7cd49	-0.42148808
196	0x3e467496	0.19380412
197	0xbdc801f3	-0.09765997
198	0x3ee107d7	0.43951294
199	0xbf8ce971	-1.1008741
200	0xbdd447c1	-0.103652485
201	0x3edddb71	0.43331483
202	0xbdc74edb	-0.09731837
203	0xbf89ad66	-1.0756042
204	0x3fb985c6	1.449395
205	0xbe620caf	-0.22075151
206	0xbf6b4fa9	-0.91918427
207	0xbf433711	-0.762559
208	0x3f0f828a	0.5605856
209	0x3fb81e3f	1.438423
210	0x3f9733fb	1.1812738
211	0x3eeffdda	0.4687336
212	0xbe7931fd	-0.24335475
213	0x3f7d52b2	0.9895431
214	0xbfa823fc	-1.3135982
215	0xbf957421	-1.1676065
216	0x3ef6b136	0.48182076
217	0x3f155851	0.58337885
218	0x3f78209f	0.96924776
219	0xbf03209e	-0.51221645
220	0x3d54a1e8	0.05191222
221	0x3e8c8715	0.2744681
222	0x3ff3291a	1.8996918
223	0xbe5f0f5e	-0.21783206
224	0xbffbe663	-1.9679683
225	0x3a886fa8	0.0010409253
226	0x3efe06c6	0.49614543
227	0xbe3d96b1	-0.18514515
228	0x3bb7af93	0.005605647
229	0x3c8ca98c	0.01717069
230	0xbe0d2a1c	-0.13785595
231	0x3f9ff512	1.2496665
232	0xbd97e692	-0.07417025
233	0x403d2d30	2.955883
234	0x3f525494	0.82160306
235	0xbbe1753c	-0.0068804305
236	0xbf226df5	-0.6344903
237	0xbac89098	-0.0015301881
238	0x3d1c2696	0.038122736
239	0x3e93d2ce	0.2887177
240	0x3e652151	0.2237599
241	0xbea010b7	-0.31262752
242	0xbf402e8f	-0.7507104
243	0x3eb5c939	0.35505083
244	0x40167a3a	2.35121
245	0x3f05cd4c	0.52266383
246	0xbf7d9106	-0.99049413
247	0x3f4c3803	0.7977297
248	0x3f13cf8f	0.57738584
249	0xbf12e107	-0.57374614
250	0xbef601c4	-0.48048222
251	0x3fa272fd	1.2691342
252	0x3e8f6718	0.28008342
253	0x3feca11f	1.848667
254	0xbf85884e	-1.0432222
255	0x40180f69	2.3759406

lstm.weight_hh_l0 f4 [160, 40]
0	0x3c9fee74	0.019522883
1	0xbe8f9b98	-0.28048396
2	0xbf48017b	-0.7812726
3	0x3f68e6ca	0.90977156
4	0x3f162cc3	0.5866205
5	0xbedb7031	-0.42859033
6	0xbe87f597	-0.26554558
7	0xbee1f75e	-0.4413404
8	0x3f6e2a3e	0.93033206
9	0x3d565279	0.052324746
10	0xbf725daa	-0.9467417
11	0x3d359d6a	0.044339575
12	0xbe62e9cf	-0.22159503
13	0xbeb918f6	-0.36151856
14	0x3f69c616	0.9131788
15	0xbeafbc17	-0.3432319
16	0x3dc8645d	0.09784768
17	0x3d6fd90f	0.058556613
18	0xbebe1213	-0.37123165
19	0x3f1d1129	0.6135431
20	0x3ee788b5	0.45221487
21	0x3fb4a17e	1.4111784
22	0xbf5db740	-0.8660774
23	0xbe8235db	-0.25431713
24	0xbf718422	-0.94342244
25	0x3f0bd8dd	0.5462778
26	0xbeb1c97a	-0.34724027
27	0x3fa7a2a6	1.3096511
28	0x3e18e6b7	0.1493176
29	0xbeec659f	-0.4617128
30	0x3e3af8c7	0.18258964
31	0x3edb838c	0.428738
32	0xbf2db1b7	-0.67849296
33	0x3f097693	0.53696555
34	0x3f0d3a54	0.55167127
35	0x3d2310e3	0.039811026
36	0x3d7f66d0	0.06235391
37	0x3d5fb923	0.05461992
38	0x3e1e845b	0.15480177
39	0x3ecb13dd	0.39663592
40	0xbf125e88	-0.57175493
41	0x3eda22c1	0.4260464
42	0x3e40644c	0.1878826
43	0x3e69bdcb	0.22826307
44	0xbdd96b12	-0.10616125
45	0x3e532e6a	0.20623174
46	0xbeab80f1	-0.33496812
47	0xbeb12cd5	-0.34604517
48	0x3d34dd50	0.044156373
49	0xbe7fb812	-0.24972561
50	0xbe00b705	-0.12569816
51	0xbf03b452	-0.5144702
52	0xbe570d67	-0.21001206
53	0x3d8c855a	0.06861372
54	0x3ed6a4cd	0.41922608
55	0xbecb41e4	-0.39698708
56	0x3e2fb78d	0.17159863
57	0x3ecf3291	0.40468267
58	0x3f2475aa	0.6424204
59	0xbdab39fb	-0.08360668
60	0xbf09bcb7	-0.5380358
61	0xbf3affe1	-0.7304669
62	0x3dff615d	0.124697424
63	0xbd0c177f	-0.034202095
64	0x3f2afbac	0.6679027
65	0x3ea734d1	0.32657483
66	0x3eb6e4b2	0.35721356
67	0x3f38f03f	0.72241586
68	0x3e629087	0.22125445
69	0x3d011885	0.031517524
70	0xbda0eedc	-0.07858059
71	0xbee4eada	-0.44710428
72	0xbf4ddd29	-0.8041559
73	0x3f015427	0.5051903
74	0xbdd12a2f	-0.10213124
75	0x3e1c9ab1	0.15293385
76	0xbe43e2d3	-0.19129495
77	0x3efd2ccd	0.49448243
78	0x3ed7140c	0.42007482
79	0x3ec931c1	0.39295772
80	0x3f0f223e	0.55911624
81	0xbf421ab9	-0.75822026
82	0x3e405fcf	0.18786548
83	0x3f006d13	0.50166434
84	0xbf1e345a	-0.6179863
85	0x3f71c01f	0.9443378
86	0xbf03aac7	-0.5143246
87	0x3dc2decc	0.095151514
88	0xbd0433a9	-0.03227583
89	0x3e1a74cf	0.15083621
90	0xbe2125ef	-0.15737127
91	0xbed847fd	-0.42242423
92	0xbee6debc	-0.45091808
93	0x3e935240	0.2877369
94	0x3e2dfcd3	0.16990976
95	0xbed41e4c	-0.41429365
96	0x3e78f031	0.24310376
97	0x3ef25c7c	0.47336185
98	0xbe86b6df	-0.26311395
99	0xbe03c1d2	-0.12866905
100	0xbed57e03	-0.41697702
101	0xbefe07a3	-0.496152
102	0x3f2ab289	0.66678673
103	0x3e34f4c5	0.17671497
104	0x3e9473ec	0.2899469
105	0x3e5af631	0.21382977
106	0x3e0b33b7	0.13593946
107	0x3e99a333	0.30007324
108	0x3ef8db63	0.4860488
109	0xbe949b2e	-0.29024643
110	0xbd6d38a5	-0.05791535
111	0xbda13dee	-0.0787314
112	0xbf3aab20	-0.72917366
113	0x3ed0ecd4	0.40805686
114	0xbee036a2	-0.43791682
115	0xbf3f5343	-0.7473642
116	0xbe3fa185	-0.18713959
117	0xbe842f54	-0.25817358
118	0x3f27df1c	0.6557481
119	0x3e07f608	0.13277447
120	0x3fb466d3	1.409388
121	0xbf0ebc5d	-0.5575617
122	0x3ee9d214	0.4566809
123	0xbe1c8418	-0.15284765
124	0xbead09d6	-0.33796567
125	0xbec55256	-0.3853938
126	0xbf506c17	-0.8141493
127	0x3e33e8f1	0.17569329
128	0xbfa13de4	-1.2597013
129	0x3f84e372	1.0381911
130	0x3e5437a3	0.20724349
131	0xbf2d1cd4	-0.67622113
132	0xbe9c43ae	-0.30520386
133	0xbecb8fa1	-0.39758018
134	0x3e79e83e	0.24405
135	0xbe749a46	-0.23886976
136	0x3eb721ef	0.35768077
137	0x3df8b8fa	0.121446565
138	0x3f3a0f3d	0.726795
139	0x3e1836a9	0.14864601
140	0xbf43c340	-0.764698
141	0x3e651e4f	0.22374843
142	0x3f05be6c	0.52243686
143	0xbf356c64	-0.70868516
144	0x3f1f2771	0.6216956
145	0x3e44ad2b	0.19206683
146	0xbdf5fd5f	-0.12011217
147	0x3eade001	0.33959964
148	0xbe85446d	-0.26028767
149	0xbfc50a15	-1.5393702
150	0x3da66972	0.08125581
151	0xbf01a586	-0.50643194
152	0xbf06d7b9	-0.52672917
153	0x3f19db27	0.60100025
154	0xbf14dd5d	-0.58150274
155	0xbef21864	-0.47284234
156	0xbee58486	-0.4482767
157	0xbf31f220	-0.6951008
158	0x3e9f37f5	0.3109738
159	0x3eda7421	0.42666724
160	0x3cadf6ac	0.021235786
161	0x3eff7f33	0.49901733
162	0x3e4edf60	0.20202398
163	0x3ddb65ba	0.10712762
164	0x3e8b85d1	0.2725053
165	0xbdd43901	-0.10362435
166	0xbcd4d7b1	-0.025981756
167	0x3e34b9f6	0.17649063
168	0xbec31e93	-0.38109264
169	0x3e22dcda	0.1590456
170	0xbea236d0	-0.31682444
171	0x3da0437b	0.07825371
172	0xbf1ce257	-0.6128287
173	0xbe2e7759	-0.17037715
174	0xbcdbd5cf	-0.02683535
175	0xbe8cf866	-0.27533263
176	0xbf402cfc	-0.7506864
177	0x3ee02c07	0.4378359
178	0xbece7c1f	-0.40329072
179	0xbed0216f	-0.40650508
180	0x3e6083ea	0.21925321
181	0xbf46ab73	-0.7760536
182	0xbd8cede5	-0.06881312
183	0xbec6881b	-0.38775715
184	0xbdf9a7ba	-0.121901944
185	0x3eb3e2dd	0.3513402
186	0xbea0c1dd	-0.31397906
187	0x3f05d0f0	0.5227194
188	0x3e84f774	0.25970042
189	0x3cb4206b	0.021988114
190	0xbdb93299	-0.09042854
191	0xbe0c7edc	-0.13720268
192	0x3e493fbc	0.19653219
193	0x3e4b819c	0.19873661
194	0x3e5f8f84	0.2183209
195	0x3ebcefd6	0.3690173
196	0x3f132e4f	0.57492536
197	0x3e2dab10	0.16959786
198	0xbe7141c1	-0.2356024
199	0x3ef2ec1d	0.47445765
200	0x3f105ec9	0.5639463
201	0xbec8d651	-0.3922601
202	0x3f0fc513	0.56160086
203	0xbfad7fd2	-1.3554633
204	0x3d758d5a	0.059949256
205	0xbf929494	-1.1451592
206	0x3e1214eb	0.14265792
207	0xbea08001	-0.3134766
208	0xbf3dfe0b	-0.74215764
209	0x3e855a44	0.2604543
210	0xbf6ab629	-0.91684204
211	0xbf6ae4f4	-0.91755605
212	0x3ea0c4f6	0.3140027
213	0xbf0bd74d	-0.546254
214	0xbeae1bbc	-0.34005535
215	0x3f008346	0.5020031
216	0xbe29da53	-0.1658719
217	0x3fc26fb0	1.5190334
218	0xbf7de29e	-0.99173915
219	0x3f61be23	0.8818075
220	0xbf5b1ce0	-0.85590935
221	0x3f93d293	1.1548637
222	0xbd88aa50	-0.066731095
223	0x3f09fa7c	0.53897834
224	0x3f0ea62b	0.557223
225	0x3e8fe5e0	0.28105068
226	0x3f251b06	0.6449436
227	0x3ecfdd54	0.40598547
228	0xbef8f401	-0.4862366
229	0xbf812237	-1.0088567
230	0xbe26b3f4	-0.16279584
231	0xbf2538c4	-0.6453974
232	0xbf8e15ac	-1.1100364
233	0x3f849204	1.035706
234	0x3e4ec059	0.20190562
235	0xbf9eeb74	-1.2415605
236	0xbf1f8697	-0.6231474
237	0xbe87d17a	-0.26527005
238	0x3f3e288a	0.7428061
239	0x3ea61c4c	0.32443464
240	0xbf1ad5e4	-0.6048262
241	0x3ea162ce	0.31520694
242	0x3f3248e2	0.6964246
243	0x3f214cc4	0.6300776
244	0xbf0f3a36	-0.559482
245	0xbfab1202	-1.336487
246	0x3ed4a548	0.4153235
247	0x3f01807f	0.50586694
248	0xbec001db	-0.37501416
249	0x3e92de73	0.2868534
250	0x3d494d21	0.04914582
251	0xbf05b73f	-0.52232736
252	0xbe39e708	-0.18154538
253	0xbe18917e	-0.14899251
254	0x3e0e676d	0.13906641
255	0x3ec815e0	0.3907919

lstm.bias_ih_l0 f4 [160]
0	0x3fac8faf	1.3481349
1	0x3fb84fc6	1.4399345
2	0x3f456b10	0.7711649
3	0x3c9fa492	0.019487653
4	0x3fb43656	1.4079082
5	0xbf3e5c8a	-0.74359953
6	0x3f77e2df	0.9683055
7	0x3ea6a62b	0.3254865
8	0x3fa10e4e	1.258249
9	0xbaa2fdae	-0.0012435222
10	0x3f21ff69	0.6328035
11	0x3f89b494	1.0758233
12	0xbefda57d	-0.4954032
13	0xbc379f91	-0.011207477
14	0x3f33d50b	0.7024695
15	0x3e60a010	0.21936059
16	0x3ec069f4	0.37580836
17	0x3fdfedda	1.7494462
18	0xbe4e5ca5	-0.20152529
19	0x3f769b8e	0.9633111
20	0x3fed61f0	1.8545513
21	0x3e26d99a	0.16293946
22	0x3ef3e616	0.4763648
23	0x3f1a8f85	0.60375243
24	0x3f5b51fd	0.8567198
25	0x3fe7d65c	1.8112292
26	0x3e05a91c	0.13052791
27	0x3e1fc2c3	0.1560164
28	0x3f665673	0.8997566
29	0x3f806a9b	1.0032533
30	0xbe4ed83e	-0.20199677
31	0x3ff395a5	1.9030043
32	0x4006ea19	2.1080382
33	0x3f8d55dd	1.1041828
34	0xbe8b137e	-0.2716331
35	0x3f96839f	1.1758918
36	0x3f843374	1.0328202
37	0x3e3811a4	0.1797548
38	0x3e1f9d7b	0.15587418
39	0x3fe5e15c	1.7959399
40	0xbf5290de	-0.822523
41	0xbf915f72	-1.1357253
42	0xbfbbfb90	-1.4686146
43	0xbfd3aca6	-1.6537063
44	0xbfa62ae4	-1.2981839
45	0xbfc05d4a	-1.502847
46	0xbf6103f5	-0.8789666
47	0xbfa28161	-1.2695733
48	0xbf818f08	-1.0121775
49	0xbfa38ff3	-1.2778305
50	0xbfaf4a7c	-1.3694606
51	0xbf3ac2fa	-0.7295376
52	0xbf8297ef	-1.0202616
53	0xbf58a0b7	-0.8462023
54	0xbfd0f806	-1.6325691
55	0xbf9a5813	-1.2058128
56	0xbfa76541	-1.3077775
57	0xbf6968be	-0.9117545
58	0xbf52596f	-0.82167715
59	0xbf709f22	-0.9399282
60	0xbf91110f	-1.1333331
61	0xbf9b910a	-1.2153637
62	0xbf9f819a	-1.2461426
63	0xbf8f7486	-1.1207435
64	0xbf9d12a9	-1.227132
65	0xbf6700cc	-0.9023559
66	0xbfc4c53c	-1.5372691
67	0xbf8d01b4	-1.1016145
68	0xbf8811a0	-1.0630379
69	0xbfc21106	-1.5161445
70	0xbee7c055	-0.45263925
71	0xbf92709c	-1.1440616
72	0xc0081ad9	-2.1266387
73	0xbfadc996	-1.3577144
74	0xbfe004d0	-1.7501469
75	0xbf935156	-1.1509197
76	0xbf88566b	-1.0651373
77	0xbfacc218	-1.3496733
78	0xbfc05b14	-1.5027795
79	0xbf6422a0	-0.89115334
80	0x3fb20dc7	1.3910455
81	0xbf70940d	-0.9397591
82	0xbe54f3b1	-0.20796086
83	0xbf407ece	-0.7519349
84	0xbfc00a48	-1.5003138
85	0xbee726e7	-0.45146868
86	0xbf9fa7c0	-1.2473068
87	0xbe2a7569	-0.16646351
88	0xbf9e3f1a	-1.2363007
89	0x3ea494ee	0.32144874
90	0xbf81f3a9	-1.0152484
91	0xbfd475cc	-1.6598449
92	0xbede7ac7	-0.43453047
93	0xbf076fe4	-0.52905107
94	0xbf1a7d40	-0.60347366
95	0xbeb90838	-0.36139083
96	0x3faafb43	1.3357929
97	0x3fdbd5c2	1.7174609
98	0xbef645b0	-0.48100042
99	0x3fa777b8	1.308341
100	0xbfdf2b22	-1.7435038
101	0x3ebd50b4	0.36975634
102	0x3ed76413	0.42068538
103	0x3fa0d888	1.256608
104	0x3f777281	0.96659094
105	0x3fd2cdd9	1.646907
106	0x3ec32da4	0.3812076
107	0x3f7b627a	0.9819714
108	0xbf1c29d9	-0.61001354
109	0xbfb36792	-1.4015982
110	0xbe3fc190	-0.18726182
111	0xbfd5d5b8	-1.6705847
112	0xbfa08b67	-1.2542542
113	0x3f280908	0.6563878
114	0xbdb83c7e	-0.08995913
115	0xbfa6b694	-1.3024468
116	0xbf8d1287	-1.1021279
117	0xbed7061d	-0.41996852
118	0x3eaf0a36	0.34187478
119	0x3fa3c594	1.2794671
120	0x3f547f87	0.8300709
121	0x3f75eb30	0.9606199
122	0x3ddc6b28	0.10762626
123	0xbde3cd56	-0.11123149
124	0x3f14d041	0.5813027
125	0xbeb9f479	-0.3631933
126	0x3ef1f9d3	0.47260913
127	0xbfbe4e77	-1.4867696
128	0x3f44b560	0.76839256
129	0xbf4fc83d	-0.81164914
130	0xbe613155	-0.21991475
131	0xbe1236de	-0.14278743
132	0xbe9fd966	-0.3122055
133	0xbe6baa01	-0.2301407
134	0xbe89e643	-0.26933488
135	0xbf958af0	-1.1683025
136	0xbf6cb0e3	-0.9245741
137	0x3f3ee468	0.7456727
138	0xbfab197b	-1.3367151
139	0xbe9aa364	-0.30202782
140	0x3f9bee60	1.2182121
141	0xbf2dfda3	-0.67965144
142	0xbe6c9844	-0.2310496
143	0x3e717796	0.23580775
144	0x3cdf159b	0.027231982
145	0x3f85033a	1.039161
146	0xbec78497	-0.38968346
147	0xbf3ef24b	-0.7458846
148	0xbebeb6b8	-0.37248778
149	0x3e5fd34a	0.21857944
150	0xbfb8e01b	-1.4443392
151	0x3f8e33d0	1.1109562
152	0x40096b58	2.1471767
153	0x3f7806b1	0.9688521
154	0xbc19bed5	-0.009383877
155	0x3ec2ae98	0.3802383
156	0x3e8833cc	0.26602018
157	0xbf3d73da	-0.740049
158	0xbf9e1373	-1.2349685
159	0x3f616650	0.8804674

lstm.bias_hh_l0 f4 [160]
0	0x3fbcaa66	1.4739501
1	0x3fc14619	1.5099517
2	0x3f102f88	0.56322527
3	0x3d57d718	0.052695364
4	0x3fbe30c6	1.4858634
5	0xbf03e1c5	-0.5151637
6	0x3f93f097	1.1557797
7	0x3ec440a8	0.3833058
8	0x3fac0593	1.3439201
9	0xbcd815b3	-0.026377534
10	0x3ee5d9e0	0.44892788
11	0x3f9af09b	1.2104677
12	0xbe940007	-0.2890627
13	0xbe50fb6c	-0.2040841
14	0x3f198fee	0.59985244
15	0x3d180f04	0.037123695
16	0x3e821313	0.25405177
17	0x3fd20d73	1.6410354
18	0xbeb7aa51	-0.3587213
19	0x3f6c6fc7	0.9235806
20	0x3fce0f1e	1.6098363
21	0x3ce7597d	0.028240914
22	0x3f09843e	0.5371741
23	0x3f191d8d	0.59810716
24	0x3f4a5c11	0.7904673
25	0x3ffd7909	1.9802562
26	0x3ea6123e	0.32435793
27	0x3e1aa1d8	0.15100801
28	0x3f7bdfee	0.98388565
29	0x3f53caf8	0.8273158
30	0xbe80cea7	-0.25157663
31	0x4004d491	2.075474
32	0x40176769	2.3656867
33	0x3f9c3b9d	1.2205693
34	0xbed6c00a	-0.4194339
35	0x3f814fec	1.0102515
36	0x3f46463e	0.7745093
37	0xbbef2215	-0.007297764
38	0x3edf2abb	0.43587288
39	0x3fdba494	1.71596
40	0xbf5290de	-0.822523
41	0xbf915f72	-1.1357253
42	0xbfbbfb90	-1.4686146
43	0xbfd3aca6	-1.6537063
44	0xbfa62ae4	-1.2981839
45	0xbfc05d4a	-1.502847
46	0xbf6103f5	-0.8789666
47	0xbfa28161	-1.2695733
48	0xbf818f08	-1.0121775
49	0xbfa38ff3	-1.2778305
50	0xbfaf4a7c	-1.3694606
51	0xbf3ac2fa	-0.7295376
52	0xbf8297ef	-1.0202616
53	0xbf58a0b7	-0.8462023
54	0xbfd0f806	-1.6325691
55	0xbf9a5813	-1.2058128
56	0xbfa76541	-1.3077775
57	0xbf6968be	-0.9117545
58	0xbf52596f	-0.82167715
59	0xbf709f22	-0.9399282
60	0xbf91110f	-1.1333331
61	0xbf9b910a	-1.2153637
62	0xbf9f819a	-1.2461426
63	0xbf8f7486	-1.1207435
64	0xbf9d12a9	-1.227132
65	0xbf6700cc	-0.9023559
66	0xbfc4c53c	-1.5372691
67	0xbf8d01b4	-1.1016145
68	0xbf8811a0	-1.0630379
69	0xbfc21106	-1.5161445
70	0xbee7c055	-0.45263925
71	0xbf92709c	-1.1440616
72	0xc0081ad9	-2.1266387
73	0xbfadc996	-1.3577144
74	0xbfe004d0	-1.7501469
75	0xbf935156	-1.1509197
76	0xbf88566b	-1.0651373
77	0xbfacc218	-1.3496733
78	0xbfc05b14	-1.5027795
79	0xbf6422a0	-0.89115334
80	0x3fb8308d	1.4389817
81	0xbf75cfed	-0.96020395
82	0xbeaddfeb	-0.33959898
83	0xbf1696ac	-0.5882366
84	0xbfbc6b68	-1.4720278
85	0xbeab2c0d	-0.33432046
86	0xbfa9fbf6	-1.3280017
87	0xbdbb5087	-0.09146219
88	0xbf80b633	-1.0055603
89	0x3f20a323	0.62748927
90	0xbf8df60f	-1.1090716
91	0xbfe42bce	-1.7825868
92	0xbf168dd3	-0.58810157
93	0xbebad0ea	-0.36487514
94	0xbf2d2deb	-0.6764819
95	0xbe93c4e5	-0.28861156
96	0x3f9150ca	1.135278
97	0x3fcf28a3	1.6184276
98	0xbf0fcf48	-0.5617566
99	0x3f927a10	1.14435
100	0xbff76645	-1.9328085
101	0x3f1f1529	0.6214166
102	0x3f2b2218	0.668489
103	0x3f89e668	1.077344
104	0x3f945310	1.1587849
105	0x3fe49823	1.7858928
106	0x3e43c120	0.1911664
107	0x3f5baa2a	0.85806525
108	0xbf451fc8	-0.7700162
109	0xbfa8a37f	-1.3174895
110	0xbe6917c0	-0.22762966
111	0xbfdf235c	-1.7432666
112	0xbf99c2f4	-1.201262
113	0x3f18ac4f	0.5963792
114	0x3d961e23	0.07329967
115	0xbfab8bc0	-1.3402023
116	0xbf872628	-1.0558519
117	0xbf193a5f	-0.5985469
118	0x3ec0660c	0.37577856
119	0x3fa15f6b	1.2607244
120	0x3f15647d	0.5835646
121	0x3f646d23	0.8922903
122	0x3e768673	0.24074726
123	0x3ccc8835	0.024967292
124	0x3f18a9a2	0.5963384
125	0xbee75f5c	-0.4518994
126	0x3ef0d199	0.4703491
127	0xbfab072a	-1.3361561
128	0x3f1c72cb	0.6111266
129	0xbf2bc832	-0.6710235
130	0xbdd1e34d	-0.10248432
131	0x3dc71938	0.09721607
132	0xbed7201c	-0.42016685
133	0x3a8d145c	0.0010763514
134	0xbe9b2b66	-0.30306548
135	0xbf95f6a2	-1.1715891
136	0xbf81bc8f	-1.0135669
137	0x3f56e6f5	0.8394616
138	0xbfa163d0	-1.2608585
139	0xbe591420	-0.21199083
140	0x3f9ffad1	1.2498418
141	0xbf3dd1fc	-0.74148536
142	0xbe5fee85	-0.21868332
143	0x3e0abd51	0.13548781
144	0x3c944eaa	0.018103916
145	0x3f94e8b0	1.163351
146	0xbe60bdf2	-0.21947458
147	0xbf43a32c	-0.76420856
148	0xbe7fc41b	-0.24977152
149	0x3ed908b1	0.42389444
150	0xbfb7fbd2	-1.4373724
151	0x3f7a6276	0.9780649
152	0x40090478	2.1408978
153	0x3f77306c	0.9655826
154	0xbe13b135	-0.14423068
155	0x3e8bff2b	0.27343115
156	0x3e0567e7	0.13027917
157	0xbf63eef8	-0.8903651
158	0xbf8c9cd5	-1.0985361
159	0x3f757fb2	0.9589797

lstm.weight_ih_l1 f4 [160, 40]
0	0x3ccf9abb	0.025342336
1	0xbe912477	-0.28348133
2	0xbe0926fa	-0.13393775
3	0xbf389450	-0.72101307
4	0x3ea1ed91	0.3162656
5	0x3f224985	0.6339343
6	0xbf0e1679	-0.5550304
7	0x3ec2b19b	0.38026127
8	0xbed64ea5	-0.41856876
9	0x3f15166e	0.5823735
10	0xbe519f44	-0.20470911
11	0xbeaa4ba4	-0.33260834
12	0x3ec87511	0.39151815
13	0xbf100b8d	-0.56267625
14	0xbf449249	-0.76785713
15	0x3e4e87c0	0.20168972
16	0x3efe854e	0.49711078
17	0xbe048a7e	-0.12943456
18	0xbe87b82e	-0.26507705
19	0x3ec38fa0	0.38195515
20	0xbe0f5707	-0.13998042
21	0xbeb73f20	-0.35790348
22	0x3ef32c45	0.47494712
23	0x3d4b60f5	0.049653012
24	0x3f181702	0.5941011
25	0x3d8a19bf	0.06743192
26	0x3f142631	0.57870775
27	0x3e011599	0.12605895
28	0xbecbb123	-0.39783582
29	0xbea44a72	-0.32088047
30	0xbf137e28	-0.57614374
31	0x3d0234c8	0.031788617
32	0x3f203562	0.62581456
33	0x3f18d56c	0.59700656
34	0xbf0d6d87	-0.5524525
35	0xbf1bf9a8	-0.6092782
36	0x3e4293df	0.19001721
37	0xbf5092f8	-0.81474257
38	0x3f17bdc6	0.59273946
39	0x3dfb1809	0.12260444
40	0x3cd23aec	0.025662862
41	0xbd933053	-0.071869515
42	0xbe8dbb98	-0.27682185
43	0x3dd475d1	0.10374034
44	0xbf8a7864	-1.081799
45	0x3f0d6c40	0.552433
46	0xbeb933fa	-0.36172467
47	0xbf7b651f	-0.98201174
48	0x3f1d504a	0.61450636
49	0x3f302304	0.6880343
50	0xbdf3680d	-0.118850805
51	0xbe8860ab	-0.26636252
52	0xbe8e0e66	-0.2774536
53	0xbcf1714d	-0.029472971
54	0xbf290b66	-0.6603302
55	0xbe24b360	-0.16084051
56	0x3e2a6c9c	0.16642994
57	0x3f03c8cd	0.5147827
58	0xbed2bc55	-0.4115931
59	0x3f9c3920	1.2204933
60	0xbe642304	-0.22278982
61	0x3ec01f0b	0.37523684
62	0x3e58e5e1	0.21181442
63	0x3edeee66	0.4354126
64	0x3e20033f	0.15626238
65	0xbdbb3ef2	-0.09142865
66	0x3d90aa53	0.07063737
67	0x3ee70af9	0.4512556
68	0xbf3505d3	-0.7071201
69	0xbeeea0c3	-0.46607026
70	0x3f0ba9cc	0.54555964
71	0xbcc1e78b	-0.023669979
72	0x3ed355da	0.41276437
73	0x3e872804	0.26397717
74	0x3e879aa5	0.26485172
75	0xbf2c8346	-0.6738781
76	0x3f207446	0.6267742
77	0x3e9b9d91	0.3039365
78	0x3fdd3352	1.7281287
79	0x3ed186d7	0.40923187
80	0x3f72ad23	0.94795436
81	0xbdef51d1	-0.11685527
82	0xbdc1ee34	-0.09469262
83	0xbf130c1a	-0.5744034
84	0xbe93f58b	-0.28898272
85	0xbeb72a1d	-0.35774317
86	0xbf24cc3a	-0.64374125
87	0x3cd49c70	0.025953501
88	0xbef041b8	-0.4692514
89	0xbf041a3d	-0.51602536
90	0xbe64e191	-0.22351672
91	0xbe4aed41	-0.19817068
92	0xbeb9aa9f	-0.36262986
93	0xbf0d3b13	-0.55168265
94	0xbf1071b9	-0.56423527
95	0xbeb71d10	-0.3576436
96	0xbf2123df	-0.6294536
97	0x3f8160fa	1.010772
98	0xbf612a84	-0.879555
99	0x3f0e4569	0.5557466
100	0xbee52378	-0.44753623
101	0x3f317eaf	0.6933393
102	0x3e98cd0f	0.29843947
103	0x3e33f01f	0.17572068
104	0xbe88bb65	-0.2670547
105	0x3f404302	0.75102246
106	0x3f05f4f0	0.5232687
107	0x3f2dc35e	0.6787623
108	0x3e52b939	0.2057847
109	0xbd9d43d4	-0.07678953
110	0x3de217b3	0.110396765
111	0xbe96ec29	-0.2947705
112	0xbe8ec16f	-0.27881953
113	0x3efaa4f1	0.48953965
114	0xbe8e4764	-0.27788842
115	0xbeb429c6	-0.3518812
116	0xbe002700	-0.12514877
117	0xbfa1e8a1	-1.2649118
118	0xbdb0743b	-0.08615919
119	0xba0c2492	-0.00053460256
120	0xbdc3f5f5	-0.09568397
121	0xbfd38aef	-1.6526774
122	0xbf243ec8	-0.64158297
123	0xbe7c1e39	-0.24620904
124	0xbf9d5e5f	-1.2294425
125	0xbf0930cc	-0.53590083
126	0xbf9e4b3b	-1.2366709
127	0xbe85a36c	-0.26101243
128	0xbeb1e438	-0.3474443
129	0xbf70a334	-0.9399903
130	0xbfb311fb	-1.3989862
131	0xbcd55548	-0.026041642
132	0xbfc8dd43	-1.5692524
133	0xbf4f4808	-0.80969286
134	0xbf39bd08	-0.72554064
135	0xbf1442ff	-0.5791473
136	0x3eb722f6	0.3576886
137	0xbf6d7953	-0.9276325
138	0x3f0492c5	0.5178645
139	0x3e253841	0.1613474
140	0x3ea2a52c	0.3176664
141	0x3eccbfcf	0.39990088
142	0x3f4c655f	0.7984218
143	0x3fa46d15	1.2845789
144	0x3fa07bec	1.2537818
145	0xbe0565fa	-0.13027182
146	0x3f7b40dc	0.9814584
147	0xbdec2f92	-0.11532511
148	0x3f9fd275	1.2486101
149	0xbf3ac0bb	-0.72950333
150	0x3e62bc47	0.22142135
151	0xbd6460f4	-0.055756524
152	0x3eeccd6f	0.46250483
153	0x3e6a7cb4	0.22899133
154	0xbed35839	-0.41278246
155	0xbe240fd7	-0.16021667
156	0x3e61efff	0.22064207
157	0xbfa3a1e4	-1.278378
158	0x3e611a96	0.21982798
159	0xbe8b801e	-0.27246183
160	0x3eeca854	0.46222174
161	0xbe8b7375	-0.27236524
162	0x3db46b80	0.088095665
163	0xbf9805fb	-1.1876825
164	0xbe82ac84	-0.25522244
165	0x3ec43dc8	0.38328385
166	0xbe2a30f7	-0.16620241
167	0xbf5cf2f0	-0.86308193
168	0xbf6a7a56	-0.9159292
169	0x3ea7859c	0.32719123
170	0x3ebdf9f0	0.3710475
171	0x3d52e44f	0.051487263
172	0xbf109bdb	-0.56487817
173	0xbaeaa72b	-0.0017902603
174	0xbf041203	-0.51589984
175	0xbf5f86b7	-0.87314934
176	0x3dc9b762	0.098494306
177	0x3ea4b699	0.3217056
178	0xbe86b5dd	-0.26310626
179	0x3f23a355	0.639211
180	0xbe41c64b	-0.18923299
181	0xbc001ce2	-0.007819386
182	0x3f57b180	0.8425522
183	0x3d1381cc	0.036012456
184	0x3d6dede2	0.05808819
185	0x3e4a9be1	0.19786026
186	0x3d3c3c4c	0.04595594
187	0x3f58dca5	0.84711677
188	0xbf838f08	-1.0278025
189	0xbed297b1	-0.41131356
190	0xbf216b8a	-0.63054717
191	0xbed195b1	-0.40934518
192	0x3f33020c	0.69925
193	0x3e6eeb23	0.23331885
194	0xbea4568d	-0.32097283
195	0xbed52670	-0.41630888
196	0xbebc67c8	-0.3679793
197	0xbf96bc1f	-1.177616
198	0x3ea4d6d7	0.3219516
199	0x3e8b436e	0.27199882
200	0x3f35f453	0.71075934
201	0x3d85dd2f	0.06536328
202	0xbcce9ad0	-0.025220305
203	0xbd148729	-0.03626171
204	0xbf93fb15	-1.1560999
205	0x3e21e273	0.1580904
206	0x3d6fca42	0.058542497
207	0xbef75263	-0.48305044
208	0xbe9a02ee	-0.3008036
209	0x3f121097	0.57056564
210	0x3e175311	0.14777781
211	0xbd2fe754	-0.04294522
212	0x3f16ec50	0.58954334
213	0xbea25425	-0.31704822
214	0xbf26e6e1	-0.65196043
215	0x3e92d57c	0.286785
216	0x3f8dde33	1.1083435
217	0x3edec2a6	0.4350788
218	0xbd7b8f94	-0.061416224
219	0x3f584a65	0.8448852
220	0xbe61d528	-0.22053969
221	0xbee187f7	-0.44049045
222	0x3f361879	0.7113109
223	0x3f48e34b	0.7847182
224	0xbebd8841	-0.37018016
225	0x3f2ef046	0.6833538
226	0x3e221c99	0.15831222
227	0xbda1bda8	-0.07897502
228	0x3ef12fe2	0.47106844
229	0xbfa87fe2	-1.3164027
230	0xbf09f5b5	-0.53890544
231	0xbea7133b	-0.3263186
232	0xbe833e5e	-0.2563352
233	0x3ecac155	0.39600626
234	0x3e87c51d	0.26517573
235	0xbf80dbb3	-1.0067047
236	0xbea22224	-0.31666672
237	0x3e97f09f	0.29675767
238	0x3ed47b55	0.41500345
239	0x3da74571	0.08167542
240	0x3f13d87d	0.5775221
241	0x3f08733f	0.5330085
242	0x3f82bae2	1.0213282
243	0xbf5b643a	-0.8569981
244	0xc00a29e3	-2.1588066
245	0x3ef0ebc0	0.47054863
246	0xbea106a2	-0.31450373
247	0xbf11c49a	-0.56940615
248	0x3f2301a1	0.6367436
249	0x3eef16ce	0.46697086
250	0x3e9b282d	0.3030409
251	0xbf03ae85	-0.5143817
252	0x3fc23590	1.5172596
253	0x3eb65604	0.356125
254	0xbe912547	-0.28348753
255	0xbf9df94f	-1.2341708

lstm.weight_hh_l1 f4 [160, 40]
0	0xbea73482	-0.32657248
1	0xbf86d04f	-1.0532321
2	0x3ea78c37	0.32724163
3	0x3e8cdcad	0.27512112
4	0xbe0037a2	-0.12521222
5	0xbece6ddd	-0.40318194
6	0x3f0405d5	0.515714
7	0xbf5b82e9	-0.8574663
8	0xbd91be4c	-0.071163744
9	0xbe73505b	-0.23761122
10	0xbf29e7a9	-0.6636911
11	0x3f6b3675	0.9187997
12	0xbf55c5f0	-0.83505154
13	0xbdb17566	-0.0866497
14	0x3e937424	0.28799546
15	0xbef7854a	-0.4834388
16	0xbec72558	-0.3889568
17	0xbebe12d8	-0.37123752
18	0xbef7953d	-0.48356047
19	0x3efefae1	0.4980078
20	0x3f099ebb	0.5375783
21	0xbf135cc5	-0.5756343
22	0x3eae0941	0.33991435
23	0x3e9b47b3	0.3032814
24	0x3ee1084f	0.4395165
25	0xbeae7f3e	-0.34081453
26	0x3e26e0a3	0.1629663
27	0x3e68d8b9	0.22738923
28	0x3f9c4ec2	1.2211535
29	0x3fb6be72	1.4276869
30	0xbdf4e0af	-0.119569175
31	0xbf93ccc1	-1.1546861
32	0xbde36c9b	-0.11104699
33	0x3ccb5259	0.02481954
34	0x3efa1324	0.48842728
35	0xbb9be1f2	-0.0047571594
36	0xbe29b81a	-0.16574135
37	0xbe3b6403	-0.1829987
38	0xbf0dfceb	-0.5546405
39	0xbdd9c979	-0.10634131
40	0x3cbdeb9e	0.02318364
41	0xbf535821	-0.8255635
42	0x3e277092	0.16351536
43	0x3e4eacd0	0.2018311
44	0xbee5f17d	-0.44910803
45	0x3f182874	0.59436727
46	0xbdadd4bb	-0.08487841
47	0xbed5d6d8	-0.41765475
48	0xbf019e1f	-0.506319
49	0xbf06d5ff	-0.5267028
50	0x3ea43538	0.32071853
51	0x3f1c3cdb	0.6103036
52	0xbf889680	-1.0670929
53	0x3f1572dd	0.5837839
54	0x3ef700b5	0.48242727
55	0x3d6b9d08	0.057522804
56	0xbeae2714	-0.3401419
57	0xbf176e28	-0.5915246
58	0x3de9b767	0.11411934
59	0x3fa5d7bc	1.2956462
60	0x3dbe1f78	0.09283346
61	0xbdec9469	-0.115517445
62	0x3e91fa01	0.2851105
63	0x3e8d6904	0.27619183
64	0x3c9f8c37	0.01947604
65	0xbe46449f	-0.19362114
66	0x3f00931e	0.50224483
67	0x3efe4d8d	0.49668542
68	0x3ed73d42	0.42038924
69	0x3f64d624	0.8938925
70	0x3f621f1d	0.88328725
71	0x3e6a9018	0.2290653
72	0x3efb15ae	0.49039978
73	0x3f4cec75	0.80048305
74	0xbeca3a89	-0.39497784
75	0x3edb6094	0.4284712
76	0x3ebf1494	0.37320387
77	0x3ebb6313	0.36599025
78	0x3f3fae6d	0.7487553
79	0xbf1c09f1	-0.6095267
80	0xbea296b9	-0.31755617
81	0xbebdd2b9	-0.3707483
82	0x3f366950	0.71254444
83	0xbe3f33ae	-0.18672058
84	0xbdbeb065	-0.09310988
85	0x3e8f47b6	0.279844
86	0xbecad0f3	-0.3961254
87	0xbf1195e5	-0.56869346
88	0xbfa71163	-1.3052181
89	0xbefb8440	-0.49124336
90	0xbf05e953	-0.5230915
91	0x3d9b2a27	0.07576399
92	0xbf40a7f8	-0.752563
93	0xbe7a83ba	-0.24464312
94	0xbecfffc9	-0.40624836
95	0xbf31964f	-0.6936998
96	0xbe87d0e9	-0.26526573
97	0xbe2f5768	-0.17123187
98	0x3f02980b	0.5101325
99	0xbe631917	-0.2217754
100	0xbe5bee76	-0.21477684
101	0xbd2cf682	-0.042227276
102	0xbd0f6d4f	-0.035016354
103	0x3e7d5111	0.24737956
104	0x3f4fea7b	0.81217164
105	0xbf094d0d	-0.53633195
106	0x3f57175f	0.84020036
107	0x3ba404a7	0.0050054374
108	0x3e700eb7	0.23443113
109	0x3e2b6e5f	0.16741322
110	0x3f046fd2	0.51733124
111	0xbe0fcf2d	-0.14043875
112	0x3d516e2b	0.051130455
113	0x3f2017f5	0.62536556
114	0xbf2b0d35	-0.6681703
115	0xbdace467	-0.08442002
116	0x3ecdb228	0.40174985
117	0x3e9d0c01	0.3067322
118	0x3f70ad9d	0.9401491
119	0xbe114f13	-0.1419032
120	0xbf72e0c4	-0.94874215
121	0x3f3ef328	0.74589777
122	0x3cfc7563	0.030817693
123	0x3fd14f59	1.635234
124	0x3f89542d	1.0728813
125	0x3f0aaf1b	0.5417344
126	0xbe0bd936	-0.13657078
127	0x3efb588e	0.49091
128	0xbea197ec	-0.3156122
129	0x3e191f13	0.1495326
130	0xbe40ace3	-0.18815951
131	0x3f168897	0.5880217
132	0xbf60053c	-0.8750799
133	0xbe7dff86	-0.24804506
134	0xbeea139a	-0.4571808
135	0xbe04fa74	-0.12986165
136	0xbecd760f	-0.40129134
137	0xbeda8585	-0.42679992
138	0xbd8e3af1	-0.06944836
139	0x3e27bc84	0.16380507
140	0x3c38424b	0.011246274
141	0x3d612eed	0.054976393
142	0xbe46e008	-0.19421399
143	0xbee9862f	-0.45610186
144	0x3ec895d3	0.39176807
145	0x3f04a450	0.5181322
146	0x3e9f8fac	0.311643
147	0x3e233345	0.15937527
148	0x3e57b094	0.21063453
149	0x3ef8856f	0.48539302
150	0xbe2070fe	-0.15668103
151	0x3ec594da	0.38590127
152	0x3f2a2219	0.6645828
153	0xbf522473	-0.8208687
154	0xbdcfada1	-0.10140539
155	0xbdce191d	-0.10063384
156	0x3e947694	0.28996718
157	0xbf7b1f08	-0.98094225
158	0x3ead1e69	0.33812264
159	0xbeecf624	-0.4628154
160	0xbf119319	-0.5686508
161	0xbf5362b1	-0.82572466
162	0x3ed3a235	0.41334692
163	0xbf0bd93d	-0.54628354
164	0xbee5c583	-0.44877252
165	0x3f8cc86f	1.0998667
166	0x3ed32789	0.412411
167	0xbebee37c	-0.37282932
168	0xbee894e7	-0.45426103
169	0x3f229d08	0.6352086
170	0xbe8c9177	-0.2745473
171	0x3ca8b9fa	0.020596493
172	0xbe33f5d7	-0.17574249
173	0xbee066c3	-0.438284
174	0x3e677d15	0.22606309
175	0xbecb4f8b	-0.39709124
176	0xbdc6f066	-0.09713821
177	0xbe3b89c7	-0.18314277
178	0x3eb069ef	0.3445582
179	0xbf3fabc6	-0.7487148
180	0x3b539e72	0.0032290486
181	0x3eeedc59	0.46652487
182	0x3f566e9f	0.83762544
183	0x3e01e831	0.1268623
184	0x3e24a0fd	0.16077037
185	0xbf2a291d	-0.66468984
186	0xbdca2dd5	-0.09872023
187	0x3df84091	0.1212169
188	0xbf100dda	-0.56271136
189	0xbe74a885	-0.2389241
190	0x3f33c3ab	0.7022044
191	0xbe649bf4	-0.22325116
192	0xbd86b878	-0.06578153
193	0xbbff1c9b	-0.0077853925
194	0x3f1a52b8	0.6028247
195	0x3f628c7a	0.884956
196	0x3ea495e0	0.32145596
197	0x3e97171b	0.29509816
198	0x3e272595	0.1632293
199	0x3eece41a	0.46267778
200	0xbd0207ab	-0.031745594
201	0xbf67274b	-0.9029433
202	0xbf304142	-0.68849576
203	0xbe6d4bac	-0.23173398
204	0x3e2f9636	0.17147145
205	0xbd68555a	-0.056722023
206	0x3eb03366	0.34414214
207	0xbeb370ad	-0.35046902
208	0x3e53b0a9	0.20672859
209	0xbf4ce665	-0.80039054
210	0xbe8075a0	-0.2508974
211	0x3f1e6c66	0.6188415
212	0xbec76251	-0.38942197
213	0x3dc0ee75	0.09420482
214	0x3eb51c5e	0.35373205
215	0xbf3f8089	-0.74805504
216	0xbf178fc7	-0.5920376
217	0xbeb5c11b	-0.3549889
218	0xbee88c52	-0.45419556
219	0x3f972cc7	1.181054
220	0x3e90b91e	0.28266233
221	0xbf61284b	-0.8795211
222	0xbc11f4ef	-0.008908494
223	0xbebf892e	-0.37409347
224	0x3f4e125d	0.8049677
225	0x3e428aa1	0.18998195
226	0x3f57c2ae	0.8428143
227	0x3e9b2301	0.30300143
228	0x3e7bb20c	0.24579638
229	0x3f3ede40	0.74557877
230	0x3cf565cd	0.029955769
231	0xbee112b6	-0.43959588
232	0x3f8374c4	1.0270009
233	0x3f8664de	1.0499532
234	0x3f5a092e	0.8517026
235	0x3ec52662	0.38505846
236	0x3f283786	0.6570972
237	0xbf1114f1	-0.5667258
238	0x3f19eb5e	0.60124767
239	0xbf201e90	-0.62546635
240	0xbdda9c2d	-0.106743194
241	0xbeae511a	-0.3404625
242	0xbf00c482	-0.5029985
243	0xbd9d2231	-0.07672537
244	0xbefa5b76	-0.48897904
245	0x3f097b94	0.5370419
246	0x3ed8c4f7	0.42337772
247	0xbfbc0130	-1.4687862
248	0xbf44c185	-0.7685779
249	0x3e8946b1	0.26811746
250	0x3f25251e	0.6450976
251	0x3e2dd171	0.16974427
252	0xbe2e2924	-0.17007881
253	0x3e67bf56	0.22631583
254	0x3f1772e9	0.59159714
255	0xbe80d263	-0.25160512

lstm.bias_ih_l1 f4 [160]
0	0xbe36b2d7	-0.1784166
1	0x3e2772ce	0.16352388
2	0xbe276367	-0.16346513
3	0x3e17a4bd	0.14808936
4	0xbebedc3a	-0.37277395
5	0x3cf4ada5	0.029867956
6	0xbec97be8	-0.39352345
7	0x3e93a549	0.2883704
8	0x3e153875	0.14572318
9	0xbddda3ce	-0.10822259
10	0xbf0a776d	-0.5408848
11	0x3e143464	0.1447311
12	0x3cd37aa8	0.025815323
13	0xbe67caa1	-0.2263589
14	0x3e3f3009	0.18670668
15	0xbec7ce36	-0.39024514
16	0x3edc87bf	0.43072316
17	0x3f0a15d8	0.5393958
18	0x3e4c2cd0	0.1993897
19	0xbedbf247	-0.4295828
20	0x3e3227e3	0.17398028
21	0xbe41527d	-0.18879123
22	0xbf125db2	-0.5717422
23	0x3e12a690	0.14321351
24	0x3debeb79	0.11519522
25	0x3e324ea2	0.17412809
26	0xbefb0e31	-0.49034265
27	0x3daa373c	0.08311316
28	0xbf4a5885	-0.7904132
29	0xbd14ed54	-0.036359146
30	0x3e2c87a8	0.16848624
31	0xbe09a28c	-0.13440913
32	0xbde4a210	-0.111637235
33	0xbdadf382	-0.08493711
34	0xbeb2d51c	-0.34928215
35	0x3e37e167	0.17957078
36	0xbc3de558	-0.011590324
37	0xbcabc2e2	-0.02096695
38	0x3d78fb88	0.060786754
39	0xbe1e6ab3	-0.1547039
40	0xbf0e3b47	-0.555592
41	0xbdb5b1bb	-0.0887179
42	0xbda99d88	-0.08282
43	0x3e847997	0.25874016
44	0xbdb1f3f0	-0.086891055
45	0xbe8a85d9	-0.27055243
46	0xbe4a0f6b	-0.19732444
47	0x3cf81037	0.03028117
48	0xbcee486e	-0.029087272
49	0x3eecfcaf	0.46286532
50	0xbe1f1dae	-0.15538666
51	0xbeb2e9f2	-0.3494411
52	0xbf1fdfed	-0.6245106
53	0xbe16edbd	-0.14739127
54	0xbd899720	-0.06718278
55	0xbef8c2c6	-0.485861
56	0xbe2d7c55	-0.1694196
57	0x3d05dff7	0.032684293
58	0xbb194369	-0.0023386127
59	0xbeda02bc	-0.4258021
60	0xbd0673ee	-0.032825403
61	0x3e21ab3f	0.15787981
62	0x3e5133f6	0.20429978
63	0xbda4bf15	-0.080442585
64	0x3c580106	0.013183838
65	0x3e441dc6	0.19151983
66	0x3dbab29f	0.091161005
67	0xbe4f86ee	-0.20266315
68	0xbdee736c	-0.11643109
69	0x3e505667	0.2034546
70	0xbda64a20	-0.08119607
71	0xbe0e9bcd	-0.13926621
72	0xbd2dd461	-0.04243887
73	0xbcaf8f1e	-0.021430548
74	0xbea5bb5e	-0.32369512
75	0xbeb443b6	-0.3520791
76	0x3df0cfcd	0.11758385
77	0xbe11f537	-0.14253698
78	0x3e266f02	0.16253284
79	0x3cdc18a6	0.026867222
80	0xbcf0a221	-0.029374184
81	0x3cafb5d8	0.021449015
82	0x3da7fefd	0.08202932
83	0xbdfde21d	-0.12396643
84	0x3f0a5e13	0.54049796
85	0x3dff5e5b	0.12469169
86	0xbf2204ed	-0.63288766
87	0xbe824fdf	-0.25451562
88	0xbeeb066e	-0.45903343
89	0xbdc1e9a3	-0.09468391
90	0xbd54fa09	-0.051996265
91	0x3eaf2e33	0.34214935
92	0xbf182dc2	-0.5944482
93	0x3e346c70	0.1761949
94	0x3eebc9af	0.4605231
95	0xbe920b42	-0.28524214
96	0xbf331d15	-0.6996625
97	0xbf5820a1	-0.8442479
98	0xbefa57f3	-0.48895225
99	0xbe62e06e	-0.22155926
100	0x3f00757d	0.5017927
101	0xbe59c6d4	-0.21267253
102	0x3f209f2f	0.62742895
103	0x3e921028	0.2852795
104	0x3d1794e5	0.03700723
105	0x3c8f5514	0.017496623
106	0x3ecfcbfb	0.40585312
107	0x3ed0d5ad	0.40788022
108	0xbe8c7652	-0.2743402
109	0x3f33ead9	0.70280224
110	0x3f112dec	0.56710696
111	0xbe44e0f5	-0.1922644
112	0x3dbbe7e3	0.09175088
113	0x3d6cf9d1	0.05785543
114	0x3ec6862c	0.3877424
115	0x3e8d1380	0.2755394
116	0x3ee0d7d4	0.43914664
117	0xbe698bdb	-0.22807257
118	0x3ee7947f	0.4523048
119	0xbdc545c0	-0.096324444
120	0xbf901af8	-1.125823
121	0xbf2c8f41	-0.6740609
122	0xbf7d5619	-0.989595
123	0xbc55eff8	-0.013057701
124	0xbf87c4a9	-1.0606891
125	0xbed7ec35	-0.421724
126	0xbecf88ae	-0.40533966
127	0xbcd26d7e	-0.025686976
128	0xbdd96b83	-0.10616209
129	0xbf83972f	-1.0280513
130	0xbe2f03c3	-0.17091279
131	0xbf978cda	-1.183986
132	0xbfacc898	-1.3498716
133	0xbeced6c5	-0.4039823
134	0xbb9a2500	-0.004704118
135	0xbaecf0a0	-0.0018077083
136	0x3d732e1d	0.05937015
137	0xbf1e1bd5	-0.6176122
138	0xbeb13357	-0.34609482
139	0xbf52a67e	-0.82285297
140	0xbe5d8ace	-0.21634981
141	0x3cab68da	0.02092402
142	0xbfca4f6c	-1.5805488
143	0xbee06c39	-0.43832567
144	0xbe83e2d1	-0.25758985
145	0xbe115c3d	-0.14195342
146	0xbfaaa64e	-1.3332002
147	0xbdc01ca5	-0.093804635
148	0xbf9ccfff	-1.2250975
149	0xbf0a059c	-0.5391481
150	0xbeb423f0	-0.35183668
151	0xbe9d11d0	-0.30677652
152	0xbfac3df9	-1.3456413
153	0xbfac8932	-1.3479369
154	0xbe86fced	-0.26364842
155	0xbf2d7845	-0.6776164
156	0xbe9594b7	-0.29215023
157	0xbf7fa1a2	-0.9985601
158	0x3de85b08	0.11345488
159	0x3dcacdbf	0.09902524

lstm.bias_hh_l1 f4 [160]
0	0xbe9b28ce	-0.3030457
1	0x3d04b4fd	0.032399166
2	0xbcc37940	-0.023861527
3	0x3e58dd1d	0.21178098
4	0xbf090079	-0.53516346
5	0xbe80b01b	-0.25134358
6	0xbe03e154	-0.12878925
7	0x3ed99d92	0.4250303
8	0x3e95195d	0.29120913
9	0xbe8222d5	-0.254172
10	0xbf116868	-0.56799936
11	0x3e886540	0.26639748
12	0x3d94cc79	0.072655626
13	0xbe342413	-0.17591886
14	0x3c6ff147	0.014644927
15	0xbe209003	-0.15679936
16	0x3ec69f68	0.38793492
17	0x3f014c9d	0.5050753
18	0xbca16960	-0.019703567
19	0xbe8204d7	-0.25394318
20	0x3e7376fe	0.2377586
21	0xbe683428	-0.22676146
22	0xbf1997af	-0.59997076
23	0x3df95858	0.12175053
24	0xbcd9567b	-0.026530495
25	0x3dc4a61a	0.09601994
26	0xbeb84845	-0.35992637
27	0xbd0efa21	-0.03490651
28	0xbf2a5bd1	-0.6654635
29	0xbe594a45	-0.21219738
30	0x3e3f0804	0.18655401
31	0xbd2271aa	-0.03965918
32	0xbe56ee52	-0.2098935
33	0xbe0ef653	-0.13961153
34	0xbecc9214	-0.399552
35	0x3e085e29	0.13317169
36	0xbc2e78bf	-0.010648905
37	0x3c42089e	0.011842875
38	0x3d968372	0.0734929
39	0x3cf5cec6	0.030005824
40	0xbf0e3b47	-0.555592
41	0xbdb5b1bb	-0.0887179
42	0xbda99d88	-0.08282
43	0x3e847997	0.25874016
44	0xbdb1f3f0	-0.086891055
45	0xbe8a85d9	-0.27055243
46	0xbe4a0f6b	-0.19732444
47	0x3cf81037	0.03028117
48	0xbcee486e	-0.029087272
49	0x3eecfcaf	0.46286532
50	0xbe1f1dae	-0.15538666
51	0xbeb2e9f2	-0.3494411
52	0xbf1fdfed	-0.6245106
53	0xbe16edbd	-0.14739127
54	0xbd899720	-0.06718278
55	0xbef8c2c6	-0.485861
56	0xbe2d7c55	-0.1694196
57	0x3d05dff7	0.032684293
58	0xbb194369	-0.0023386127
59	0xbeda02bc	-0.4258021
60	0xbd0673ee	-0.032825403
61	0x3e21ab3f	0.15787981
62	0x3e5133f6	0.20429978
63	0xbda4bf15	-0.080442585
64	0x3c580106	0.013183838
65	0x3e441dc6	0.19151983
66	0x3dbab29f	0.091161005
67	0xbe4f86ee	-0.20266315
68	0xbdee736c	-0.11643109
69	0x3e505667	0.2034546
70	0xbda64a20	-0.08119607
71	0xbe0e9bcd	-0.13926621
72	0xbd2dd461	-0.04243887
73	0xbcaf8f1e	-0.021430548
74	0xbea5bb5e	-0.32369512
75	0xbeb443b6	-0.3520791
76	0x3df0cfcd	0.11758385
77	0xbe11f537	-0.14253698
78	0x3e266f02	0.16253284
79	0x3cdc18a6	0.026867222
80	0x3e641219	0.22272529
81	0x3e236d7e	0.15959737
82	0x3da94e04	0.082668334
83	0xbe9032fb	-0.28163895
84	0x3f4cf226	0.8005699
85	0x3eaf0e19	0.34190443
86	0xbeed2fd0	-0.4632554
87	0xbe3a15e6	-0.18172416
88	0xbe52a804	-0.20571905
89	0x3d8acb31	0.06777037
90	0x3e2794c3	0.16365342
91	0x3ea5d7ae	0.32391113
92	0xbf193202	-0.5984193
93	0x3e877176	0.2645375
94	0x3ef9a233	0.4875656
95	0xbeb0c5a2	-0.34525782
96	0xbf750b74	-0.957206
97	0xbf212027	-0.62939686
98	0xbf113b6b	-0.5673129
99	0xbe46d93c	-0.19418806
100	0x3f0075ba	0.50179636
101	0xbed27cb8	-0.41110778
102	0x3eac4cc6	0.33652323
103	0x3e3ef1fc	0.18646997
104	0x3d8c766e	0.06858526
105	0xbe7bdfd8	-0.24597108
106	0x3f02bed4	0.5107243
107	0x3ed47453	0.41494998
108	0xbe8b378a	-0.2719081
109	0x3f40b9ce	0.75283515
110	0x3f134749	0.5753065
111	0xbe96f2df	-0.2948217
112	0xbe194408	-0.14967358
113	0x3c7484bd	0.014924225
114	0x3eab9021	0.335084
115	0x3e9d7c80	0.30759048
116	0x3edf6e48	0.43638825
117	0xbeda9cec	-0.42697847
118	0x3e36f34d	0.1786625
119	0xbdc609fd	-0.09669874
120	0xbf845a17	-1.0339993
121	0xbf319394	-0.6936581
122	0xbf8a713e	-1.0815809
123	0x3cd487e4	0.025943704
124	0xbf6927d2	-0.91076386
125	0xbe1678cc	-0.14694518
126	0xbe5bf36d	-0.21479578
127	0xbe694d0e	-0.227833
128	0xbe59aeea	-0.2125813
129	0xbf74e3f6	-0.9566034
130	0xbec9889e	-0.39362043
131	0xbfa06048	-1.2529383
132	0xbfb75ff4	-1.4326158
133	0xbec5b527	-0.3861477
134	0x3da149e3	0.07875421
135	0x3cd10312	0.02551416
136	0x3de490c5	0.11160425
137	0xbf0831bc	-0.5320089
138	0xbe9d0682	-0.30669028
139	0xbf5b9ea2	-0.8578893
140	0xbecaf82b	-0.39642462
141	0x3c91974e	0.017772343
142	0xbfcea4e1	-1.6144067
143	0xbe42f726	-0.19039592
144	0xbe4c71ec	-0.19965333
145	0xbe106a1a	-0.14102975
146	0xbf96d184	-1.1782689
147	0xbebddeb2	-0.37083966
148	0xbf743dd5	-0.9540685
149	0xbf31766b	-0.69321316
150	0xbea94904	-0.3306352
151	0xbe0042f9	-0.12525548
152	0xbf8f1971	-1.1179639
153	0xbfca721a	-1.5816071
154	0xbe38921f	-0.18024491
155	0xbeeb7326	-0.4598629
156	0xbde39038	-0.11111492
157	0xbf8238d7	-1.0173596
158	0xbb7fcc7c	-0.0039031794
159	0x3e6e8f06	0.23296747

pred.weight f4 [1, 80]
0	0x411614b9	9.380059
1	0xc123d83b	-10.240291
2	0xc11b8cda	-9.721888
3	0xc121e6a1	-10.118806
4	0xc11be678	-9.743767
5	0x41220dc4	10.128361
6	0xc1180294	-9.500629
7	0xc122aa0f	-10.166518
8	0xc11a1c8e	-9.631971
9	0x4121b954	10.107746
10	0xc11d423e	-9.828672
11	0x411f2322	9.946077
12	0xc118e225	-9.555211
13	0xc11daf07	-9.855231
14	0xc11f8bc4	-9.971622
15	0xc1215774	-10.083851
16	0xc1178f3d	-9.47247
17	0xc11fa187	-9.976935
18	0x411bb8b5	9.7325945
19	0x4124a3bd	10.289975
20	0xc11957df	-9.583953
21	0xc123c602	-10.235842
22	0xc11a9f6b	-9.66392
23	0x4124f7ad	10.310468
24	0xc1217550	-10.091141
25	0x4122fc6c	10.186626
26	0xc121e22a	-10.117716
27	0xc12920a4	-10.570469
28	0xc11e6f31	-9.902146
29	0x411decf8	9.870354
30	0xc126dcf7	-10.4289465
31	0xc1223c3d	-10.139707
32	0x411b1c63	9.69443
33	0xc1200d52	-10.003252
34	0x4118f44f	9.559646
35	0xc1237517	-10.216086
36	0xc11be5bd	-9.743588
37	0xc11d13b3	-9.817309
38	0x411914e3	9.567599
39	0xc1262e60	-10.386322
40	0xc114e648	-9.306221
41	0x41208faa	10.035074
42	0x41255675	10.333608
43	0xc11d0013	-9.812518
44	0x411edc45	9.928777
45	0x41254197	10.328513
46	0x4121fca1	10.124177
47	0x411978c7	9.591987
48	0x411d25f0	9.821762
49	0x411e77fb	9.904292
50	0x41182aa0	9.5104065
51	0xc120df6f	-10.054549
52	0x4120e852	10.056719
53	0x4123a946	10.2288265
54	0x41218808	10.095711
55	0x411fa4d6	9.977743
56	0xc1220a86	-10.127569
57	0xc1214fd7	-10.081992
58	0xc1205ccf	-10.022658
59	0xc12e1bb7	-10.881766
60	0xc1244356	-10.266439
61	0x412056a1	10.02115
62	0xc116381d	-9.3887
63	0xc117af1d	-9.480252
64	0x411cb81a	9.794947
65	0x4125d28e	10.363905
66	0x411c5a89	9.772103
67	0x4125c70c	10.361095
68	0xc12331e0	-10.1996765
69	0x4125be4b	10.358958
70	0xc117b28d	-9.4810915
71	0xc12664d9	-10.399621
72	0xc118ad5b	-9.542323
73	0x411d3d3d	9.827451
74	0xc122c07c	-10.171993
75	0xc123d059	-10.238366
76	0x411c769a	9.778955
77	0x411c986b	9.787211
78	0x411e4a6e	9.893171
79	0xc11ca6a9	-9.7906885
