CompareOQR/Experiments/EXP2/model_bin/TS_LSTM.pth (torch, 89499 bytes, 10 tensors)

lstm.weight_ih_l0 f4 [160, 11]
0	0x3bfdc874	0.007744843
1	0x3e7d5595	0.24739678
2	0xbf193b1d	-0.59855825
3	0x3e883108	0.26599908
4	0x3ec5542d	0.38540784
5	0x3f01138c	0.5042045
6	0x3d876107	0.06610303
7	0xbe5fd847	-0.21859847
8	0xbde86fb6	-0.11349432
9	0xbeed8b62	-0.46395403
10	0xbde69c0f	-0.112602346
11	0xbeacaa71	-0.33723786
12	0xbe24a62b	-0.16079013
13	0x3efb3e21	0.49070838
14	0x3d03227b	0.032015305
15	0xbfb25999	-1.3933593
16	0xbe9ff560	-0.31241894
17	0xbe92e8f1	-0.28693345
18	0x3ccccba9	0.024999456
19	0xbea7fd6a	-0.32810527
20	0x3ed5aa83	0.41731653
21	0xbd59253f	-0.053014036
22	0xbd896bf0	-0.067100406
23	0x3f1f5d68	0.622519
24	0x3edcdf31	0.43139032
25	0xbe99449b	-0.29935154
26	0x3e800d40	0.2501011
27	0x3b0e7e89	0.0021742901
28	0xbdd68c73	-0.10476007
29	0x3cbdcf6f	0.023170201
30	0x3e1ed5b4	0.15511209
31	0xbe809ab5	-0.25118032
32	0xbe8f9c8f	-0.28049132
33	0xbe0232ff	-0.12714766
34	0x3f85b6b1	1.0446378
35	0xbf1e3886	-0.61805
36	0x3e012cdc	0.12614769
37	0xbe8b0a9f	-0.2715654
38	0x3f820895	1.0158869
39	0xbd589f7c	-0.05288647
40	0x3f4a564a	0.79037917
41	0x3f00b634	0.5027802
42	0x3f09c133	0.53810424
43	0xbe1a7c16	-0.15086398
44	0xbe2374ed	-0.15962572
45	0x3db52703	0.088453315
46	0x3f3d8b8f	0.74041075
47	0x3e009db8	0.12560165
48	0x3eda879a	0.4268158
49	0x3f3587db	0.70910424
50	0x3e0c9574	0.13728887
51	0x3e0fd3f2	0.14045694
52	0x3e2c338c	0.16816539
53	0x3efbdf12	0.49193627
54	0x3f340eae	0.703349
55	0xbea35547	-0.31901
56	0xbf16fe61	-0.589819
57	0x3f12951e	0.57258785
58	0xbe1c7efa	-0.15282813
59	0x3ecade51	0.3962274
60	0xbe91c62e	-0.28471512
61	0x3ebef916	0.37299412
62	0x3d319f60	0.043364882
63	0xbe6a7d59	-0.22899379
64	0x3e5e3ad4	0.21702129
65	0x3e061b4b	0.13096349
66	0xbd12dcea	-0.03585521
67	0x3e84f38e	0.25967067
68	0x3e13f636	0.14449391
69	0x3cc820df	0.024429737
70	0xbcf9f33f	-0.030511497
71	0xbe16841b	-0.14698832
72	0xbe5551d2	-0.20831993
73	0x3ea63064	0.32458794
74	0x3e83b30c	0.2572254
75	0xbd917929	-0.071031876
76	0xbe1139bb	-0.14182179
77	0xbe51257f	-0.2042446
78	0xbe982a7f	-0.29719922
79	0xbec61ef8	-0.38695502
80	0xbe84cc00	-0.2593689
81	0x3fbdb608	1.4821177
82	0x3f6c3476	0.9226755
83	0x3f6976d2	0.9119693
84	0x3eb15d50	0.34641504
85	0x3e867a69	0.26265267
86	0xbe3d712b	-0.18500201
87	0xbe109e85	-0.1412297
88	0x3e64a4ca	0.22328487
89	0x3d06995e	0.032861106
90	0x3ef8d8ec	0.48602998
91	0xbb4bad53	-0.003107865
92	0xbdee74c9	-0.11643369
93	0xbe948fc8	-0.29015946
94	0xbce03e60	-0.027373493
95	0xbe620955	-0.22073872
96	0xbd73fb4e	-0.059565835
97	0x3e28a5ee	0.16469547
98	0xbe5ac7b2	-0.2136524
99	0x3e091a19	0.13388862
100	0x3cf1a828	0.029499128
101	0xbda389ad	-0.07985244
102	0x3eb8ee65	0.3611938
103	0xbeadb973	-0.3393055
104	0xbcab19ea	-0.02088638
105	0x3eefbbb2	0.46822888
106	0x3ed46368	0.4148209
107	0x3ea244d8	0.3169315
108	0xbe64a66b	-0.22329108
109	0xbd2f75ad	-0.042836834
110	0x3e014679	0.1262454
111	0x3e4830d0	0.1954987
112	0x40ac24ef	5.3795085
113	0x3e42b9f9	0.19016255
114	0xbc6a6d58	-0.014308296
115	0x3f8b1f60	1.086895
116	0xbbdcc5cb	-0.006737446
117	0x3dd5c6c5	0.10438303
118	0xbd63da45	-0.05562808
119	0xbcf1b532	-0.029505346
120	0xbd449955	-0.04799779
121	0xbeada43a	-0.33914357
122	0x3e721d59	0.23644008
123	0xbf3093c3	-0.68975466
124	0x3eceac17	0.4036567
125	0x3e6bb4b0	0.23018146
126	0x3ea217fc	0.31658924
127	0x3d8a08d2	0.067399636
128	0xbedd6348	-0.43239808
129	0xbeee95ac	-0.46598566
130	0x3e9baa75	0.30403486
131	0xbec1bbe6	-0.37838668
132	0x3d1edf5b	0.038787227
133	0x3e8cc763	0.2749587
134	0x3dfa5a99	0.122243114
135	0xbe1391ff	-0.14411162
136	0x3df2f6e9	0.118635006
137	0xbc5c8735	-0.01345997
138	0x3e242e10	0.16033196
139	0x3dc8db96	0.09807508
140	0xbd387665	-0.045034785
141	0x3e24115b	0.16022246
142	0xbe0a26c7	-0.13491355
143	0x3ef63dcf	0.4809403
144	0xbe35c857	-0.17752205
145	0xbce39442	-0.027780656
146	0xbec83811	-0.39105275
147	0x3ecfdecd	0.4059967
148	0x3eeaa290	0.4582715
149	0xbe06704b	-0.13128774
150	0xbeaa231d	-0.33229914
151	0xbdf3d537	-0.11905902
152	0xbde43ea1	-0.11144758
153	0x3e61daba	0.22056094
154	0xbdfbaa29	-0.12288315
155	0xbcf94711	-0.030429395
156	0x3ecf99bf	0.40546986
157	0xbe42f8af	-0.19040178
158	0xbea72b8a	-0.32650405
159	0x3dc3da47	0.095631175
160	0xbe998d0d	-0.29990426
161	0x3ee850c5	0.45374122
162	0x3f01d0c2	0.50709164
163	0xbde90e4d	-0.11379681
164	0xbf1dd922	-0.61659443
165	0x3e1f98f8	0.15585697
166	0xbe0079f6	-0.12546524
167	0xbd5e6ecf	-0.054304894
168	0xbd448803	-0.047981273
169	0x3ea881ce	0.32911533
170	0x3c673029	0.014110603
171	0xbd2f04ed	-0.042729307
172	0x3e00b0b7	0.12567411
173	0x3de6c0ff	0.1126728
174	0xbc337b2e	-0.010954661
175	0xbcd54eea	-0.026038606
176	0x3eb2c25f	0.34913918
177	0x3f05edc6	0.5231594
178	0x3f20cbc7	0.6281094
179	0xbeb9683e	-0.36212343
180	0x3e0ec9cd	0.13944168
181	0xbe083610	-0.13301873
182	0x3e8feda1	0.28110984
183	0x3e377631	0.1791618
184	0x3dc39820	0.095505
185	0xbdf488de	-0.11940168
186	0xbf0314c4	-0.5120356
187	0x3dfc7213	0.123264454
188	0x3ed57c86	0.41696566
189	0x3f1b945b	0.6077325
190	0xbe101a40	-0.14072514
191	0x3f0da968	0.5533662
192	0x3eafe61f	0.34355256
193	0xbe374cf2	-0.17900446
194	0xbde3ddc1	-0.111262806
195	0xbdecb911	-0.11558736
196	0xbe835a0a	-0.25654632
197	0xbe18471a	-0.14870873
198	0x3e84985f	0.258975
199	0xbe0322f7	-0.12806307
200	0xbeb2b39c	-0.34902656
201	0x3e3b35cc	0.1828224
202	0xbe16c258	-0.14722574
203	0x3eb48496	0.35257405
204	0x3d68ab37	0.05680391
205	0x3e0cdc49	0.13755907
206	0x3e1d2f19	0.15349998
207	0x3ecb99ec	0.3976587
208	0xbd515abd	-0.051111925
209	0x3efaa74d	0.48955765
210	0x3fc8c558	1.5685225
211	0x3f9ea2bd	1.2393414
212	0x3f03539d	0.5129946
213	0x3dcb6bb1	0.0993265
214	0x3e91e4a9	0.28494766
215	0xbdeb988d	-0.11503706
216	0xbf56e8bc	-0.83948874
217	0xbf97f094	-1.1870294
218	0x3f986836	1.1906803
219	0x3e4db0e4	0.2008701
220	0xbb98d1a2	-0.004663662
221	0xbd100a9b	-0.035166364
222	0x3e07c783	0.13259701
223	0xbe43a887	-0.19107257
224	0x3d879a5d	0.06621239
225	0xbe6c70ea	-0.23089948
226	0x3d956537	0.07294696
227	0x3e914678	0.28374076
228	0x3dfe3fa2	0.12414481
229	0xbcb7488c	-0.02237346
230	0x3d032db0	0.032025993
231	0xbdbc8bf9	-0.09206385
232	0xbc559e7a	-0.013038272
233	0x3e99d56b	0.30045637
234	0x3e9d70b5	0.3075005
235	0x3e04eba1	0.1298051
236	0x3f013daf	0.50484747
237	0xbf06801f	-0.5253925
238	0x3cf64541	0.03006232
239	0x3d62997c	0.055322155
240	0xbe1220c4	-0.14270312
241	0xbeefc85a	-0.46832544
242	0x3eb46993	0.35236797
243	0xbf6a44f2	-0.9151145
244	0x3f9448b6	1.158469
245	0x3f04c0bc	0.5185659
246	0x3db9f217	0.09079378
247	0xbd428560	-0.047490478
248	0xbf794c15	-0.97381717
249	0xbecadf76	-0.39623612
250	0x3d9f6f96	0.07784955
251	0x3e8cfc09	0.27536038
252	0xbda7621b	-0.08173009
253	0x3e9d2dfd	0.3069915
254	0xbce22b04	-0.027608402
255	0x3fb596bc	1.4186625

lstm.weight_hh_l0 f4 [160, 40]
0	0xbec9bb41	-0.39400676
1	0x3e283e4f	0.16430019
2	0x3dcbf7be	0.099593624
3	0x3eb8c893	0.36090526
4	0xbd1c1a6f	-0.038111147
5	0xbe854c51	-0.26034787
6	0x3d919a07	0.071094565
7	0xbe9b5175	-0.30335584
8	0x3ca0fefe	0.01965284
9	0xbea635dd	-0.3246297
10	0xbefb1b78	-0.49044394
11	0xbe20796b	-0.15671317
12	0xbe5247c8	-0.20535195
13	0x3d0175f9	0.031606648
14	0xbeb7623d	-0.35817137
15	0x3eb7b1c7	0.3587782
16	0x3cb8ac3e	0.022543069
17	0x3e81bbd9	0.2533863
18	0x3f177095	0.5915616
19	0x3ed7d7de	0.4215688
20	0x3e49510f	0.19659828
21	0x3ea387a1	0.31939414
22	0xbe96c85e	-0.29449743
23	0xbe941406	-0.28921527
24	0x3bb4acbe	0.0055137565
25	0x3d4fecbd	0.05076288
26	0x3e14d299	0.14533462
27	0x3e26b4a1	0.16279842
28	0xbe8b7b27	-0.27242395
29	0x3e1c526a	0.15265813
30	0x3ca3dc0d	0.02000239
31	0x3d8919ee	0.06694399
32	0xbe022eca	-0.12713161
33	0x3e665143	0.22491936
34	0x3e569847	0.20956527
35	0xbdf36628	-0.11884719
36	0xbeb6799d	-0.3563966
37	0x3f006c56	0.5016531
38	0x3e80af32	0.25133663
39	0x3eb9bb03	0.3627549
40	0xbf0af0d6	-0.54273736
41	0xbbeeb6ff	-0.0072849984
42	0x3e0f4b76	0.1399363
43	0xbe1d1e69	-0.15343632
44	0xbdb9476a	-0.09046824
45	0x3e1bc605	0.15212257
46	0xbdbce67b	-0.09223648
47	0x3f91bd8b	1.1385969
48	0x3e6fb14c	0.23407477
49	0xbdcd3eb7	-0.100217275
50	0x3ef3d775	0.47625318
51	0x3f22114e	0.63307655
52	0xbe49795a	-0.19675198
53	0x3d934744	0.07191327
54	0x3e8dbac0	0.2768154
55	0x3e07b4a5	0.13252504
56	0x3e21af43	0.15789513
57	0x3e3bc64f	0.18337367
58	0x3e98907e	0.2979774
59	0xbdd48ad2	-0.103780404
60	0xbd148568	-0.03626004
61	0x3dc4083c	0.09571883
62	0xbd8ed227	-0.06973677
63	0x3dcf26ae	0.101147994
64	0xbd1e4fba	-0.038650252
65	0xbe324ba7	-0.17411672
66	0xbc0096f8	-0.007848494
67	0xbe084197	-0.1330627
68	0x3c32582a	0.010885278
69	0x3e697767	0.22799455
70	0x3d49d1fa	0.049272515
71	0x3e5fb59c	0.21846622
72	0xbeabc7fe	-0.3355102
73	0xbf4042c4	-0.75101876
74	0x3ea93d3e	0.33054537
75	0x3eb7efd4	0.35925162
76	0xbebfffda	-0.37499887
77	0x3c64c8ec	0.013963919
78	0x3e8ba861	0.272769
79	0xbc429955	-0.0118773775
80	0xbdb0872a	-0.086195305
81	0x3d842940	0.0645318
82	0x3c783d7d	0.015151379
83	0x3ded92d3	0.1160027
84	0x3d0e9b2d	0.034815956
85	0x3c9995dc	0.018748216
86	0x3bc6a333	0.0060619353
87	0xbe5a5604	-0.21321875
88	0xbf2ce0c7	-0.67530483
89	0xbd02f56a	-0.031972326
90	0xbd86f0b2	-0.06588878
91	0xbd95ffd9	-0.0732419
92	0xbdfb716c	-0.12277493
93	0x3d94571a	0.07243176
94	0x3e6c7442	0.23091224
95	0x3e583f7c	0.21117967
96	0x3f2b346b	0.6687686
97	0xbeee7351	-0.46572354
98	0x3e0c0a37	0.13675772
99	0x3e894a77	0.26814625
100	0x3dde7d97	0.10863798
101	0x3ec0aaf2	0.3763042
102	0xbe8c8f8f	-0.27453277
103	0xbdb52225	-0.08844403
104	0xbec40d6c	-0.3829149
105	0xbe959896	-0.29217976
106	0x3eb0e651	0.34550717
107	0xbeb58ff3	-0.35461387
108	0xbde46ee4	-0.11153963
109	0x3ea65a94	0.3249098
110	0x3e361fc2	0.17785552
111	0xbe231bcc	-0.15928572
112	0x3e3e5801	0.18588258
113	0xbeba4898	-0.3638351
114	0x3e9fd2f1	0.31215623
115	0xbbccf06e	-0.0062542474
116	0xbdabf7dd	-0.083968855
117	0x3f08fb5d	0.5350855
118	0xbe360b20	-0.17777681
119	0xbe537421	-0.20649768
120	0xbe108f06	-0.14117059
121	0x3f053aa8	0.5204263
122	0xbcb47aee	-0.022031274
123	0xbcf74dd6	-0.030188482
124	0xbe991d6b	-0.29905257
125	0x3da25bad	0.07927642
126	0xbe907187	-0.28211614
127	0x3e216dfa	0.15764609
128	0xbd997be9	-0.07494337
129	0xbee78db9	-0.45225313
130	0xbdbc93d3	-0.09207883
131	0x3eeb2c14	0.45932066
132	0xbe3839de	-0.17990825
133	0x3e674117	0.22583424
134	0x3eac77ec	0.33685243
135	0x3e75ffcf	0.24023364
136	0x3dbaddf9	0.09124369
137	0x3d5a1595	0.05324324
138	0x3ebc410d	0.3676838
139	0x3ee73fe4	0.45165932
140	0x3ceba6d9	0.028766083
141	0x3bd8885f	0.0066080536
142	0xbdedab65	-0.116049565
143	0xbe9ee4ff	-0.31034085
144	0xbe76030d	-0.24024601
145	0xbd9d0827	-0.076675706
146	0xba31f8fc	-0.0006789116
147	0x3e0eb970	0.13937926
148	0x3e95190d	0.29120675
149	0x3d85ae08	0.065273345
150	0x3c3d9fb1	0.011573718
151	0xbe74cfd6	-0.23907408
152	0xbec7a6d6	-0.38994473
153	0x3e81c6ed	0.2534708
154	0xbda68317	-0.08130472
155	0x3d4fbe03	0.05071832
156	0x3a02c235	0.00049880455
157	0xbead1d94	-0.3381163
158	0x3e8521cd	0.2600235
159	0xbea19b97	-0.31564018
160	0x3e894420	0.26809788
161	0x3f225d41	0.63423544
162	0x3c75ab1a	0.014994407
163	0x3e6010b5	0.21881373
164	0xbe026216	-0.1273273
165	0x3cf4e25e	0.029893097
166	0xbf0f9810	-0.56091404
167	0xbf6667ce	-0.90002143
168	0xbb78e3db	-0.003797761
169	0xbf09a346	-0.5376476
170	0xbd610c4c	-0.054943368
171	0xbdb1168d	-0.08646879
172	0xbe992208	-0.29908776
173	0x3e0a9b5e	0.1353583
174	0xbcf16f33	-0.02947197
175	0x3d94b4fc	0.072610825
176	0x3df0bd12	0.11754812
177	0xbe9e6fb1	-0.3094459
178	0x3f036364	0.51323533
179	0x3f1ef6ba	0.62095225
180	0x3f4bd43d	0.79620725
181	0xbd7879f4	-0.06066318
182	0xbf82ed24	-1.022862
183	0x3ec2d5e5	0.38053814
184	0xbe85c45c	-0.26126373
185	0xbe36cfce	-0.17852709
186	0x3e960a33	0.29304656
187	0xbd009164	-0.031388655
188	0xbe288347	-0.16456328
189	0xbcdfbfaa	-0.027313072
190	0x3f677ff0	0.9042959
191	0x3e37bdd0	0.17943501
192	0xbe2cc96c	-0.16873711
193	0x3d7ead0d	0.062176753
194	0xbe2ad6df	-0.1668353
195	0x3dc0bd5d	0.09411118
196	0x3df51454	0.11966768
197	0x3e9c3e6c	0.30516374
198	0xbb938475	-0.004501874
199	0x3d47c489	0.048771415
200	0x3da9764e	0.08274518
201	0x3db67116	0.08908288
202	0x3d3e461b	0.046453577
203	0x3d868ae2	0.065694585
204	0xbd93d02e	-0.072174415
205	0x3bb0a037	0.005390193
206	0xbdd83ec6	-0.10558848
207	0xbe95e15f	-0.29273507
208	0x3d7cabc0	0.06168723
209	0xbe2d57a5	-0.16927965
210	0xbd05fda5	-0.032712597
211	0x3e3c873e	0.18410966
212	0xbd82bae0	-0.063833
213	0x3eb0ee7e	0.34556955
214	0x3deaa10c	0.114564985
215	0xbc717680	-0.014737725
216	0x3d5f7e81	0.054564003
217	0xbe75f8cd	-0.24020691
218	0x3e6fb7cb	0.23409955
219	0x3dbb99f5	0.09160224
220	0x3d974fcb	0.07388266
221	0x3dd80465	0.10547713
222	0xbf2070f8	-0.62672377
223	0xbe135c55	-0.1439069
224	0x3d8882dd	0.06665585
225	0xbd6792a9	-0.05653635
226	0xbd689c6e	-0.056789808
227	0xbe16feee	-0.14745685
228	0xbdb2f707	-0.08738523
229	0x3eb42d72	0.35190922
230	0x3ebbfed7	0.36717865
231	0xbdc3c9b9	-0.0955996
232	0xbe94865b	-0.29008755
233	0x3d9eef02	0.07760431
234	0x3e24a9d8	0.16080415
235	0xbcea168a	-0.0285752
236	0xbddbb8ef	-0.10728633
237	0xbeaf9682	-0.34294516
238	0x3e5f72cd	0.21821137
239	0x3d81d605	0.06339649
240	0xbda7f462	-0.08200909
241	0x3f01fdd3	0.5077793
242	0xbdda9a9a	-0.10674019
243	0x3d057386	0.032580875
244	0xbc224ec3	-0.009906474
245	0xbe2bbd67	-0.1677147
246	0xbeb94b13	-0.3619009
247	0x3deef3f5	0.11667625
248	0x3d9ddbe1	0.07707954
249	0xbc82e881	-0.015980007
250	0xbe3c2a46	-0.18375501
251	0xbdf628e9	-0.12019522
252	0xbe2e5378	-0.17024028
253	0xbeb660d6	-0.35620755
254	0x3d872b32	0.06600036
255	0x3e8c25e5	0.2737266

lstm.bias_ih_l0 f4 [160]
0	0x3ed86e95	0.42271867
1	0x3fc9eba3	1.5775036
2	0x3e204494	0.1565116
3	0x3f1198c6	0.5687374
4	0xbcab96a2	-0.02094585
5	0x3f4044e4	0.7510512
6	0x3ee9ef68	0.45690465
7	0x3f958156	1.1680095
8	0x3e21be25	0.1579519
9	0x3e6bcd88	0.23027623
10	0x400fa01b	2.244147
11	0x3dc35582	0.09537794
12	0xbd8a42cd	-0.067510225
13	0x3ee486cd	0.44634095
14	0x3e76a09c	0.24084705
15	0x3e33f02f	0.17572092
16	0x3f177bce	0.59173286
17	0x3e3babb0	0.18327212
18	0x3f87cf94	1.0610223
19	0x3fd70bfa	1.680053
20	0x3f3828b0	0.71937084
21	0x3da89d21	0.08233095
22	0x3f8c3356	1.0953166
23	0xbe8a536c	-0.2701677
24	0x3f1f5fee	0.6225575
25	0x3e95d834	0.29266512
26	0x3e93c104	0.28858197
27	0xbd9698da	-0.07353373
28	0x3e913c59	0.28366354
29	0x3ddcde70	0.10784614
30	0x3ef5c5c7	0.48002455
31	0x3e65b214	0.22431213
32	0x3f776c4d	0.9664963
33	0x3fa8a369	1.3174869
34	0x3f39824b	0.72464436
35	0x3edf26f1	0.43584397
36	0x3dd0085f	0.10157847
37	0x3e96702a	0.2938245
38	0xbdf9e62d	-0.12202106
39	0x3c209f42	0.009803595
40	0xbf47cd71	-0.78047854
41	0xbf473f66	-0.77831113
42	0xbedb57af	-0.42840335
43	0xbec6982f	-0.38787982
44	0xbeaa1c9a	-0.33224946
45	0xbee4844f	-0.44632193
46	0xbef406e2	-0.476615
47	0xbfef4286	-1.8692176
48	0xbf57cee2	-0.84300053
49	0xbec751d0	-0.38929605
50	0xc0205958	-2.505453
51	0xbf38db3b	-0.7220952
52	0xbe572856	-0.2101148
53	0xbf8296f3	-1.0202316
54	0xbeb61786	-0.35564822
55	0x3d9b7a98	0.07591742
56	0xbf23cd42	-0.63985074
57	0xbf2f3384	-0.6843798
58	0xbf00ac1d	-0.50262624
59	0xbf561308	-0.8362279
60	0xbed7a8f4	-0.42121089
61	0xbe58765a	-0.21138898
62	0xbf8033b8	-1.0015783
63	0xbf182151	-0.59425837
64	0xbf95ed5a	-1.1713059
65	0xbfa0ec4f	-1.2572116
66	0xbe947397	-0.28994438
67	0xbf3b60e7	-0.73194736
68	0xbf6849c2	-0.90737545
69	0xbf274370	-0.65337276
70	0xbf1ca204	-0.61184716
71	0xbef1748f	-0.4715924
72	0xbf4c8fdc	-0.7990701
73	0xbf815191	-1.0103017
74	0xbf875875	-1.057387
75	0xbf6abb85	-0.9169238
76	0x3e25ca04	0.16190344
77	0xbf2357b3	-0.63805693
78	0xbf6cbd63	-0.9247648
79	0xbf2b1c91	-0.66840464
80	0xbeb65f94	-0.35619795
81	0x3fbdefb5	1.4838778
82	0x3def2e3e	0.11678742
83	0x3f59ba61	0.85050017
84	0x3b497736	0.0030741221
85	0xbeedb291	-0.46425298
86	0xbe77f330	-0.24213862
87	0xbf35c9b9	-0.7101093
88	0x3d931399	0.07181472
89	0xbe74d7a9	-0.23910393
90	0xbf80c70c	-1.0060744
91	0x3d95bc21	0.07311273
92	0xbd5a593f	-0.053307768
93	0x3e828b20	0.2549677
94	0x3e2b1d16	0.16710314
95	0x3d907f7c	0.07055566
96	0x3f26ee95	0.652078
97	0xbe944f2b	-0.2896665
98	0x3f338510	0.7012491
99	0x3fc271b3	1.5190948
100	0x3f197518	0.59944296
101	0x3e911275	0.28334394
102	0xbf9d4d72	-1.228926
103	0x3ddf7aaf	0.10912072
104	0xbf674051	-0.90332514
105	0xbe3bcaee	-0.1833913
106	0x3dd6d4a7	0.10489779
107	0xbeab0630	-0.33403158
108	0xbee73d35	-0.45163885
109	0x3de63ecd	0.11242447
110	0x3ef40052	0.47656494
111	0x3e1c8f7c	0.1528911
112	0xbf11a824	-0.5689719
113	0xbec7213d	-0.38892546
114	0x3ee0d00b	0.43908724
115	0x3e6d4f67	0.23174821
116	0xbe27e007	-0.16394053
117	0x3e3fcece	0.18731233
118	0xbd50e6c0	-0.05100131
119	0x3e4cf457	0.20015083
120	0xbeace8b9	-0.33771303
121	0x3f74e495	0.9566129
122	0xbde07eac	-0.10961661
123	0x3e135961	0.14389564
124	0xbe3f5f7f	-0.18688773
125	0x3e891b51	0.26778653
126	0x3e12e81f	0.1434636
127	0x3fb6e872	1.4289687
128	0xbf307354	-0.68925977
129	0xbe39507b	-0.18097107
130	0x40131489	2.2981284
131	0xbea9a5d3	-0.33134326
132	0xbf1dbc00	-0.6161499
133	0x3e46ef5e	0.19427249
134	0xbe5cc852	-0.21560791
135	0xbf50db22	-0.8158437
136	0x3f54f15c	0.83180785
137	0x3db24012	0.08703627
138	0x3f28c711	0.6592875
139	0x3f417b6a	0.7557894
140	0x3eab9a91	0.33516362
141	0xbeb99113	-0.36243495
142	0x3f5881d7	0.8457312
143	0xbeae00d1	-0.33984998
144	0x3f2d9aac	0.67814136
145	0x3e101511	0.14070536
146	0xbf3eb78d	-0.74498826
147	0xbeac7ef8	-0.3369062
148	0xbe877d46	-0.26462764
149	0x3dcac1a4	0.09900215
150	0x3eb82f08	0.35973382
151	0x3e51b1ba	0.20477954
152	0x3e708956	0.2348989
153	0xbd4b04a0	-0.049564958
154	0x3db26346	0.08710341
155	0x3d19bf39	0.03753588
156	0xbf2fc44a	-0.6865889
157	0xbeefcc06	-0.46835345
158	0xbe39b4c7	-0.18135367
159	0xbe7246c3	-0.23659806

lstm.bias_hh_l0 f4 [160]
0	0x3ec7b844	0.3900777
1	0x3fc4e658	1.5382795
2	0x3e45c5a4	0.19313675
3	0x3f2358b4	0.63807225
4	0x3cffbdda	0.031218458
5	0x3f417a08	0.7557683
6	0x3eba551b	0.36393055
7	0x3f935179	1.1509238
8	0xb9b5d555	-0.00034681955
9	0x3e86e400	0.26345825
10	0x400e7636	2.225965
11	0x3e6242fa	0.22095862
12	0xbd8f01fb	-0.069827996
13	0x3ee1c79c	0.44097602
14	0x3e89d544	0.2692052
15	0x3e45f10a	0.1933023
16	0x3f20f825	0.6287864
17	0x3e83a729	0.2571347
18	0x3f8759ea	1.0574315
19	0x3fdbe7e8	1.7180147
20	0x3f597702	0.84947217
21	0x3d92b96d	0.071642734
22	0x3f869b1b	1.0516084
23	0xbe8c2919	-0.27375105
24	0x3f39143a	0.7229649
25	0x3e97fbd7	0.29684326
26	0x3e632bce	0.22184679
27	0x3c7b35f8	0.015332691
28	0x3e76b169	0.24091114
29	0x3e1324df	0.14369534
30	0x3eff8ec4	0.4991361
31	0x3e5564bc	0.20839208
32	0x3f69eb42	0.913746
33	0x3fa4089c	1.2815127
34	0x3f3e9bd6	0.74456537
35	0x3ed8614c	0.42261732
36	0xbd83e3ac	-0.06439909
37	0x3ec4a4b9	0.38406923
38	0xbdf7af34	-0.12093964
39	0xbdd728c0	-0.10505819
40	0xbf47cd71	-0.78047854
41	0xbf473f66	-0.77831113
42	0xbedb57af	-0.42840335
43	0xbec6982f	-0.38787982
44	0xbeaa1c9a	-0.33224946
45	0xbee4844f	-0.44632193
46	0xbef406e2	-0.476615
47	0xbfef4286	-1.8692176
48	0xbf57cee2	-0.84300053
49	0xbec751d0	-0.38929605
50	0xc0205958	-2.505453
51	0xbf38db3b	-0.7220952
52	0xbe572856	-0.2101148
53	0xbf8296f3	-1.0202316
54	0xbeb61786	-0.35564822
55	0x3d9b7a98	0.07591742
56	0xbf23cd42	-0.63985074
57	0xbf2f3384	-0.6843798
58	0xbf00ac1d	-0.50262624
59	0xbf561308	-0.8362279
60	0xbed7a8f4	-0.42121089
61	0xbe58765a	-0.21138898
62	0xbf8033b8	-1.0015783
63	0xbf182151	-0.59425837
64	0xbf95ed5a	-1.1713059
65	0xbfa0ec4f	-1.2572116
66	0xbe947397	-0.28994438
67	0xbf3b60e7	-0.73194736
68	0xbf6849c2	-0.90737545
69	0xbf274370	-0.65337276
70	0xbf1ca204	-0.61184716
71	0xbef1748f	-0.4715924
72	0xbf4c8fdc	-0.7990701
73	0xbf815191	-1.0103017
74	0xbf875875	-1.057387
75	0xbf6abb85	-0.9169238
76	0x3e25ca04	0.16190344
77	0xbf2357b3	-0.63805693
78	0xbf6cbd63	-0.9247648
79	0xbf2b1c91	-0.66840464
80	0xbe74b210	-0.2389605
81	0x3fc0a959	1.5051681
82	0x3e365fdb	0.17810003
83	0x3f397ccf	0.7245607
84	0xbdd7c831	-0.1053623
85	0xbf067c55	-0.52533466
86	0xbec343d0	-0.38137674
87	0xbf0cbd0a	-0.5497595
88	0x3d9f73a9	0.07785732
89	0xbebff8f9	-0.3749464
90	0xbf7b7ace	-0.9823426
91	0x3e179d32	0.14806059
92	0xbe0b8733	-0.13625793
93	0x3e214245	0.15747936
94	0x3df89b0f	0.1213895
95	0x3eaa3cfe	0.33249658
96	0x3f277d90	0.6542597
97	0xbeff4307	-0.49855825
98	0x3f3c1ce9	0.73481613
99	0x3fb069d9	1.3782302
100	0x3f00190c	0.5003822
101	0x3e4203ad	0.18946715
102	0xbf972021	-1.180668
103	0xbd7cb4e4	-0.06169595
104	0xbf6f82d3	-0.93558997
105	0xbe49b391	-0.19697405
106	0x3e88c4da	0.26712686
107	0xbe69a36a	-0.22816244
108	0xbf07dacb	-0.53068227
109	0x3e57573d	0.21029373
110	0x3eaf40f2	0.34229237
111	0x3c572ea7	0.013133681
112	0xbf202c50	-0.62567616
113	0xbea04df4	-0.31309474
114	0x3ed9b1ec	0.42518556
115	0x3e5366ec	0.2064473
116	0xbe470cfc	-0.19438547
117	0x3d973c34	0.0738453
118	0xbd84f7ea	-0.06492598
119	0x3d01d5ca	0.031698026
120	0xbed21422	-0.41030985
121	0x3f63c87a	0.8897778
122	0xbddb5f49	-0.107115336
123	0xbd106cdb	-0.035260063
124	0xbeacbf75	-0.3373982
125	0x3dbcb4c2	0.09214164
126	0x3e1ed594	0.15511161
127	0x3fb2e1be	1.3975141
128	0xbf491d4b	-0.7856032
129	0xbdcb6883	-0.099320434
130	0x400f961d	2.2435372
131	0xbea1e0d9	-0.31616858
132	0xbf179a96	-0.59220254
133	0x3dfa33aa	0.122168854
134	0xbe4edf37	-0.20202337
135	0xbf4bddc3	-0.79635257
136	0x3f7413b8	0.9534259
137	0xbc00ff23	-0.007873329
138	0x3f3a7d90	0.72847843
139	0x3f530ca3	0.8244116
140	0x3eb32af9	0.34993723
141	0xbec009cf	-0.37507483
142	0x3f65ce0d	0.89767534
143	0xbe9aabae	-0.30209106
144	0x3f2a36b3	0.66489714
145	0x3da4346a	0.0801781
146	0xbf3d7613	-0.7400829
147	0xbe97f7f1	-0.29681352
148	0xbeb2b4c8	-0.3490355
149	0xbba9710f	-0.0051709483
150	0x3e945274	0.28969157
151	0x3e50dffa	0.2039794
152	0x3e87d949	0.26532963
153	0x3d8820e1	0.06646896
154	0x3e2081e6	0.15674552
155	0x3d73f8ba	0.059563376
156	0xbf335974	-0.7005837
157	0xbf189d48	-0.5961499
158	0xbe93d144	-0.28870595
159	0xbe8e9d85	-0.27854553

lstm.weight_ih_l1 f4 [160, 40]
0	0xbd932762	-0.07185246
1	0x3d84b94d	0.06480656
2	0x3d7f7156	0.062363945
3	0x3dbd6d4e	0.09249364
4	0xbd8558f3	-0.06511106
5	0xbd83b831	-0.06431616
6	0xbd9390ca	-0.07205351
7	0xbd84baaf	-0.064809196
8	0xbcf29b32	-0.029615019
9	0xbd5da685	-0.054113884
10	0xbdc7b285	-0.09750847
11	0xba48170b	-0.0007632828
12	0xbd3ed9c7	-0.046594407
13	0x3df99275	0.121861376
14	0x3d8feab7	0.0702719
15	0x3d5ba85b	0.053627353
16	0x3d8387e1	0.06422401
17	0xbd1483b6	-0.03625842
18	0x3dd075f6	0.10178749
19	0x3da7455b	0.081675254
20	0x3d74a1ec	0.059724733
21	0x3d992e13	0.07479491
22	0xbd83f800	-0.064437866
23	0xbd145f50	-0.03622371
24	0xbdcc7f7a	-0.09985252
25	0xbd426af3	-0.047465276
26	0x3d5cb444	0.053882852
27	0xbd482c68	-0.048870474
28	0xbd176c51	-0.036968533
29	0x3dc94031	0.09826697
30	0x3d694667	0.056951907
31	0xbd917ff5	-0.07104484
32	0xbdc0b073	-0.09408655
33	0xbbf07629	-0.0073383045
34	0xbb893ea7	-0.004188377
35	0x3c168ba6	0.009188568
36	0xbd4b47b4	-0.04962893
37	0x3cf14ab6	0.02945457
38	0xbcfa1e99	-0.030532168
39	0xba2d8ac3	-0.00066201034
40	0x3b9acb22	0.0047239223
41	0x3dc4290e	0.09578143
42	0x3c94362e	0.018092241
43	0x3d0e71fb	0.03477667
44	0x3b660627	0.0035098882
45	0xbd85eeeb	-0.065397106
46	0xbd855c10	-0.065117
47	0xbd966fb0	-0.073455215
48	0xbc00d9a3	-0.007864389
49	0xbd2f6124	-0.04281725
50	0xbd164274	-0.03668447
51	0x3d3a94e3	0.045552146
52	0xbd188252	-0.037233658
53	0x3a4b4201	0.0007753671
54	0x3d2ad702	0.041708954
55	0x3cfa065d	0.030520612
56	0x3d4bab00	0.049723625
57	0xbc942f4f	-0.018088965
58	0x3e0df9b6	0.13864788
59	0x3d993126	0.074800774
60	0x3d869267	0.06570893
61	0x3cdec176	0.027191859
62	0xbd9a8dad	-0.07546554
63	0x3b68d1d6	0.0035525463
64	0xbd3b84c7	-0.045780923
65	0xbc9bb277	-0.019005997
66	0x3d1ea91f	0.038735505
67	0xbd3009e9	-0.0429782
68	0x3c334a2e	0.010942979
69	0x3d40567c	0.046957478
70	0x3deb4463	0.11487653
71	0xba98b664	-0.0011651036
72	0x3c1b5326	0.009480273
73	0xbd1aa95c	-0.03775917
74	0x3d85e480	0.065377235
75	0x3d002933	0.03128929
76	0xbcff5998	-0.031170651
77	0x3c33c4c8	0.010972209
78	0xbd1988e9	-0.037484083
79	0xbc00f760	-0.007871479
80	0xbe09b05c	-0.13446182
81	0x3df8b91a	0.1214468
82	0x3caa1a54	0.020764507
83	0x3d2f5ffb	0.042816143
84	0x3cdef4f4	0.027216412
85	0x3c29c8ba	0.010362798
86	0xbdccdf6f	-0.10003554
87	0x3d810fe5	0.0630186
88	0xbc77be2a	-0.015121022
89	0xbd51a1c3	-0.05117966
90	0xbcf5be34	-0.029997922
91	0x3e0834da	0.13301411
92	0xbd134b2c	-0.03596036
93	0xbe242599	-0.16029967
94	0x3d017459	0.0316051
95	0x3d324f1c	0.043532476
96	0x3d8f71f0	0.07004154
97	0x3dcca303	0.099920295
98	0x3e7a9c51	0.24473692
99	0x3db0cd45	0.08632902
100	0x3defc2c8	0.117070735
101	0x3ce481f6	0.027894001
102	0xbe34f078	-0.17669857
103	0x3c36aa9c	0.011149075
104	0xbdef0ea1	-0.11672712
105	0x3d5ff545	0.054677267
106	0x3c070028	0.008239783
107	0xbc822df8	-0.01589106
108	0x3bdb933d	0.006700902
109	0xbdd1e713	-0.10249152
110	0x3deb1046	0.11477713
111	0x3c9a3c88	0.018827692
112	0xbe4dd214	-0.2009967
113	0xbd77a393	-0.06045873
114	0x3cfe2a77	0.031026108
115	0xbdb9f871	-0.090805896
116	0x3bdde382	0.006771506
117	0x3c9072b0	0.017632812
118	0x3a811797	0.0009848949
119	0x3a92e9c0	0.0011208579
120	0xbe5b4370	-0.21412444
121	0xbbf7bc60	-0.007560298
122	0xbca4dde3	-0.020125335
123	0xba23d1c3	-0.00062492135
124	0xbe6e7f1d	-0.23290677
125	0xbe573eea	-0.21020094
126	0xbe3586df	-0.1772723
127	0xbea8f2e3	-0.32997808
128	0xbd9001f6	-0.07031624
129	0xbd989b44	-0.074514896
130	0xbeb880c1	-0.3603573
131	0xbe253542	-0.16133597
132	0xbc3ca44c	-0.011513781
133	0x3efbb96b	0.491649
134	0x3e4981cf	0.19678424
135	0x3d9b32f9	0.07578082
136	0xbd9c1bc8	-0.07622486
137	0xbe9f11b7	-0.31068203
138	0x3e662d4d	0.22478218
139	0x3d37a0bb	0.04483102
140	0x3df93969	0.12169153
141	0x3d7fd817	0.06246194
142	0xbdd4e8c3	-0.10395958
143	0xbe58dc1a	-0.21177712
144	0xbe7c632f	-0.2464721
145	0xbf1dc0a4	-0.6162207
146	0x3e393aea	0.1808888
147	0xbdf95395	-0.12174145
148	0xbd8146d8	-0.063123405
149	0x3dcc5969	0.09977991
150	0x3e662ba4	0.22477585
151	0xbecb7131	-0.39734796
152	0xbdcda3e6	-0.10041027
153	0xbe7b9346	-0.24567899
154	0x3e0cf0d1	0.13763739
155	0x3ea8b1f4	0.32948267
156	0x3cfa2b1a	0.03053813
157	0x3eb16338	0.3464601
158	0x3dc48cf4	0.09597197
159	0xbb5e69e4	-0.0033937627
160	0x3cb8549c	0.022501282
161	0xbc8397c8	-0.016063586
162	0xbc9c9fee	-0.01911923
163	0xbcabe09f	-0.020981131
164	0xbc67d9ab	-0.014151017
165	0x3b6a8897	0.003578698
166	0x3d0917f4	0.03347011
167	0x3cd34f02	0.02579451
168	0x3c35c174	0.011093486
169	0x3cb7d510	0.022440463
170	0x3d267cda	0.04064641
171	0xb9f900aa	-0.00047493476
172	0x3c163b3b	0.009169395
173	0xbcecffe9	-0.028930621
174	0xbc842d47	-0.016134871
175	0xbbb2eb85	-0.005460205
176	0xbce298c9	-0.027660744
177	0x3c2daa5e	0.010599701
178	0xbc857c4d	-0.016294623
179	0xbcf6c278	-0.030122027
180	0xbcbef26c	-0.023308955
181	0xbc25af2b	-0.010112564
182	0x3cd38f06	0.025825035
183	0x3b845a6b	0.004039099
184	0x3cdda27d	0.02705502
185	0x3c0733a1	0.008252055
186	0x3bf9b8c7	0.007620904
187	0x3c6a8ba0	0.014315516
188	0x3c979af7	0.01850651
189	0xbcfbed64	-0.030752845
190	0xbcc017e9	-0.023448901
191	0xbc1d6f8f	-0.009609117
192	0x3d1a25ac	0.037633583
193	0xbc0e214c	-0.008674931
194	0xbcc3c583	-0.023897892
195	0xbbdc02bf	-0.0067141945
196	0x3cbfaf70	0.023399085
197	0xbc1a5765	-0.009420251
198	0x3c2fd728	0.01073245
199	0x3b16088d	0.002289328
200	0xbd8df5bd	-0.069316365
201	0x3dd356ba	0.10319276
202	0x3d3eed7d	0.046613205
203	0x3dbfa5c9	0.09357793
204	0xbd722806	-0.0591202
205	0xbd95b9d7	-0.07310837
206	0xbd80d125	-0.06289891
207	0xbd9ffbf1	-0.07811726
208	0xbcd60d9c	-0.026129536
209	0xbd420a9f	-0.04737341
210	0xbdc606f5	-0.09669296
211	0x3c952ff3	0.01821134
212	0xbd2d41d9	-0.042299125
213	0x3ddd026c	0.107914776
214	0x3d85a1f9	0.065250345
215	0x3d6dec56	0.058086716
216	0x3d802cc7	0.062585406
217	0xbd226971	-0.039651338
218	0x3dffa7bf	0.12483167
219	0x3dcf8904	0.101335555
220	0x3d2bb526	0.041920803
221	0x3d81390f	0.06309711
222	0xbdcfc37c	-0.101447076
223	0xbc7307bf	-0.01483339
224	0xbda4b54f	-0.08042394
225	0xbd1fc47b	-0.039005738
226	0x3da3e31e	0.080023035
227	0xbd8ee626	-0.06977491
228	0xbd69d8aa	-0.057091393
229	0x3dfc07a8	0.12306148
230	0x3d9507aa	0.072768524
231	0xbd81d661	-0.06339718
232	0xbd92ac21	-0.07161737
233	0xbc8506b0	-0.01623854
234	0x3cd7b8db	0.026333263
235	0x3d0f88f8	0.035042733
236	0xbcd44d31	-0.025915714
237	0x3da24481	0.07923222
238	0xbc94431c	-0.018098406
239	0xba77ada5	-0.00094481773
240	0xbe14b3da	-0.14521733
241	0x3caa8a98	0.02081804
242	0x3d5f8a97	0.05457553
243	0x3db02960	0.08601642
244	0xbe00210b	-0.12512605
245	0xbdbd85fc	-0.09254071
246	0xbe1c6db6	-0.15276226
247	0xbd93f25b	-0.0722396
248	0xbc061fda	-0.008186305
249	0xbcece488	-0.028917566
250	0xbe495c7b	-0.19664185
251	0xbdcf9546	-0.101358935
252	0xbcc486cf	-0.023990063
253	0x3dfcb759	0.12339658
254	0x3d427cb1	0.047482196
255	0x3d1ed203	0.0387745

lstm.weight_hh_l1 f4 [160, 40]
0	0xbc44be46	-0.012008255
1	0xbd3e46d9	-0.046454284
2	0xbd7b4c42	-0.061352022
3	0xbb3ce13a	-0.002882077
4	0x3b358799	0.002769923
5	0xbcb8825c	-0.022523098
6	0xbce33d78	-0.027739272
7	0x3cc848ae	0.024448719
8	0x3cf49000	0.02985382
9	0x3d42d33c	0.04756473
10	0x3cee4552	0.029085789
11	0xbce0fb2b	-0.027463516
12	0x3cfadb5c	0.030622177
13	0xbd5c85ad	-0.05383842
14	0x3d00ed11	0.031476084
15	0x3cc14dc4	0.023596652
16	0x3d1381ab	0.036012333
17	0xbcf69f66	-0.030105304
18	0x3b8f34fe	0.004370331
19	0x3c83358d	0.016016746
20	0xbce15ad2	-0.027509127
21	0x3c2f92ad	0.010716123
22	0xbd13938a	-0.036029376
23	0xbd0dbe91	-0.034605566
24	0x3cf9e484	0.030504473
25	0xbd66aee5	-0.056319136
26	0xbd7bc8e9	-0.0614709
27	0x3d0c67d8	0.03427872
28	0xbc83beb4	-0.016082145
29	0xbd039cba	-0.032131888
30	0x3ce3d83d	0.027813071
31	0x3d16deb4	0.03683348
32	0xbd0aea1b	-0.033914667
33	0xbd1cd14f	-0.03828555
34	0xbd1ba2a5	-0.037996907
35	0xbdcbc1d3	-0.099490784
36	0x3d039b78	0.03213069
37	0x3d81298c	0.063067526
38	0x3d652c9a	0.05595074
39	0xbce49e47	-0.027907504
40	0xbc9ead0d	-0.019369626
41	0xbbafbd08	-0.0053631105
42	0xbd5947d1	-0.053047005
43	0xbc475535	-0.012166311
44	0x3d9cc633	0.07654991
45	0x391962c3	0.00014628009
46	0xbd2f4e2d	-0.042799164
47	0xbc3147c2	-0.010820331
48	0x3d7f49da	0.06232629
49	0x3d8d1a18	0.068897426
50	0x3d0620ce	0.03274613
51	0x3cf266a3	0.029589957
52	0xbb9a6a62	-0.004712389
53	0xbcb62068	-0.02223225
54	0x3d9200ca	0.07129057
55	0x3bb119ad	0.005404672
56	0x3ccba9f6	0.024861317
57	0xbc83ba76	-0.016080122
58	0xbc2da453	-0.01059826
59	0xbc9700f9	-0.018433081
60	0xbd3a437b	-0.04547451
61	0x3c97e11a	0.018539954
62	0xbd40b2bd	-0.047045458
63	0xbce45c9b	-0.027876189
64	0x3d76e370	0.060275495
65	0xbd052f68	-0.032515913
66	0xbdd2b51a	-0.10288449
67	0x3d25854f	0.040410336
68	0x3d074e4e	0.03303366
69	0xbcf646a2	-0.030062977
70	0x3d7553f2	0.05989451
71	0x3c718e54	0.014743406
72	0xbd53355c	-0.05156456
73	0xbd0df694	-0.034658983
74	0xbd3af949	-0.045647893
75	0xbcf14d81	-0.029455902
76	0x3dd81565	0.10550956
77	0xbc8ed8b3	-0.017437315
78	0xbdb99963	-0.09062459
79	0x3c2e0aaa	0.01062266
80	0xbd002040	-0.031280756
81	0xbd93bead	-0.07214103
82	0xbdc67b77	-0.09691518
83	0x3c411da9	0.011786857
84	0x3c8dec71	0.017324658
85	0xbc8eafda	-0.017417837
86	0xbdf45049	-0.11929376
87	0x3d05c77b	0.032660943
88	0x3b7dfbaf	0.0038754751
89	0x3d9d5acb	0.07683333
90	0x3d745238	0.059648722
91	0xbd2c9bb9	-0.042140696
92	0x3c2ff504	0.010739569
93	0xbc61fbfc	-0.013792988
94	0x3deb14f4	0.11478606
95	0x3d5f7a19	0.0545598
96	0x3d8f0e22	0.069851175
97	0x3ca58732	0.020206068
98	0xbc93ef71	-0.01805851
99	0xbbcb92bb	-0.00621256
100	0xbce6022e	-0.028077211
101	0x3cdb927b	0.026803246
102	0xbd7a9d4a	-0.06118516
103	0xbd94b736	-0.07261507
104	0x3bc4dc7f	0.0060077305
105	0xbe1a9bc4	-0.15098482
106	0xbe1da2ae	-0.15394089
107	0x3d2f1457	0.042744007
108	0x3c27e01f	0.010246306
109	0xbc83e1f0	-0.016098946
110	0x3cbba5f7	0.022906287
111	0xbd565b03	-0.05233289
112	0xbd17b9a1	-0.037042264
113	0xbd2a1c5c	-0.04153095
114	0xbd92e356	-0.07172267
115	0xbcafe5dc	-0.02147191
116	0x3db0430c	0.08606538
117	0x3c9cb541	0.019129397
118	0x3e106a86	0.14103135
119	0xbd839d61	-0.06426502
120	0x3c9126de	0.017718729
121	0xbd365e4a	-0.044523515
122	0xbe38c97b	-0.18045609
123	0x3dbbc5e5	0.09168605
124	0xbae5f005	-0.0017542845
125	0xbd4b5ec2	-0.049650915
126	0xbc9b3c4b	-0.018949648
127	0x3d68184e	0.056663804
128	0xbcf34bab	-0.029699167
129	0x3d90dd66	0.070734784
130	0x3c978526	0.018496107
131	0xbddccfee	-0.10781847
132	0xbbe481af	-0.0069734673
133	0xbc69fce0	-0.0142814815
134	0x3dde8743	0.10865643
135	0x3d41aff8	0.047286958
136	0x3d1cd76f	0.03829139
137	0xbe17dde2	-0.14830735
138	0xbc9255f6	-0.017863255
139	0x3d9b2dec	0.07577118
140	0xbdbec6ad	-0.09315238
141	0x3d2101dd	0.039308418
142	0xbd157100	-0.03648472
143	0xbcd25639	-0.02567588
144	0xbc459133	-0.012058544
145	0xbe081895	-0.13290627
146	0xbd5441f2	-0.051820703
147	0x3db2c444	0.08728841
148	0xbcbd1650	-0.023081928
149	0xbc88019d	-0.016602332
150	0x3d3b45cd	0.045720864
151	0x3d980824	0.07423428
152	0xbd4f64d5	-0.05063327
153	0x3d08b2ff	0.03337383
154	0x3b7cda23	0.0038582168
155	0xbe16e358	-0.14735162
156	0x3bad3d2c	0.0052868333
157	0xbdcb37fe	-0.09922789
158	0x3e34f6e0	0.176723
159	0xbd09b99b	-0.033624273
160	0xbb7ee9ba	-0.0038896636
161	0x3cfe6a50	0.031056553
162	0x3d00bbca	0.03142909
163	0x3caac29c	0.02084475
164	0xbbc893d3	-0.0061211376
165	0x3cacb04e	0.021080162
166	0x3c195bf1	0.009360299
167	0xbd01d7a2	-0.031699784
168	0xbc0c7572	-0.008572923
169	0xbd01c93b	-0.03168605
170	0xbcc7bd84	-0.02438236
171	0x3bfc8c5f	0.007707163
172	0xbc981010	-0.018562347
173	0x3ceda9d1	0.029011639
174	0xbcee6fd6	-0.029106062
175	0xbc07f4d6	-0.0082981195
176	0xbd076b52	-0.033061333
177	0x3d04de3d	0.032438505
178	0x3c589738	0.013219647
179	0x3ca69123	0.020332878
180	0x3ab06824	0.0013458771
181	0xbb10535f	-0.002202235
182	0x3ca80f82	0.020515207
183	0x3c8beddb	0.017081192
184	0xbc5c6c2a	-0.013453523
185	0x3d4d9c14	0.050197676
186	0x3d00fa02	0.031488426
187	0xbcd5e02d	-0.026107872
188	0xbc490ec3	-0.012271586
189	0x3d13273c	0.03592609
190	0xbc86d171	-0.016457291
191	0x3abf2559	0.0014583274
192	0x3d8fb0f1	0.07016171
193	0xbb3fa0c0	-0.0029240102
194	0x3da60e19	0.08108158
195	0x3cfcd7fe	0.030864712
196	0xbc8bb81d	-0.017055565
197	0xbc9dcc10	-0.019262344
198	0xbd18771a	-0.03722296
199	0x3d198b1d	0.037486184
200	0xbd0b63a2	-0.034030564
201	0xbd6a0c2d	-0.057140518
202	0xbd9b6b8c	-0.07588872
203	0xbcccd447	-0.025003565
204	0x3bfc0270	0.0076907203
205	0xba9611ce	-0.0011449398
206	0xbd179fa1	-0.03701747
207	0x3d3b407a	0.045715787
208	0x3c74e851	0.014947967
209	0x3cb991d5	0.022652546
210	0x3d234422	0.0398599
211	0xbcfc1178	-0.030770048
212	0x3d4d34c5	0.050099153
213	0xbd927d88	-0.071528494
214	0x3d22ffea	0.03979484
215	0x3c6a1fce	0.014289809
216	0x3d059895	0.032616217
217	0xbc88c647	-0.016696109
218	0x3abaea3b	0.001426048
219	0x3c72cf32	0.014819907
220	0xbd182125	-0.037140984
221	0x3d1147d7	0.035468902
222	0xbd60c188	-0.054872066
223	0xbd1e62da	-0.03866849
224	0x3cbe4405	0.023225794
225	0xbd5d0603	-0.05396081
226	0xbd4d0df5	-0.05006214
227	0x3d23f99c	0.040032968
228	0xbc60c6da	-0.013719285
229	0xbd299159	-0.04139838
230	0x3d23142a	0.03981415
231	0xbc110ec4	-0.008853618
232	0xbd3512ea	-0.04420749
233	0xbcb7c44f	-0.022432474
234	0xbd58fc36	-0.052974902
235	0xbd828ec2	-0.06374885
236	0x3ded9e5a	0.11602469
237	0xbcfba7b7	-0.030719621
238	0x3d368c66	0.044567488
239	0xbd24f8c6	-0.04027631
240	0x3cfa12b2	0.030526493
241	0xbcae0148	-0.021240845
242	0xbe1b3670	-0.15157485
243	0xbce6f127	-0.028191162
244	0x3bef5687	0.007304016
245	0xbd59aad4	-0.05314143
246	0x3d06e380	0.032931805
247	0x3c174ee8	0.009235121
248	0x3c43075e	0.011903612
249	0x3cf3e159	0.02977054
250	0x3d7d0d90	0.061780512
251	0xbde4c7ba	-0.11170907
252	0x3c47449b	0.012162353
253	0xbd26a3d6	-0.04068359
254	0x3db4d8c7	0.088304095
255	0x3c6b0eb8	0.014346771

lstm.bias_ih_l1 f4 [160]
0	0x3de9a7fb	0.11408993
1	0x3e96e953	0.29474887
2	0x3eb89d27	0.36057398
3	0xbcc09c11	-0.023511918
4	0xbd321622	-0.04347814
5	0x3d9f1ae3	0.077688
6	0x3dbdbf0b	0.09264954
7	0x3d884883	0.066544555
8	0x3e29b4d4	0.16572887
9	0x3e860e40	0.26182747
10	0x3e428ad8	0.18998277
11	0x3dfb1c31	0.122612365
12	0x3e19c66b	0.15017097
13	0x3e81deba	0.2536524
14	0x3e62ea85	0.22159775
15	0x3d664354	0.056216553
16	0xbbdfc80f	-0.0068292688
17	0x3e534403	0.20631413
18	0xbd74585e	-0.059654586
19	0xbdd6cbea	-0.10488112
20	0x3e0d1e22	0.13781026
21	0x3dffa2a9	0.12482197
22	0x3e737492	0.23774937
23	0xbdeeb276	-0.116551325
24	0x3d0848e8	0.033272654
25	0x3ebc55d8	0.36784244
26	0x3e67e3cd	0.22645493
27	0x3d984f97	0.074370556
28	0xbd17be3d	-0.03704666
29	0x3e662d97	0.22478329
30	0x3de9041e	0.113777384
31	0xbd896dab	-0.06710371
32	0x3e116fc0	0.14202785
33	0x3dee575a	0.11637755
34	0x3dc0c95e	0.09413408
35	0x3eaf438b	0.3423122
36	0x3e9cf883	0.3065835
37	0x3e6597ca	0.22421184
38	0x3eb226b1	0.34795144
39	0x3d5703e7	0.052493956
40	0x3d718cca	0.058972158
41	0x3ec8522d	0.39125195
42	0x3e5abfc7	0.2136222
43	0x3ea31880	0.3185463
44	0x3de60641	0.112316616
45	0x3ef853df	0.4850149
46	0x3e0b4905	0.13602073
47	0x3ed14a2d	0.40876904
48	0x3c807f67	0.01568575
49	0x3e07be21	0.13256122
50	0x3df9dddd	0.1220052
51	0x3e5808e8	0.21097147
52	0x3e71ed1a	0.23625603
53	0x3e39f8fe	0.18161389
54	0x3eb4cc25	0.35312
55	0x3f015b7c	0.5053022
56	0xbdcb3f4b	-0.099241816
57	0xbe251068	-0.1611954
58	0x3cfc2654	0.030779995
59	0x3d402ac9	0.046915803
60	0x3e03b5d9	0.12862338
61	0x3ef0abf9	0.47006205
62	0x3c9244f0	0.017855138
63	0x3e9685f2	0.29399067
64	0x3e5e55f6	0.21712479
65	0x3ea5f53d	0.32413664
66	0x3e6ddb99	0.23228301
67	0x3eb2e1e1	0.34937957
68	0xbb8e0d7e	-0.0043351045
69	0x3eff92be	0.49916643
70	0x3d514f73	0.05110116
71	0x3eb6d3e1	0.35708526
72	0x3e85bea9	0.26122025
73	0xbd901224	-0.0703471
74	0x3dd51d4c	0.104059786
75	0x3dcd238f	0.10016548
76	0x3da93239	0.08261532
77	0x3db8efe4	0.090301305
78	0x3e87e8f4	0.26544917
79	0x3eb7ba2e	0.3588423
80	0xbde061a8	-0.109561265
81	0xbe977344	-0.29580128
82	0xbed03a41	-0.40669444
83	0xbd1188d1	-0.03553087
84	0x3d5944d6	0.053044163
85	0xbdd9e090	-0.10638535
86	0x3d36db34	0.044642642
87	0x3db5db73	0.08879747
88	0x3e3337bc	0.1750173
89	0x3e94d350	0.2906747
90	0x3e959aed	0.29219761
91	0xbe0eb457	-0.13935982
92	0x3dae3e4b	0.08507975
93	0xbe3ceb21	-0.1844907
94	0x3e4c9370	0.19978118
95	0x3c314d86	0.010821706
96	0x3ca2d605	0.019877443
97	0x3cb81a03	0.02247334
98	0xbdd977bd	-0.106185414
99	0xbdc0f49f	-0.09421658
100	0xbe2e5f39	-0.17028512
101	0x3d4f04b6	0.050541602
102	0xbe0c4e29	-0.1370169
103	0xbdc4e51b	-0.09614011
104	0x3d69c08d	0.057068396
105	0xbe9131ee	-0.28358406
106	0xbe9ef135	-0.310434
107	0x3ea322e2	0.3186255
108	0x3c2ab824	0.010419879
109	0xbe9cecdf	-0.30649468
110	0x3e2d7d27	0.16942273
111	0x3d933a2e	0.07188831
112	0xbe8726c5	-0.26396766
113	0x3d12d1d7	0.03584465
114	0xbe93b6a5	-0.28850284
115	0xbebd4895	-0.36969438
116	0x3e8b60a1	0.2722216
117	0x3e168b47	0.14701568
118	0x3e9e81a4	0.30958283
119	0xbc4067ac	-0.011743467
120	0xbed61f44	-0.4182073
121	0x3d58f412	0.05296714
122	0x3e827ba5	0.25484958
123	0xbd38c1f5	-0.045106847
124	0xbda925c9	-0.0825916
125	0xbe90c01a	-0.28271562
126	0xbe83f4a4	-0.25772583
127	0xbe079fa2	-0.13244489
128	0xbea77d91	-0.32712987
129	0x3d0e8a95	0.03480013
130	0xbe80ea45	-0.25178733
131	0xbe7e64d1	-0.24843146
132	0xbe7451b3	-0.23859291
133	0x3db8d3d2	0.090247765
134	0x3e6c4506	0.23073205
135	0xbec8bcbe	-0.392065
136	0xbdd02675	-0.10163585
137	0xbd6480b7	-0.055786815
138	0xbd889301	-0.06668664
139	0xbe5bb614	-0.21456176
140	0xbee59587	-0.44840643
141	0xbe4e74ec	-0.2016179
142	0xbd087935	-0.033318717
143	0xbe2c0984	-0.16800505
144	0xbec6cadc	-0.38826644
145	0x3e8a938a	0.27065688
146	0x3ea7b9a5	0.32758823
147	0xbe0c8900	-0.13724136
148	0xbe28b531	-0.16475369
149	0xbe07bc76	-0.13255486
150	0xbead3174	-0.33826792
151	0xbda558f5	-0.08073608
152	0xbdd46d57	-0.103724174
153	0xbe829dc5	-0.25510994
154	0xbe1bcb92	-0.15214375
155	0x3d518720	0.051154256
156	0xbcf82f1a	-0.030295897
157	0xbea73545	-0.3265783
158	0x3ea9ecca	0.33188468
159	0xbe62e06f	-0.22155927

lstm.bias_hh_l1 f4 [160]
0	0x3e10d624	0.14144188
1	0x3e92e212	0.28688103
2	0x3e9d5844	0.30731404
3	0xbb780512	-0.003784482
4	0xbd80d3a5	-0.06290368
5	0x3e1ea525	0.15492685
6	0xbddf32dc	-0.108983725
7	0x3e6719f2	0.22568491
8	0x3e24a724	0.16079384
9	0x3e13929c	0.14411396
10	0x3e4b229d	0.19837423
11	0x3e0b48e8	0.1360203
12	0x3e5796e4	0.21053654
13	0x3e7aa465	0.24476774
14	0x3ea02b3d	0.31282988
15	0x3d432337	0.047641005
16	0xbaf4a18f	-0.0018663871
17	0x3e470e5f	0.19439076
18	0xbd85a9d0	-0.0652653
19	0xbdc33716	-0.09531991
20	0x3e0cab62	0.13737252
21	0x3d5bf846	0.05370357
22	0x3e847ea0	0.25877857
23	0x3c065870	0.008199796
24	0x3dad1699	0.08451576
25	0x3eae3a11	0.34028676
26	0x3e49c15a	0.19702664
27	0x3e38fb74	0.18064672
28	0xbd02ddb2	-0.031949706
29	0x3e36ea81	0.17862894
30	0x3df73ef7	0.120725565
31	0xbe00e9a6	-0.1258913
32	0x3de803b7	0.113288336
33	0x3d50fecc	0.051024243
34	0x3e2d4dd6	0.16924223
35	0x3eaf43dc	0.3423146
36	0x3de241a0	0.11047673
37	0x3e665c1b	0.22496073
38	0x3e579784	0.21053892
39	0x3df4ab3e	0.11946724
40	0x3d718cca	0.058972158
41	0x3ec8522d	0.39125195
42	0x3e5abfc7	0.2136222
43	0x3ea31880	0.3185463
44	0x3de60641	0.112316616
45	0x3ef853df	0.4850149
46	0x3e0b4905	0.13602073
47	0x3ed14a2d	0.40876904
48	0x3c807f67	0.01568575
49	0x3e07be21	0.13256122
50	0x3df9dddd	0.1220052
51	0x3e5808e8	0.21097147
52	0x3e71ed1a	0.23625603
53	0x3e39f8fe	0.18161389
54	0x3eb4cc25	0.35312
55	0x3f015b7c	0.5053022
56	0xbdcb3f4b	-0.099241816
57	0xbe251068	-0.1611954
58	0x3cfc2654	0.030779995
59	0x3d402ac9	0.046915803
60	0x3e03b5d9	0.12862338
61	0x3ef0abf9	0.47006205
62	0x3c9244f0	0.017855138
63	0x3e9685f2	0.29399067
64	0x3e5e55f6	0.21712479
65	0x3ea5f53d	0.32413664
66	0x3e6ddb99	0.23228301
67	0x3eb2e1e1	0.34937957
68	0xbb8e0d7e	-0.0043351045
69	0x3eff92be	0.49916643
70	0x3d514f73	0.05110116
71	0x3eb6d3e1	0.35708526
72	0x3e85bea9	0.26122025
73	0xbd901224	-0.0703471
74	0x3dd51d4c	0.104059786
75	0x3dcd238f	0.10016548
76	0x3da93239	0.08261532
77	0x3db8efe4	0.090301305
78	0x3e87e8f4	0.26544917
79	0x3eb7ba2e	0.3588423
80	0xbe07e502	-0.13270953
81	0xbe723d49	-0.23656191
82	0xbeacd755	-0.33758035
83	0x3cfd8de4	0.030951448
84	0xbd38de48	-0.04513386
85	0xbe99f321	-0.30068305
86	0xbdf6dcec	-0.12053856
87	0x3e5327bd	0.20620628
88	0x3e5d245c	0.21595901
89	0x3e6797fe	0.22616574
90	0x3e8e7cde	0.2782964
91	0xbe2e3b87	-0.17014895
92	0x3e1ba7ea	0.15200773
93	0xbeb6be93	-0.35692272
94	0x3e64c8b0	0.22342181
95	0x3d174a50	0.036936104
96	0x3dcae55f	0.0990703
97	0xbb8e9e0a	-0.004352336
98	0xbdc0221a	-0.09381504
99	0x3af345dc	0.0018560248
100	0xbd89945b	-0.0671775
101	0x3e875299	0.26430205
102	0xbeccb951	-0.39985135
103	0xbd9aa6b1	-0.07551325
104	0x3e39002d	0.18066473
105	0xbe898cfe	-0.2686538
106	0xbe85159a	-0.25993043
107	0x3e168080	0.14697456
108	0x3d159671	0.036520425
109	0xbdd35fdc	-0.10321018
110	0x3da9af2e	0.08285366
111	0x3c1f10dd	0.00970861
112	0xbe7ac207	-0.24488078
113	0xbde8838e	-0.11353217
114	0xbe9e225c	-0.3088559
115	0xbe8eaece	-0.2786774
116	0x3ea5fb45	0.32418266
117	0x3e1de273	0.15418415
118	0x3ca1b90e	0.019741561
119	0xbe46dbee	-0.19419834
120	0xbed8826c	-0.42287004
121	0xbc6b3124	-0.014354978
122	0x3ec4a207	0.38404867
123	0xbd813813	-0.063095234
124	0xbdd2f70d	-0.103010274
125	0xbe4b2cc1	-0.19841291
126	0xbd1f6973	-0.038918924
127	0xbe50ba8b	-0.2038366
128	0xbeab3e4c	-0.33445966
129	0xbda3121f	-0.07962441
130	0xbe7cc47d	-0.2468433
131	0xbe58812d	-0.21143027
132	0xbea41d31	-0.3205352
133	0xbd291584	-0.041280285
134	0x3d31d02d	0.043411423
135	0xbeb4298f	-0.35187957
136	0xbddfe8fe	-0.109331116
137	0xbe0d4420	-0.13795519
138	0xbdf4467c	-0.11927506
139	0xbe29e2e6	-0.16590461
140	0xbefe82e2	-0.4970923
141	0xbe49033a	-0.19630137
142	0xbd519b84	-0.051173702
143	0xbe09e5f9	-0.13466634
144	0xbea8da06	-0.3297884
145	0x3eb94f6f	0.36193416
146	0x3eb1b951	0.34711698
147	0xbdef32c9	-0.116796084
148	0xbd2d9d5c	-0.042386398
149	0xbdd7e32b	-0.10541376
150	0xbedc4776	-0.4302327
151	0xbdf5f8fe	-0.12010382
152	0xbd4fa2af	-0.050692257
153	0xbe6fe941	-0.23428823
154	0xbe5d4dab	-0.21611659
155	0x3db97bfc	0.09056851
156	0xbdb72d06	-0.089441344
157	0xbea2a9af	-0.31770083
158	0x3ebaf6ff	0.36516568
159	0xbe391f58	-0.18078363

distribution_mu.weight f4 [1, 80]
0	0xc0d01e03	-6.5036635
1	0xc0fd4cb3	-7.9156127
2	0x4104c62e	8.298384
3	0xc0a9c09a	-5.304761
4	0x41168868	9.408302
5	0xc091dde8	-4.558338
6	0x40e8f597	7.279979
7	0xc104aa60	-8.291595
8	0xc0fdbe19	-7.9294553
9	0x3d6df587	0.05809548
10	0xc0d090da	-6.517682
11	0xc0fb81a7	-7.8595767
12	0xc0c2f35a	-6.092206
13	0xc0f94846	-7.7900724
14	0xc1057fb6	-8.343679
15	0x40f8ed5a	7.7789736
16	0xc1036b23	-8.213656
17	0x40f0993c	7.5187054
18	0xc0eac122	-7.336076
19	0x40d8b57f	6.7721553
20	0xc0a4366f	-5.1316447
21	0x41001f5a	8.007654
22	0xc0253714	-2.5814867
23	0xc0e2cb7a	-7.0873384
24	0xc10384b0	-8.219894
25	0x40f0a6a8	7.520344
26	0x411288ef	9.158431
27	0xc101f7f6	-8.123037
28	0x4127c0b8	10.48455
29	0x409d1b67	4.909595
30	0x40e9d284	7.3069477
31	0x40ff0373	7.969171
32	0x40f0d8e4	7.526476
33	0x412155b3	10.083423
34	0xc13876be	-11.52899
35	0xc0e45131	-7.134911
36	0x409d92d4	4.9241734
37	0x3bbac9f3	0.0057003438
38	0x4109f638	8.622612
39	0x40780ca9	3.8757727
40	0x40ca453e	6.3209524
41	0xc0f9e206	-7.8088408
42	0x40fe7959	7.952313
43	0x40eb7f29	7.3592725
44	0xc09e45a4	-4.946001
45	0xc0e90606	-7.2819853
46	0xc113a116	-9.226828
47	0xc10a60ef	-8.648665
48	0xc0d82054	-6.7539463
49	0x40f779d6	7.7336226
50	0xc0f41cc3	-7.628511
51	0xc095cf0f	-4.6815257
52	0x40e710ed	7.220816
53	0xc08ff8f9	-4.499142
54	0xc0fea244	-7.957308
55	0x40e0ba4d	7.022742
56	0xc0d0b56e	-6.522147
57	0xc0683f02	-3.6288457
58	0x4105140f	8.317397
59	0xc0f134cd	-7.5376954
60	0x40d28566	6.578784
61	0x40f3adad	7.6149507
62	0xc16a8f66	-14.660009
63	0x40fc230b	7.8792777
64	0xc0bf5b69	-5.9799085
65	0xc0f1bfd4	-7.5546665
66	0xc0d542f1	-6.6644216
67	0xc109f565	-8.622411
68	0x40cc17c8	6.377903
69	0xc0dc7644	-6.8894367
70	0x40ce9ec5	6.456881
71	0xc11826a9	-9.5094385
72	0xc110fd44	-9.061832
73	0x40d1bbad	6.5541596
74	0x40f7da9a	7.7454348
75	0x41060735	8.37676
76	0xc0b0ae03	-5.5212417
77	0x40a75617	5.229259
78	0xbeebb93f	-0.4603977
79	0xc10133ba	-8.075129

distribution_presigma.weight f4 [1, 80]
0	0xbf36c50b	-0.71394414
1	0xbf9cc035	-1.2246157
2	0x402dbfd1	2.7148325
3	0xbf7189ce	-0.943509
4	0x3f305957	0.6888632
5	0xbf597cba	-0.8495594
6	0x3f29dd13	0.6635296
7	0xbf43f795	-0.76549655
8	0xbf7e5428	-0.9934716
9	0xbc9d8b37	-0.019231422
10	0xbf6cdc48	-0.9252362
11	0xbfc774c1	-1.5582505
12	0xbf99be67	-1.2011231
13	0xbf2b1809	-0.6683355
14	0xbf3edf94	-0.74559903
15	0x3faf48d1	1.3694097
16	0xbf6aff0a	-0.9179541
17	0x3fdb7633	1.7145447
18	0xbf8ec854	-1.1154885
19	0x3f8fe2ad	1.1241051
20	0xbf7ef003	-0.9958498
21	0x3f822621	1.0167886
22	0x3d319c5a	0.043362
23	0xc00eb6d3	-2.2299087
24	0xbf983c3d	-1.1893383
25	0x40352004	2.830079
26	0x3fe7a544	1.809731
27	0xc01b9f44	-2.4315958
28	0x3f4b281f	0.79358095
29	0x3f89b88a	1.0759442
30	0x4049b3c2	3.1515965
31	0x3fcd4b44	1.6038594
32	0x3f4dc4d7	0.8037848
33	0x3f9afef4	1.2109056
34	0xbfce86a3	-1.6134838
35	0x3ca543b1	0.02017388
36	0x3f95efbf	1.171379
37	0xbc4d3ed6	-0.012527188
38	0x3fad87b0	1.3557034
39	0xbd21823c	-0.03943084
40	0x3f8e0f1b	1.109836
41	0xbfc56ea4	-1.542439
42	0x3f89401a	1.0722687
43	0x4009f492	2.1555524
44	0xbf2f0bcb	-0.6837737
45	0xc0448f2b	-3.0712383
46	0xbf167cad	-0.5878399
47	0xbf85d001	-1.0454103
48	0xbfa7dbce	-1.3113954
49	0x3fe13dc5	1.7596976
50	0xc00ac34e	-2.1681705
51	0xbf662ea2	-0.89914906
52	0x40612b7e	3.5182796
53	0xbf579135	-0.84205943
54	0xbf673387	-0.90313
55	0x3f551821	0.8323994
56	0xbeb20520	-0.34769535
57	0x3d00dee0	0.03146255
58	0x3f227e2d	0.6347378
59	0xbf979dec	-1.1845069
60	0x3fb2913a	1.395057
61	0x40065667	2.0990236
62	0xc002e3d1	-2.0451548
63	0x3f0ef716	0.55845773
64	0xbf889998	-1.0671873
65	0xbf7a67de	-0.9781474
66	0xbe483c62	-0.19554284
67	0xbfb0e3c8	-1.3819513
68	0x3fcaf9fc	1.5857539
69	0xbf1ed73b	-0.62047166
70	0x402b41c1	2.6758883
71	0xc068b79d	-3.6362069
72	0xbf9e91c3	-1.2388233
73	0x3f54a669	0.8306642
74	0x402bc413	2.6838424
75	0x3fd7c8cc	1.6858153
76	0xbe9adf32	-0.3024841
77	0x3fbe549d	1.4869572
78	0x3ca73cae	0.020414677
79	0xbf9e11af	-1.2349147
