CompareCQR/Experiments/EXP1/model_bin/GPmodel_on_power.pth (torch, 763295 bytes, 10 tensors)

hidden_layer.variational_strategy.inducing_points f4 [10, 128, 4]
0.0035843349 0.20215245 -0.6831465 -1.4947238 -0.82608473 0.22370291 0.19871126 -0.28102154
-1.0562408 1.4027798 -0.24139875 -0.5389569 0.60029477 -2.0280507 -0.6272963 -1.3046528
0.77779526 0.5522693 0.04256886 -1.4549212 0.32160544 0.5800998 1.0570309 -0.5089359
-0.4094492 -0.5990137 -1.0800376 -0.13134256 -1.4581743 -1.6416689 -0.42662764 1.4635017
0.8703245 0.67286485 0.27395904 1.6325543 -0.1474043 -0.04982471 1.3435476 0.13382803
-0.024777967 0.5350797 -1.4359237 1.6940583 -0.9366152 -0.70186925 1.1962699 -0.59276617
0.74335456 0.47483042 -1.5852698 -1.6757296 -1.6347466 -1.3200877 0.3220668 -1.0998446
-0.45872286 0.19372214 0.56534183 -1.2124202 0.4812623 -0.23682725 0.090242304 0.510898
-1.8289169 0.63539743 -0.06498309 0.12012107 -0.3595098 -0.8148084 -0.27165717 1.2247359
-0.8807789 0.033758815 0.4220946 0.58295274 -0.20175228 -0.9407321 0.18864982 -0.62598854
-1.2996757 -0.7749608 -0.93674934 -0.21019913 -0.8442827 -0.015848638 -0.23348258 0.9073469
1.4749141 1.4456623 0.23661368 0.16138017 0.62141615 -0.2676349 0.8008893 -0.71682525
0.22228849 1.3657275 -0.21689817 -0.10864199 -0.1860886 1.6527146 -0.8735143 0.7879184
-0.9402995 -1.1354076 -1.0103178 -0.9377651 -1.1220443 -0.7832989 2.6011639 0.09917161
-0.63178766 0.97032374 -0.11695253 0.7517397 1.0335493 1.2890933 0.5225983 -0.2732792
1.0523939 0.4752924 0.09076329 -0.33738798 0.34899628 0.021388413 -0.4324577 0.5245754
-0.34530258 -0.5912969 0.6835772 0.027417008 0.38139084 0.23624645 -0.08142907 -0.36522946
0.69291043 0.727825 -0.16292217 0.1788918 0.18318129 -0.4755911 0.6269063 -0.06157703
1.1967187 0.937057 -0.4593292 -1.4593928 -1.0615671 0.93956864 0.39255458 0.2726002
0.70251656 1.1726037 -0.77304816 -0.70067304 -0.27892727 -0.70252526 -0.17835408 -1.4691479
0.20439483 0.83979195 -0.32051617 1.1542859 -0.26280442 0.77803886 0.15702748 -0.44654945
0.88887656 0.16785003 -0.9540048 0.22414643 -0.009192327 0.34007716 -0.025723312 0.29341918
0.26090336 -0.7574517 -1.2957792 -1.179637 -0.48484206 -0.83793724 1.1740543 -1.065254
-0.019840801 -0.32496938 -0.67672616 1.086457 0.48210436 0.8563303 0.9056179 0.030266771
-0.040591065 0.6116169 -1.111707 0.266231 -0.48978558 -1.0813677 0.4116705 0.65363955
0.6206076 0.937331 -1.0799545 0.80805206 0.547189 -0.47319257 -0.072290964 0.67590517
-0.45888674 -0.30177417 1.1447502 0.9967953 -0.040956203 -0.8837269 -0.43652716 0.16801523
-1.4500983 -0.79207605 0.16012128 0.11132184 -0.44044822 -0.24387516 0.40152252 0.39851883
-0.22954418 0.01845333 0.5120035 0.035700116 0.30800736 -0.011141358 -0.26559466 -0.5443339
0.7522943 -0.2557964 -0.063869104 0.10241037 -0.62279046 -0.5175162 0.14312238 -0.18679553
0.7167966 -0.3515494 -0.11308653 -0.44219235 -0.5342376 -0.8692655 -0.070895754 0.22446923
0.15944305 0.3158563 -0.5026809 0.23461454 0.7604522 1.3464727 -0.3545069 0.696872
00000000: 29e7 6a3b 0d01 4f3e b0e2 2ebf 1c53 bfbf
00000010: 4a7a 53bf 6012 653e f77a 4b3e 0ee2 8fbe
00000020: e632 87bf 4a8e b33f 3c31 77be 14f9 09bf
00000030: ebac 193f 95cb 01c0 7e96 20bf ddfe a6bf
00000040: 971d 473f 8561 0d3f af5c 2e3d dc3a babf
00000050: 78a9 a43e 6c81 143f ca4c 873f a049 02bf
00000060: 53a3 d1be f658 19bf ac3e 8abf aa7e 06be
00000070: 75a5 babf 3522 d2bf f06e dabe 0654 bb3f
00000080: 96cd 5e3f df40 2c3f 5c44 8c3e 8af7 d03f
00000090: 27f1 16be ff14 4cbd 5ef9 ab3f 370a 093e
000000a0: 2afb cabc fcfa 083f 59cc b7bf e7d6 d83f
000000b0: 04c6 6fbf b4ad 33bf 5f1f 993f 86bf 17bf
000000c0: 7c4c 3e3f f91c f33e 1fea cabf 4f7e d6bf
000000d0: 603f d1bf a2f8 a8bf f1e5 a43e b5c7 8cbf
000000e0: b9dd eabe 195f 463e 3eba 103f 9630 9bbf
000000f0: 0368 f63e d882 72be f5d0 b83d 36ca 023f
00000100: f319 eabf 68a9 223f db15 85bd 0902 f63d
00000110: ab11 b8be 4997 50bf a616 8bbe 25c4 9c3f
00000120: ba7a 61bf af46 0a3d c91c d83e 643c 153f
00000130: 2698 4ebe d2d3 70bf 6b2d 413e c940 20bf
00000140: c65b a6bf d563 46bf cece 6fbf 713e 57be
00000150: e922 58bf 01d5 81bc 0f16 6fbe e347 683f
00000160: fcc9 bc3f 760b b93f db4a 723e d840 253e
00000170: 2115 1f3f 7107 89be 1507 4d3f dc81 37bf
00000180: 989f 633e 29d0 ae3f 8e1a 5ebe b17f debd
00000190: 038e 3ebe 278c d33f a29e 5fbf 05b5 493f
000001a0: 78b7 70bf 0955 91bf 1852 81bf 6011 70bf
000001b0: 269f 8fbf 4786 48bf 7879 2640 7c1a cb3d
000001c0: d6bc 21bf 2367 783f cf84 efbd 0372 403f
000001d0: 584b 843f 0201 a53f 01c9 053f 40eb 8bbe
000001e0: d8b4 863f 8759 f33e 1be2 b93d 1ebe acbe
000001f0: a4af b23e c136 af3c 186b ddbe 934a 063f
00000200: 80cb b0be 3c5f 17bf eafe 2e3f a299 e03c
00000210: a945 c33e 97ea 713e 49c4 a6bd 5bff babe
00000220: 9462 313f bd52 3a3f 12d5 26be 692f 373e
00000230: e093 3b3e ad80 f3be ee7c 203f 3238 7cbd
00000240: 142e 993f f8e2 6f3f 322d ebbe 62cd babf
00000250: 6ee1 87bf 9287 703f eafc c83e 4192 8b3e
00000260: 20d8 333f e117 963f 7ce6 45bf 4f5f 33bf
00000270: 8ecf 8ebe b2d8 33bf 74a2 36be 0a0d bcbf
00000280: e14c 513e 9bfc 563f b21a a4be a4bf 933f
00000290: 4d8e 86be 8e2d 473f d0cb 203e 21a2 e4be
000002a0: 6a8d 633f e1e0 2b3e a939 74bf a486 653e
000002b0: 6a9b 16bc 981e ae3e b2b9 d2bc 0a3b 963e
000002c0: 2095 853e 5be8 41bf 18dc a5bf 58fe 96bf
000002d0: 383d f8be 0e83 56bf 6947 963f 3e5a 88bf
000002e0: 2d89 a2bc 6362 a6be ed3d 2dbf 0611 8b3f
000002f0: 62d6 f63e 7638 5b3f 93d6 673f 05f2 f73c
00000300: d142 26bd ed92 1c3f 6a4c 8ebf 6e4f 883e
00000310: 2dc5 fabe 426a 8abf 7ac6 d23e ec54 273f
00000320: 24e0 1e3f edf4 6f3f f33b 8abf 80dc 4e3f
00000330: 9414 0c3f 4c46 f2be 490d 94bd 1f08 2d3f
00000340: 34f3 eabe 2582 9abe 2d87 923f fa2d 7f3f
00000350: b1c1 27bd ed3b 62bf 7d80 dfbe 2f0c 2c3e
00000360: d29c b9bf 7fc5 4abf d5f6 233e b4fc e33d
00000370: 6e82 e1be 69ba 79be 5c94 cd3e a90a cc3e
00000380: a10d 6bbe 702b 973c a912 033f 493a 123d
00000390: 24b3 9d3e 3e8a 36bc 06fc 87be 7759 0bbf
000003a0: 5c96 403f bff7 82be cecd 82bd 87bc d13d
000003b0: 326f 1fbf f17b 04bf ac8e 123e 5447 3fbe
000003c0: fb7f 373f 48fe b3be e999 e7bd 0967 e2be
000003d0: ccc3 08bf 2f88 5ebf cb31 91bd 43db 653e
000003e0: 0a45 233e ebb7 a13e b2af 00bf cb3e 703e
000003f0: ffac 423f 3859 ac3f ee81 b5be 3466 323f

hidden_layer.variational_strategy._variational_distribution.variational_mean f4 [10, 128]
0.76782113 -0.30938667 -0.22875424 0.8471257 -0.037405904 -0.04122619 0.01511194 0.3516452
-0.21283552 0.18794662 0.27526602 -0.02684768 0.5239107 -0.36237475 -0.06488644 -0.030499455
-0.8454669 -0.30310237 -0.13007613 0.035127845 -0.18905716 -0.060387474 -0.29367295 -0.07490929
0.07104743 -0.13254929 0.0745584 0.65392905 0.027828513 -0.5034462 0.368602 0.38747853
-0.25461397 0.47620362 0.0064344346 -0.18672356 -0.001237656 0.36771196 -0.13645892 0.5478438
0.3515455 0.2078109 0.15133965 -0.09446579 0.16305208 -0.06207581 0.027859407 -0.22224429
-0.34112188 -0.24963573 0.2372124 -0.42368755 -0.025275584 -0.100537 -0.40425462 0.056941625
-0.028010145 0.7392955 0.15873124 -0.10117255 0.73325276 0.3147666 0.020029087 0.17139143
0.3032735 0.096735165 0.12169004 0.049446788 0.100265495 -0.6453284 0.4079559 0.11892721
-0.5901051 -0.21809757 0.5740033 0.2685915 -0.053363502 -0.16520593 -0.099129416 0.041652676
0.48730618 0.19751437 -0.14390793 -0.61992425 -0.14278354 -0.5493529 0.24772727 -0.55722
0.4234686 0.13007309 0.11722572 -0.56408376 -0.7525351 -0.3907704 0.056375522 -0.009749818
-0.06255511 0.08377853 0.0033001765 -0.6038277 0.06679181 -0.038474474 0.122670904 0.6137022
0.11174215 0.27038127 0.0020081669 -0.54815 0.1419163 -0.107795976 0.39708263 -0.022259446
0.036139123 -0.008384034 0.066610605 0.03969226 -0.06228841 0.19311851 0.2896538 0.046703175
0.04628527 1.3325896 0.591959 0.6103873 -0.09844321 0.059635416 -0.17230113 0.005978818
-0.2117777 0.4395895 -0.57503295 0.29934224 0.48547822 -0.1900441 -0.027681673 0.42962125
-0.2550624 -0.3498522 0.10690213 0.20561753 -0.5339579 -0.124019936 0.3213473 0.11042589
0.07903285 -0.07382989 0.7016415 0.038235985 0.16395739 -0.25467497 -0.36807123 0.1112167
-0.23763679 -0.30241862 0.15209225 -0.50863075 -0.49575454 0.01401971 -0.17505118 -0.2869224
0.02841346 0.19382049 0.09747813 0.26712844 0.02167682 0.069160216 -0.041918643 0.036573075
0.20876062 -0.09096876 0.006259626 0.10051395 -0.05760204 -0.05040056 -0.2831076 0.11147782
0.2212525 0.15294433 0.33506653 -0.0830788 -0.078149684 -0.25675276 -0.21832077 0.01925805
0.07382768 -0.124446794 -0.016357511 -0.2079793 -0.17065102 -0.10317929 0.15570004 0.09047692
0.111469835 -0.28174472 0.35666278 -0.19885692 0.057946295 0.17020074 0.07317975 -0.044679824
0.005321604 -0.085134946 -0.05862682 -0.10776747 -0.3736203 -0.019945655 -0.04043668 0.059357055
0.32379553 -0.048691276 0.08347597 -0.07174293 0.056367423 0.17447703 -0.24362382 -0.4663298
-0.03056674 -0.017277164 0.003921824 -0.3555124 -0.033673074 -0.06386917 0.046135277 0.03518928
-0.034569472 -0.14430904 -0.13608624 -0.039958935 0.11737636 -0.028530812 -0.026754465 0.0658411
-0.07059578 0.16470054 0.15846077 -0.056105115 -0.03841145 -0.16910349 0.004311094 0.017115528
-0.029074268 -0.073530056 0.050336253 -0.039281957 -0.026951738 -0.021556506 -0.029648846 0.017195348
-0.007320863 -0.009708413 -0.0058697728 0.028796086 0.17647842 0.05394239 -0.021702426 -0.021652108
00000000: ed8f 443f ee67 9ebe 8d3e 6abe 3bdd 583f
00000010: ef36 19bd cbdc 28bd 1298 773c d70a b43e
00000020: 8ef1 59be 1475 403e abef 8c3e aaef dbbc
00000030: 031f 063f 2f89 b9be 2fe3 84bd fed9 f9bc
00000040: 8570 58bf 3c30 9bbe ad32 05be 37e2 0f3d
00000050: 3398 41be db58 77bd 4d5c 96be 0b6a 99bd
00000060: 5181 913d 00bb 07be 13b2 983d e567 273f
00000070: 9ff8 e33c dae1 00bf 67b9 bc3e 9663 c63e
00000080: c35c 82be f6d0 f33e f3d7 d23b 7634 3fbe
00000090: d838 a2ba be44 bc3e e3bb 0bbe 7e3f 0c3f
000000a0: c6fd b33e 61cc 543e c8f8 1a3e 4877 c1bd
000000b0: 20f7 263e 3443 7ebd 6939 e43c 0294 63be
000000c0: 87a7 aebe 82a0 7fbe cfe7 723e 93ed d8be
000000d0: be0e cfbc 58e6 cdbd 76fa cebe 9f3b 693d
000000e0: 8875 e5bc 7842 3d3f 718a 223e 8e33 cfbd
000000f0: 74b6 3b3f 1629 a13e 0a14 a43c 3c81 2f3e
00000100: aa46 9b3e 161d c63d a138 f93d b788 4a3d
00000110: ff57 cd3d 3e34 25bf 99df d03e 1c90 f33d
00000120: 2111 17bf f854 5fbe e1f1 123f d384 893e
00000130: b093 5abd be2b 29be 5d04 cbbd ff9b 2a3d
00000140: 3280 f93e 3541 4a3e 9a5c 13be 5bb3 1ebf
00000150: d935 12be 64a2 0cbf 38ac 7d3e f8a5 0ebf
00000160: e0d0 d83e e131 053e 0a14 f03d cb67 10bf
00000170: 24a6 40bf 0f13 c8be 05ea 663d b3bd 1fbc
00000180: e51c 80bd 1494 ab3d c647 583b 7494 1abf
00000190: 25ca 883d 6997 1dbd e23a fb3d 961b 1d3f
000001a0: 11d9 e43d 6a6f 8a3e 739b 033b 8f53 0cbf
000001b0: 8252 113e 23c4 dcbd 6a4e cb3e 7159 b6bc
000001c0: 9e06 143d 305d 09bc 246b 883d 5a94 223d
000001d0: 2222 7fbd dcc0 453e 814d 943e d44b 3f3d
000001e0: a095 3d3d 4c92 aa3f a08a 173f 5842 1c3f
000001f0: 989c c9bd 4444 743d b56f 30be f6e9 c33b
00000200: 41dc 58be e011 e13e 5c35 13bf 6343 993e
00000210: 9a90 f83e ec9a 42be adc4 e2bc 51f7 db3e
00000220: 8a97 82be d41f b3be 81ef da3d 678d 523e
00000230: 77b1 08bf 2afe fdbd a287 a43e f826 e23d
00000240: fadb a13d 2034 97bd c79e 333f 569d 1c3d
00000250: 72e4 273e c264 82be d573 bcbe 95c5 e33d
00000260: 0f57 73be 9dd6 9abe 12be 1b3e a035 02bf
00000270: 8ad3 fdbe edb2 653c 9e40 33be 7ee7 92be
00000280: 58c3 e83c e178 463e 9da2 c73d 0fc5 883e
00000290: 9693 b13c dfa3 8d3d e2b2 2bbd a6cd 153d
000002a0: 58c5 553e d44d babd 8c1d cd3b 42da cd3d
000002b0: 1ef0 6bbd d170 4ebd 7bf3 90be 7c4e e43d
000002c0: 0490 623e 709d 1c3e d78d ab3e 3825 aabd
000002d0: f10c a0bd 1975 83be 7b8f 5fbe 0fc3 9d3c
000002e0: f732 973d f6dd febd 3000 86bc 87f8 54be
000002f0: 24bf 2ebe aa4f d3bd d56f 1f3e f74b b93d
00000300: 4c4a e43d d840 90be 819c b63e 26a1 4bbe
00000310: 1859 6d3d 1a49 2e3e 44df 953d 3102 37bd
00000320: da60 ae3b 3b5b aebd ad22 70bd 31b5 dcbd
00000330: 294b bfbe 1265 a3bc efa0 25bd 6220 733d
00000340: 87c8 a53e 8170 47bd 73f5 aa3d f5ed 92bd
00000350: 87e1 663d 1baa 323e 8678 79be c8c2 eebe
00000360: 1a67 fabc d788 8dbc a582 803b b905 b6be
00000370: c7ec 09bd d7cd 82bd 58f8 3c3d a222 103d
00000380: b898 0dbd c0c5 13be 315a 0bbe fbab 23bd
00000390: 0463 f03d 73b9 e9bc 2e2c dbbc b3d7 863d
000003a0: 8594 90bd 42a7 283e 8a43 223e 7ace 65bd
000003b0: 5355 1dbd 7729 2dbe 1444 8d3b dd35 8c3c
000003c0: 292d eebc ed96 96bd 632d 4e3d 1ee6 20bd
000003d0: e4c9 dcbc 4597 b0bc 23e2 f2bc 42dd 8c3c
000003e0: dae3 efbb 0910 1fbc 3957 c0bb c5e5 eb3c
000003f0: c2b6 343e b2f2 5c3d 49c9 b1bc c35f b1bc

hidden_layer.variational_strategy._variational_distribution.chol_variational_covar f4 [10, 128, 128]
0.09337053 0.0 0.0 0.0 0.0 0.0 0.0 0.0
0.0 0.0 0.0 0.0 0.0 0.0 0.0 0.0
0.0 0.0 0.0 0.0 0.0 0.0 0.0 0.0
0.0 0.0 0.0 0.0 0.0 0.0 0.0 0.0
0.0 0.0 0.0 0.0 0.0 0.0 0.0 0.0
0.0 0.0 0.0 0.0 0.0 0.0 0.0 0.0
0.0 0.0 0.0 0.0 0.0 0.0 0.0 0.0
0.0 0.0 0.0 0.0 0.0 0.0 0.0 0.0
0.0 0.0 0.0 0.0 0.0 0.0 0.0 0.0
0.0 0.0 0.0 0.0 0.0 0.0 0.0 0.0
0.0 0.0 0.0 0.0 0.0 0.0 0.0 0.0
0.0 0.0 0.0 0.0 0.0 0.0 0.0 0.0
0.0 0.0 0.0 0.0 0.0 0.0 0.0 0.0
0.0 0.0 0.0 0.0 0.0 0.0 0.0 0.0
0.0 0.0 0.0 0.0 0.0 0.0 0.0 0.0
0.0 0.0 0.0 0.0 0.0 0.0 0.0 0.0
-0.038647573 0.19694953 0.0 0.0 0.0 0.0 0.0 0.0
0.0 0.0 0.0 0.0 0.0 0.0 0.0 0.0
0.0 0.0 0.0 0.0 0.0 0.0 0.0 0.0
0.0 0.0 0.0 0.0 0.0 0.0 0.0 0.0
0.0 0.0 0.0 0.0 0.0 0.0 0.0 0.0
0.0 0.0 0.0 0.0 0.0 0.0 0.0 0.0
0.0 0.0 0.0 0.0 0.0 0.0 0.0 0.0
0.0 0.0 0.0 0.0 0.0 0.0 0.0 0.0
0.0 0.0 0.0 0.0 0.0 0.0 0.0 0.0
0.0 0.0 0.0 0.0 0.0 0.0 0.0 0.0
0.0 0.0 0.0 0.0 0.0 0.0 0.0 0.0
0.0 0.0 0.0 0.0 0.0 0.0 0.0 0.0
0.0 0.0 0.0 0.0 0.0 0.0 0.0 0.0
0.0 0.0 0.0 0.0 0.0 0.0 0.0 0.0
0.0 0.0 0.0 0.0 0.0 0.0 0.0 0.0
0.0 0.0 0.0 0.0 0.0 0.0 0.0 0.0
00000000: 0c39 bf3d 0000 0000 0000 0000 0000 0000
00000010: 0000 0000 0000 0000 0000 0000 0000 0000
00000020: 0000 0000 0000 0000 0000 0000 0000 0000
00000030: 0000 0000 0000 0000 0000 0000 0000 0000
00000040: 0000 0000 0000 0000 0000 0000 0000 0000
00000050: 0000 0000 0000 0000 0000 0000 0000 0000
00000060: 0000 0000 0000 0000 0000 0000 0000 0000
00000070: 0000 0000 0000 0000 0000 0000 0000 0000
00000080: 0000 0000 0000 0000 0000 0000 0000 0000
00000090: 0000 0000 0000 0000 0000 0000 0000 0000
000000a0: 0000 0000 0000 0000 0000 0000 0000 0000
000000b0: 0000 0000 0000 0000 0000 0000 0000 0000
000000c0: 0000 0000 0000 0000 0000 0000 0000 0000
000000d0: 0000 0000 0000 0000 0000 0000 0000 0000
000000e0: 0000 0000 0000 0000 0000 0000 0000 0000
000000f0: 0000 0000 0000 0000 0000 0000 0000 0000
00000100: 0000 0000 0000 0000 0000 0000 0000 0000
00000110: 0000 0000 0000 0000 0000 0000 0000 0000
00000120: 0000 0000 0000 0000 0000 0000 0000 0000
00000130: 0000 0000 0000 0000 0000 0000 0000 0000
00000140: 0000 0000 0000 0000 0000 0000 0000 0000
00000150: 0000 0000 0000 0000 0000 0000 0000 0000
00000160: 0000 0000 0000 0000 0000 0000 0000 0000
00000170: 0000 0000 0000 0000 0000 0000 0000 0000
00000180: 0000 0000 0000 0000 0000 0000 0000 0000
00000190: 0000 0000 0000 0000 0000 0000 0000 0000
000001a0: 0000 0000 0000 0000 0000 0000 0000 0000
000001b0: 0000 0000 0000 0000 0000 0000 0000 0000
000001c0: 0000 0000 0000 0000 0000 0000 0000 0000
000001d0: 0000 0000 0000 0000 0000 0000 0000 0000
000001e0: 0000 0000 0000 0000 0000 0000 0000 0000
000001f0: 0000 0000 0000 0000 0000 0000 0000 0000
00000200: eb4c 1ebd 23ad 493e 0000 0000 0000 0000
00000210: 0000 0000 0000 0000 0000 0000 0000 0000
00000220: 0000 0000 0000 0000 0000 0000 0000 0000
00000230: 0000 0000 0000 0000 0000 0000 0000 0000
00000240: 0000 0000 0000 0000 0000 0000 0000 0000
00000250: 0000 0000 0000 0000 0000 0000 0000 0000
00000260: 0000 0000 0000 0000 0000 0000 0000 0000
00000270: 0000 0000 0000 0000 0000 0000 0000 0000
00000280: 0000 0000 0000 0000 0000 0000 0000 0000
00000290: 0000 0000 0000 0000 0000 0000 0000 0000
000002a0: 0000 0000 0000 0000 0000 0000 0000 0000
000002b0: 0000 0000 0000 0000 0000 0000 0000 0000
000002c0: 0000 0000 0000 0000 0000 0000 0000 0000
000002d0: 0000 0000 0000 0000 0000 0000 0000 0000
000002e0: 0000 0000 0000 0000 0000 0000 0000 0000
000002f0: 0000 0000 0000 0000 0000 0000 0000 0000
00000300: 0000 0000 0000 0000 0000 0000 0000 0000
00000310: 0000 0000 0000 0000 0000 0000 0000 0000
00000320: 0000 0000 0000 0000 0000 0000 0000 0000
00000330: 0000 0000 0000 0000 0000 0000 0000 0000
00000340: 0000 0000 0000 0000 0000 0000 0000 0000
00000350: 0000 0000 0000 0000 0000 0000 0000 0000
00000360: 0000 0000 0000 0000 0000 0000 0000 0000
00000370: 0000 0000 0000 0000 0000 0000 0000 0000
00000380: 0000 0000 0000 0000 0000 0000 0000 0000
00000390: 0000 0000 0000 0000 0000 0000 0000 0000
000003a0: 0000 0000 0000 0000 0000 0000 0000 0000
000003b0: 0000 0000 0000 0000 0000 0000 0000 0000
000003c0: 0000 0000 0000 0000 0000 0000 0000 0000
000003d0: 0000 0000 0000 0000 0000 0000 0000 0000
000003e0: 0000 0000 0000 0000 0000 0000 0000 0000
000003f0: 0000 0000 0000 0000 0000 0000 0000 0000

hidden_layer.mean_module.weights f4 [4, 1]
-0.05487093 0.028305104 -0.008656659 -0.0049839453
00000000: 57c0 60bd 1be0 e73c a9d4 0dbc 5d50 a3bb

hidden_layer.covar_module.raw_outputscale f4 [10]
-2.9905581 -3.2684171 -3.2176416 -2.51609 -3.06283 -3.1123774 -3.420086 -2.4006405
-2.3990266 -3.305979
00000000: 4e65 3fc0 bf2d 51c0 d7ed 4dc0 9e07 21c0
00000010: 6805 44c0 3131 47c0 b0e2 5ac0 18a4 19c0
00000020: a789 19c0 2995 53c0

hidden_layer.covar_module.base_kernel.raw_lengthscale f4 [10, 1, 4]
2.1601508 2.1407049 2.2648456 2.7649596 2.3509128 2.5661047 2.5285783 2.604698
2.2942154 2.3844774 2.49298 2.6411858 1.92368 1.642882 1.3116283 2.8006086
2.3623862 2.2932122 2.6864262 2.6701198 2.1503718 1.5690296 2.2393994 2.4349592
2.2040396 2.4673383 2.5546486 2.5224047 1.2957675 1.8328764 3.8342593 3.1659858
2.4790807 2.10025 2.5043492 2.8686488 2.3258607 2.5196154 2.6074533 2.6004944
00000000: e93f 0a40 4f01 0940 3bf3 1040 19f5 3040
00000010: 5b75 1640 0f3b 2440 3ad4 2140 5fb3 2640
00000020: 6dd4 1240 479b 1840 fc8c 1f40 3009 2940
00000030: 253b f63f f549 d23f 70e3 a73f 2c3d 3340
00000040: 5631 1740 fdc3 1240 68ee 2b40 3ee3 2a40
00000050: b19f 0940 f6d5 c83f 5252 0f40 5fd6 1b40
00000060: fc0e 0d40 dfe8 1d40 5d7f 2340 146f 2140
00000070: b6db a53f b29b ea3f 8164 7540 839f 4a40
00000080: 42a9 1e40 7f6a 0640 4247 2040 f197 3740
00000090: e7da 1440 6141 2140 84e0 2640 806e 2640

last_layer.variational_strategy.inducing_points f4 [128, 10]
-1.3373102 1.4078659 2.0458233 -0.6974626 1.2393152 1.5383312 1.5219247 -1.1303939
1.6089036 -0.8480965 -1.4136711 -0.39208004 -1.634841 0.8568957 -1.2206975 -1.7051603
0.9015557 -1.6225542 0.085243955 0.32675332 -1.2474192 0.16438161 -1.3804305 -1.4493101
-0.6416025 -1.3581121 -0.31983402 0.12338413 -1.5092627 1.913901 -1.2353193 -0.93789923
2.0813406 -0.8855577 0.8363294 -1.0686128 0.7326726 -2.6108518 0.7769508 -0.7872621
-0.13550463 1.3770782 1.9348958 -0.5071428 -1.2580091 -0.985781 2.1603734 -0.8049564
-1.1170442 1.4028034 0.69308335 1.5580016 1.5968411 0.7965248 1.4782271 1.0959125
1.3761039 -0.5869147 2.6394734 1.427145 -1.0072426 -0.96580976 2.4580617 -1.050652
1.0441839 -1.4100144 1.0649116 -3.316484 0.7523021 -0.98322475 -0.8054502 1.3292714
1.02863 1.422806 -1.3121114 -1.7308803 0.90750825 -0.9277566 0.5964968 -0.25097066
1.1703465 0.9758453 -1.4532641 1.2762305 1.1048318 -0.93193096 -2.3544424 -0.74379194
1.1515739 -0.5441125 -1.2040092 1.4319018 0.32384673 1.3143958 -1.1229936 -0.85727155
0.99219114 -0.31457838 -1.1615661 1.6457602 -0.06227301 -2.0213559 0.5857926 1.4109744
-1.3961114 1.5640471 -1.2676849 1.6098794 -1.0813643 -1.2226515 -1.271574 -1.09237
1.8148543 0.88693035 -0.5114854 -1.1432906 -1.5165019 0.7654829 -0.79361427 -0.6375574
0.5878528 -0.7937663 -1.4541696 -1.1889248 0.17842267 -0.6388889 -2.1069505 -0.7756608
0.8626516 -1.1397163 -1.5438439 1.8471724 1.7024407 0.5866596 -0.35368833 -0.7220377
0.52928966 1.9044538 1.1129639 1.3255763 -1.2290334 -1.652031 0.57738394 -1.0383594
1.0618073 1.9481822 0.79299134 -0.7554593 1.1345404 -1.1953697 1.469646 1.4437895
-1.7148223 -1.0225186 1.9946235 1.3762522 1.0906168 1.7258635 1.6265363 -0.94916064
1.617506 -0.93500286 -0.6890594 2.5998123 -0.66669333 -0.6431556 -0.8042357 -0.5035765
-0.14239621 1.7880253 -0.5554045 -1.6987683 -1.027349 -1.1388408 -0.87480116 -0.33096296
-0.7507344 -1.6491781 -0.42002434 0.4972207 -0.31898513 -0.18874222 -0.81714106 -0.83116853
-1.1623961 -1.2063484 -1.1328987 -0.86148363 -1.2423354 -0.4988393 -1.2466549 -2.0495586
-0.53796124 -1.171495 -0.21912211 -0.83900267 -0.813584 2.4950492 0.122668356 -0.06892218
1.2920438 -0.66807246 -1.4744104 1.7481248 -1.5115671 -0.042816635 1.3229758 0.3247199
-1.4074807 0.50431144 3.0108528 1.327712 -0.177068 1.5755209 -1.2100502 0.95028716
-0.42906663 -0.05110548 -0.7425721 -0.57478553 -1.3272663 -0.18682478 2.034993 -1.1692549
0.71946573 -0.5455086 -0.6440829 0.4444708 1.111541 1.76828 -1.3357823 0.7611849
0.45604685 0.5611884 -2.388402 0.50169396 -0.28169557 0.754612 0.30587995 0.029465577
-0.14715588 -0.5365037 -0.7944837 0.31292695 -2.0260868 1.012589 0.12959021 1.0316406
1.1907499 -0.91749775 -0.75299656 -0.67958367 -0.47897014 -0.8266634 -0.747545 2.0912626
00000000: fb2c abbf f334 b43f c5ee 0240 e98c 32bf
00000010: e1a1 9e3f 09e8 c43f 6ece c23f bfb0 90bf
00000020: 8ef0 cd3f da1c 59bf 2df3 b4bf b7be c8be
00000030: 7842 d1bf 845d 5b3f d13f 9cbf b142 dabf
00000040: 5bcc 663f dbaf cfbf 6294 ae3d 364c a73e
00000050: 6fab 9fbf a753 283e f2b1 b0bf fe82 b9bf
00000060: 1040 24bf 9ed6 adbf 49c1 a3be d2b0 fc3d
00000070: 852f c1bf b5fa f43f f11e 9ebf 2a1a 70bf
00000080: af34 0540 e9b3 62bf af19 563f 4ec8 88bf
00000090: 6e90 3b3f 3218 27c0 3fe6 463f 028a 49bf
000000a0: bac1 0abe 1944 b03f aaaa f73f 1cd4 01bf
000000b0: 7106 a1bf 255c 7cbf 8f43 0a40 9f11 4ebf
000000c0: 4efb 8ebf 108f b33f e96d 313f 996c c73f
000000d0: 4a65 cc3f 0de9 4b3f 8c36 bd3f dc46 8c3f
000000e0: 2c24 b03f 0b40 16bf 22ed 2840 b0ac b63f
000000f0: 53ed 80bf 4f3f 77bf e250 1d40 c47b 86bf
00000100: d1a7 853f 5a7b b4bf 064f 883f 4641 54c0
00000110: df96 403f 9eb4 7bbf fc31 4ebf 9125 aa3f
00000120: 26aa 833f 821e b63f 44f3 a7bf 7c8d ddbf
00000130: 7652 683f 7581 6dbf 04b4 183f 3a7f 80be
00000140: eacd 953f ffd0 793f 8f04 babf 855b a33f
00000150: 216b 8d3f 0793 6ebf 2faf 16c0 2669 3ebf
00000160: c666 933f f54a 0bbf f91c 9abf 8f48 b73f
00000170: 3dcf a53e 1f3e a83f 41be 8fbf 2676 5bbf
00000180: 3d00 7e3f 6b10 a1be 33ae 94bf 45a8 d23f
00000190: fc11 7fbd e55d 01c0 81f6 153f cf9a b43f
000001a0: c7b3 b2bf b232 c83f 8043 a2bf 8710 ce3f
000001b0: 256a 8abf d87f 9cbf f0c2 a2bf c8d2 8bbf
000001c0: 254d e83f de0d 633f b5f0 02bf 5957 92bf
000001d0: bc1c c2bf b0f6 433f 4e2a 4bbf f636 23bf
000001e0: 857d 163f 4534 4bbf 3b22 babf b02e 98bf
000001f0: 6fb4 363e 398e 23bf 47d8 06c0 b591 46bf
00000200: bcd6 5c3f 39e2 91bf ad9c c5bf 2570 ec3f
00000210: 94e9 d93f 532f 163f a316 b5be 76d7 38bf
00000220: 877f 073f 24c5 f33f 9a75 8e3f 7cac a93f
00000230: f750 9dbf c075 d3bf 6fcf 133f f6e8 84bf
00000240: 4de9 873f 095e f93f 7b01 4b3f c865 41bf
00000250: 9f38 913f e001 99bf 5c1d bc3f 18ce b83f
00000260: 4c7f dbbf e4e1 82bf d34f ff3f 0829 b03f
00000270: 5599 8b3f 18e9 dc3f 5732 d03f 31fc 72bf
00000280: 700a cf3f 595c 6fbf 3266 30bf 5363 2640
00000290: 6aac 2abf d8a5 24bf 64e2 4dbf 64ea 00bf
000002a0: 50d0 11be 03de e43f fd2e 0ebf 3d71 d9bf
000002b0: 2c80 83bf 89c5 91bf f8f2 5fbf fa73 a9be
000002c0: 2130 40bf 4518 d3bf 6e0d d7be b693 fe3e
000002d0: 0552 a3be a445 41be 2830 51bf 76c7 54bf
000002e0: 65c9 94bf a069 9abf d302 91bf 318a 5cbf
000002f0: d904 9fbf dd67 ffbe 6392 9fbf f82b 03c0
00000300: d4b7 09bf 8cf3 95bf 8c61 60be e1c8 56bf
00000310: 0b47 50bf e3ae 1f40 8c39 fb3d 1227 8dbd
00000320: b161 a53f cc06 2bbf 7bb9 bcbf 8ec2 df3f
00000330: 087b c1bf 7f60 2fbd 4557 a93f b041 a63e
00000340: 5428 b4bf 8e1a 013f d0b1 4040 78f2 a93f
00000350: 5051 35be abaa c93f ede2 9abf 0546 733f
00000360: 9fae dbbe fb53 51bd 3519 3ebf 2525 13bf
00000370: dde3 a9bf ff4e 3fbe 533d 0240 25aa 95bf
00000380: e82e 383f 74a6 0bbf 9ee2 24bf ad91 e33e
00000390: fa46 8e3f 0057 e23f eafa aabf 03dd 423f
000003a0: f97e e93e 0baa 0f3f 94db 18c0 046f 003f
000003b0: 673a 90be 412e 413f 4c9c 9c3e cb61 f13c
000003c0: 08b0 16be 4e58 09bf 4963 4bbf f637 a03e
000003d0: 68ab 01c0 849c 813f 4cb3 043e cd0c 843f
000003e0: 7e6a 983f 22e1 6abf 62c4 40bf 32f9 2dbf
000003f0: 933b f5be 36a0 53bf 1c5f 3fbf 3fd7 0540

last_layer.variational_strategy._variational_distribution.variational_mean f4 [128]
11.436187 11.474621 11.538888 11.379367 11.483987 11.496377 -12.666489 11.368801
11.453746 11.494723 11.404533 11.497991 11.406746 11.487171 11.542872 11.420632
11.63413 11.505998 11.554615 11.579619 11.592106 11.740435 11.480955 11.714425
11.739902 11.680339 11.513931 11.642732 11.588442 11.486212 11.6055565 11.454406
11.498155 11.523347 11.607871 -13.792913 11.508634 11.533915 -13.156105 11.527593
11.592389 11.537104 11.468594 11.5880375 11.492601 11.514184 11.503906 11.867158
13.440774 11.497648 11.489292 11.800286 11.474668 12.054972 11.440695 11.653751
11.527049 11.535179 11.612404 -12.718638 11.567969 11.981534 11.729823 -12.513984
-13.034735 11.493331 12.081117 11.460087 11.658968 11.464877 11.361508 11.295012
11.688685 12.87979 12.018129 11.955831 11.624738 11.507318 11.611791 -13.099135
11.77272 11.52729 11.652337 -12.744881 11.614161 11.92138 11.726727 11.602529
11.642077 -12.978588 11.941373 11.584143 11.607453 11.46615 11.640206 11.759775
11.45595 12.264251 11.786694 -12.709698 11.814085 11.361601 12.862315 11.195494
11.617389 11.733326 11.509897 11.405311 -13.162347 11.251194 13.462913 11.103979
11.851682 10.950556 11.207635 11.717909 11.799918 13.401045 11.728127 11.340699
12.657601 12.932102 12.065923 12.446181 12.137584 -12.865885 -13.695815 12.106671
00000000: 9ffa 3641 0c98 3741 499f 3841 e311 3641
00000010: 69be 3741 29f1 3741 f0a9 4ac1 9ce6 3541
00000020: 8b42 3741 63ea 3741 f878 3641 c5f7 3741
00000030: 0882 3641 74cb 3741 9baf 3841 e9ba 3641
00000040: 6525 3a41 9118 3841 b4df 3841 1f46 3941
00000050: 4479 3941 d2d8 3b41 feb1 3741 496e 3b41
00000060: a3d6 3b41 abe2 3a41 1039 3841 a148 3a41
00000070: 426a 3941 86c7 3741 5cb0 3941 3f45 3741
00000080: 71f8 3741 a15f 3841 d7b9 3941 c6af 5cc1
00000090: 5d23 3841 ea8a 3841 687f 52c1 0571 3841
000000a0: 6d7a 3941 fa97 3841 5c7f 3741 9a68 3941
000000b0: b2e1 3741 193a 3841 0010 3841 e1df 3d41
000000c0: 690d 5741 5ef6 3741 24d4 3741 f9cd 3c41
000000d0: 3d98 3741 2ae1 4041 160d 3741 c475 3a41
000000e0: cb6e 3841 1890 3841 68cc 3941 8b7f 4bc1
000000f0: 6716 3941 5db4 3f41 5bad 3b41 4739 48c1
00000100: 468e 50c1 afe4 3741 414c 4141 845c 3741
00000110: 228b 3a41 2370 3741 bdc8 3541 5fb8 3441
00000120: db04 3b41 9f13 4e41 424a 4041 154b 3f41
00000130: edfe 3941 f91d 3841 e5c9 3941 0f96 51c1
00000140: 105d 3c41 c86f 3841 f96f 3a41 08eb 4bc1
00000150: 9ad3 3941 f9bd 3e41 aca0 3b41 f5a3 3941
00000160: f345 3a41 4ca8 4fc1 dd0f 3f41 a658 3941
00000170: 21b8 3941 5a75 3741 493e 3a41 0a28 3c41
00000180: 924b 3741 5f3a 4441 4c96 3c41 ec5a 4bc1
00000190: 7e06 3d41 1ec9 3541 0bcc 4d41 be20 3341
000001a0: d3e0 3941 b4bb 3b41 8a28 3841 277c 3641
000001b0: f998 52c1 e404 3441 1768 5741 e6a9 3141
000001c0: 7da0 3d41 7a35 2f41 7952 3341 8e7c 3b41
000001d0: 77cc 3c41 ae6a 5641 68a6 3b41 8173 3541
000001e0: 8985 4a41 e4e9 4e41 050e 4141 8f23 4741
000001f0: 8b33 4241 aada 4dc1 0f22 5bc1 edb4 4141

last_layer.variational_strategy._variational_distribution.chol_variational_covar f4 [128, 128]
0.7258342 0.0 0.0 0.0 0.0 0.0 0.0 0.0
0.0 0.0 0.0 0.0 0.0 0.0 0.0 0.0
0.0 0.0 0.0 0.0 0.0 0.0 0.0 0.0
0.0 0.0 0.0 0.0 0.0 0.0 0.0 0.0
0.0 0.0 0.0 0.0 0.0 0.0 0.0 0.0
0.0 0.0 0.0 0.0 0.0 0.0 0.0 0.0
0.0 0.0 0.0 0.0 0.0 0.0 0.0 0.0
0.0 0.0 0.0 0.0 0.0 0.0 0.0 0.0
0.0 0.0 0.0 0.0 0.0 0.0 0.0 0.0
0.0 0.0 0.0 0.0 0.0 0.0 0.0 0.0
0.0 0.0 0.0 0.0 0.0 0.0 0.0 0.0
0.0 0.0 0.0 0.0 0.0 0.0 0.0 0.0
0.0 0.0 0.0 0.0 0.0 0.0 0.0 0.0
0.0 0.0 0.0 0.0 0.0 0.0 0.0 0.0
0.0 0.0 0.0 0.0 0.0 0.0 0.0 0.0
0.0 0.0 0.0 0.0 0.0 0.0 0.0 0.0
0.0020582255 0.7270318 0.0 0.0 0.0 0.0 0.0 0.0
0.0 0.0 0.0 0.0 0.0 0.0 0.0 0.0
0.0 0.0 0.0 0.0 0.0 0.0 0.0 0.0
0.0 0.0 0.0 0.0 0.0 0.0 0.0 0.0
0.0 0.0 0.0 0.0 0.0 0.0 0.0 0.0
0.0 0.0 0.0 0.0 0.0 0.0 0.0 0.0
0.0 0.0 0.0 0.0 0.0 0.0 0.0 0.0
0.0 0.0 0.0 0.0 0.0 0.0 0.0 0.0
0.0 0.0 0.0 0.0 0.0 0.0 0.0 0.0
0.0 0.0 0.0 0.0 0.0 0.0 0.0 0.0
0.0 0.0 0.0 0.0 0.0 0.0 0.0 0.0
0.0 0.0 0.0 0.0 0.0 0.0 0.0 0.0
0.0 0.0 0.0 0.0 0.0 0.0 0.0 0.0
0.0 0.0 0.0 0.0 0.0 0.0 0.0 0.0
0.0 0.0 0.0 0.0 0.0 0.0 0.0 0.0
0.0 0.0 0.0 0.0 0.0 0.0 0.0 0.0
00000000: 45d0 393f 0000 0000 0000 0000 0000 0000
00000010: 0000 0000 0000 0000 0000 0000 0000 0000
00000020: 0000 0000 0000 0000 0000 0000 0000 0000
00000030: 0000 0000 0000 0000 0000 0000 0000 0000
00000040: 0000 0000 0000 0000 0000 0000 0000 0000
00000050: 0000 0000 0000 0000 0000 0000 0000 0000
00000060: 0000 0000 0000 0000 0000 0000 0000 0000
00000070: 0000 0000 0000 0000 0000 0000 0000 0000
00000080: 0000 0000 0000 0000 0000 0000 0000 0000
00000090: 0000 0000 0000 0000 0000 0000 0000 0000
000000a0: 0000 0000 0000 0000 0000 0000 0000 0000
000000b0: 0000 0000 0000 0000 0000 0000 0000 0000
000000c0: 0000 0000 0000 0000 0000 0000 0000 0000
000000d0: 0000 0000 0000 0000 0000 0000 0000 0000
000000e0: 0000 0000 0000 0000 0000 0000 0000 0000
000000f0: 0000 0000 0000 0000 0000 0000 0000 0000
00000100: 0000 0000 0000 0000 0000 0000 0000 0000
00000110: 0000 0000 0000 0000 0000 0000 0000 0000
00000120: 0000 0000 0000 0000 0000 0000 0000 0000
00000130: 0000 0000 0000 0000 0000 0000 0000 0000
00000140: 0000 0000 0000 0000 0000 0000 0000 0000
00000150: 0000 0000 0000 0000 0000 0000 0000 0000
00000160: 0000 0000 0000 0000 0000 0000 0000 0000
00000170: 0000 0000 0000 0000 0000 0000 0000 0000
00000180: 0000 0000 0000 0000 0000 0000 0000 0000
00000190: 0000 0000 0000 0000 0000 0000 0000 0000
000001a0: 0000 0000 0000 0000 0000 0000 0000 0000
000001b0: 0000 0000 0000 0000 0000 0000 0000 0000
000001c0: 0000 0000 0000 0000 0000 0000 0000 0000
000001d0: 0000 0000 0000 0000 0000 0000 0000 0000
000001e0: 0000 0000 0000 0000 0000 0000 0000 0000
000001f0: 0000 0000 0000 0000 0000 0000 0000 0000
00000200: 4be3 063b c21e 3a3f 0000 0000 0000 0000
00000210: 0000 0000 0000 0000 0000 0000 0000 0000
00000220: 0000 0000 0000 0000 0000 0000 0000 0000
00000230: 0000 0000 0000 0000 0000 0000 0000 0000
00000240: 0000 0000 0000 0000 0000 0000 0000 0000
00000250: 0000 0000 0000 0000 0000 0000 0000 0000
00000260: 0000 0000 0000 0000 0000 0000 0000 0000
00000270: 0000 0000 0000 0000 0000 0000 0000 0000
00000280: 0000 0000 0000 0000 0000 0000 0000 0000
00000290: 0000 0000 0000 0000 0000 0000 0000 0000
000002a0: 0000 0000 0000 0000 0000 0000 0000 0000
000002b0: 0000 0000 0000 0000 0000 0000 0000 0000
000002c0: 0000 0000 0000 0000 0000 0000 0000 0000
000002d0: 0000 0000 0000 0000 0000 0000 0000 0000
000002e0: 0000 0000 0000 0000 0000 0000 0000 0000
000002f0: 0000 0000 0000 0000 0000 0000 0000 0000
00000300: 0000 0000 0000 0000 0000 0000 0000 0000
00000310: 0000 0000 0000 0000 0000 0000 0000 0000
00000320: 0000 0000 0000 0000 0000 0000 0000 0000
00000330: 0000 0000 0000 0000 0000 0000 0000 0000
00000340: 0000 0000 0000 0000 0000 0000 0000 0000
00000350: 0000 0000 0000 0000 0000 0000 0000 0000
00000360: 0000 0000 0000 0000 0000 0000 0000 0000
00000370: 0000 0000 0000 0000 0000 0000 0000 0000
00000380: 0000 0000 0000 0000 0000 0000 0000 0000
00000390: 0000 0000 0000 0000 0000 0000 0000 0000
000003a0: 0000 0000 0000 0000 0000 0000 0000 0000
000003b0: 0000 0000 0000 0000 0000 0000 0000 0000
000003c0: 0000 0000 0000 0000 0000 0000 0000 0000
000003d0: 0000 0000 0000 0000 0000 0000 0000 0000
000003e0: 0000 0000 0000 0000 0000 0000 0000 0000
000003f0: 0000 0000 0000 0000 0000 0000 0000 0000

last_layer.covar_module.base_kernel.raw_lengthscale f4 [1, 10]
1.8614441 1.7026391 1.6348903 2.0375516 1.6783683 1.6836145 1.8402768 3.2059662
1.932124 1.7222048
00000000: cd43 ee3f 14f0 d93f 1644 d13f 3f67 0240
00000010: c6d4 d63f ae80 d73f 318e eb3f 8d2e 4d40
00000020: d74f f73f 3571 dc3f
