CompareCQR/Experiments/EXP1/model_bin/GPmodel_on_kin8nm.pth (torch, 783997 bytes, 10 tensors)

hidden_layer.variational_strategy.inducing_points f4 [10, 128, 8]
00000000: aa21 24bb 1676 adba 57f0 25bb 1018 e539
00000010: c706 4639 d92d 2cb6 7c9e e7ba 3a53 d239
00000020: 5f2a 10b9 327a 45b9 46e1 a339 db44 75b9
00000030: 817b e3b9 0b83 6e39 1048 4b39 022c b838
00000040: 1a19 8bb9 6163 5fb9 9f70 7339 20e7 2ab9
00000050: 6b1b e4b9 5a3b 8839 188c f738 6ad0 e338
00000060: bc53 81b9 a456 76b9 34f7 8739 8ff6 68b9
00000070: 6d66 f8b9 8a24 9139 1223 0438 7c52 2439
00000080: 933a 3eb9 7652 75b9 f1cc 9139 ec3c 9bb9
00000090: c1c0 ebb9 f2f3 7339 c775 1139 3f22 ca38
000000a0: 8b6d 5ab8 fe3e e1b8 f4e9 6839 0610 b3b9
000000b0: 5815 d9b9 5cab 5a39 2635 1739 de70 c438
000000c0: 60e7 a2b8 5ea0 2cb8 c385 8039 603b a8b9
000000d0: a62d ddb9 8fe6 5e39 f372 0538 e05c c238
000000e0: 233f 85b8 dc31 e6b7 796f 8e39 1528 99b9
000000f0: fd70 d2b9 31d4 6139 5b8c c838 058a ba39
00000100: 3244 8cb8 fa1f 15b9 6e4c 6f39 a530 76b9
00000110: e61a cfb9 086c 5139 65e5 fe38 b667 3f39
00000120: 0108 57b8 27c2 9537 a03d 2b39 05c4 5fb9
00000130: 9d7b b5b9 2ddc 8f39 0237 5fb8 e18f 9939
00000140: 2593 28b8 adea 9f34 f75d 0639 aaa4 20b9
00000150: 2392 9fb9 5258 8039 0953 3738 56d3 3939
00000160: daca 21b7 30d5 87b8 2d6d 4639 a91e 13b9
00000170: 8777 a9b9 6045 b039 a1fa 9bb7 da4c 0f39
00000180: db80 c4b7 b491 52b9 680f 1b39 12e2 18b9
00000190: 1439 91b9 e6b3 f238 24c7 4639 53e7 b838
000001a0: 0dca 14b9 b92d 0a39 0da7 8739 81f9 c9b8
000001b0: d350 51b9 52fe 7639 5613 a6b8 0e82 f037
000001c0: 2c41 03b8 29b1 adb7 dfc4 3939 1747 2eb9
000001d0: 3060 9bb9 108c 2239 fea2 9c37 9da7 e838
000001e0: 2732 e2b8 6e32 c438 c73e c539 f052 90b8
000001f0: dbce 9db8 ae0e f138 7f46 9cb8 21ec c237
00000200: 01f7 bcb8 87eb 8639 bd55 8b39 1fc0 00b5
00000210: 9d74 4d38 d049 b8b8 5979 2b38 8301 c9b8
00000220: cdd4 6ab8 60ec 0439 2b52 1e39 c8b1 74b7
00000230: 2eda 52b9 4fd6 8d39 a3b0 c137 ed29 ad36
00000240: 99b8 45b9 ab8e 5b39 351c 8739 c7ab edb7
00000250: 3ce2 7cb8 2399 9238 54e8 d3b8 fadf 7bb7
00000260: 7eda 9cb8 214b 1a39 60a0 4939 e8e0 ffb7
00000270: 632e 3bb9 1f81 a439 eb73 07b7 d68a d9b5
00000280: fc30 7eb9 a5c2 8938 c552 a4b7 38eb 3eb8
00000290: 0cf3 e0b7 74b0 1339 93d1 3a39 9151 7c36
000002a0: 92c5 5fb8 44bc 7239 e804 9b39 2f29 3bb6
000002b0: d27f bfb8 e292 23b9 c7f7 0f39 cb9d bbb8
000002c0: 2dd2 d437 0fc3 cc39 bb2a 2d38 c144 4ab9
000002d0: 816e ae36 5d7e 4a37 61fe 5cb9 c818 e0b7
000002e0: 1c7c 9ab9 feaa c139 06c5 9ab8 9292 7db8
000002f0: c027 7b38 c3e7 1fba 0e49 d037 6b61 0bb8
00000300: bc75 f9b9 6931 3d39 3289 fc39 5a37 a638
00000310: 8ba5 dcb5 b6db d437 c3b5 173a 4c20 9eb9
00000320: 1c34 8eb7 f3b3 41b8 f024 1c39 b940 35b8
00000330: 73d8 40b9 64c6 3a39 6227 f238 05c2 a3b6
00000340: 370c 85b9 2ab9 a838 e42e aab7 0d15 8eb7
00000350: ed46 15b8 bb9f ef38 1f40 5339 9f14 5fb8
00000360: d5c7 96b9 ab66 053a e87d e039 04f7 6939
00000370: d6f1 103a e69d 8eb9 21db 8c39 5075 9cb9
00000380: c1cf 373a df76 913a 09cd 7cb9 38b6 603b
00000390: e6ea d13a b88d c1ba 371d 683b 4abb 2bbb
000003a0: 7e60 3739 c860 ef39 3cae ffb8 7b23 19b8
000003b0: f26d 5e39 b288 09b9 248f 7f38 e132 a8b9
000003c0: 94a9 2ab9 e283 7239 684d a138 7816 2938
000003d0: e3d1 d338 178b 6839 0373 eb36 acb7 06b9
000003e0: dbf2 89b9 885c 5639 8987 3239 b238 d1b6
000003f0: 72d9 e038 cf85 8b38 9558 8039 4021 68b8
-0.002504448 -0.0013234045 -0.0025320256 0.00043696212 0.00018885276 -2.5656684e-06 -0.0017671133 0.0004011633
-0.00013748695 -0.00018832905 0.00031257625 -0.00023390671 -0.00043388832 0.00022746266 0.00019386434 8.782001e-05
-0.00026530848 -0.00021303959 0.0002321624 -0.00016298564 -0.00043507977 0.00025984162 0.00011803972 0.000108630236
-0.00024667184 -0.00023492664 0.00025933387 -0.00022217094 -0.0004737856 0.0002768378 3.1503914e-05 0.00015670987
-0.00018141633 -0.0002339574 0.00027809248 -0.00029609294 -0.00044966306 0.00023265163 0.00013872153 9.6384894e-05
-5.207727e-05 -0.00010740569 0.00022212398 -0.0003415348 -0.00041405368 0.00020853936 0.00014420282 9.3670315e-05
-7.767859e-05 -4.115735e-05 0.00024513723 -0.00032087695 -0.00042186416 0.0002125746 3.1816726e-05 9.26794e-05
-6.353694e-05 -2.7441354e-05 0.00027167404 -0.00029212298 -0.00040138504 0.0002153672 9.5628864e-05 0.00035579517
-6.6884226e-05 -0.0001422166 0.00022821288 -0.0002347851 -0.00039502158 0.00019972038 0.00012154392 0.00018253815
-5.126745e-05 1.7852593e-05 0.00016330788 -0.0002133996 -0.0003461511 0.0002743913 -5.3218573e-05 0.00029289632
-4.019136e-05 2.9786807e-07 0.0001281424 -0.00015320131 -0.00030435724 0.00024479866 4.3707932e-05 0.00017721704
-9.643578e-06 -6.477011e-05 0.00018923423 -0.00014030434 -0.00032323247 0.00033621024 -1.8594148e-05 0.00013666172
-2.3425024e-05 -0.0002008144 0.00014787691 -0.00014580067 -0.00027699082 0.00011572968 0.00018956937 8.816891e-05
-0.0001418965 0.00013177739 0.0002587367 -9.6309006e-05 -0.00019961903 0.0002355513 -7.9190984e-05 2.8670791e-05
-3.129353e-05 -2.0705704e-05 0.00017716315 -0.00016620416 -0.0002963557 0.00015501701 1.8672548e-05 0.000110938425
-0.000107858614 9.3554016e-05 0.0003762154 -6.8819034e-05 -7.524873e-05 0.0001149451 -7.4517906e-05 2.3236558e-05
-9.010547e-05 0.00025733953 0.00026576026 -4.796329e-07 4.8984413e-05 -8.787552e-05 4.088259e-05 -9.5847085e-05
-5.5988134e-05 0.00012676558 0.00015098664 -1.4584926e-05 -0.00020108439 0.00027053288 2.3089646e-05 5.1606826e-06
-0.00018856152 0.00020938615 0.00025770222 -2.8332592e-05 -6.029218e-05 6.9903464e-05 -0.000101045385 -1.5012914e-05
-7.479357e-05 0.00014714572 0.00019228598 -3.0503099e-05 -0.0001785099 0.0003137672 -8.073616e-06 -1.6208166e-06
-0.00024241576 6.5689244e-05 -1.9588866e-05 -4.5518595e-05 -2.6816058e-05 0.00014084746 0.00017816415 3.7598404e-06
-5.3351345e-05 0.00023149053 0.0002956756 -2.7889143e-06 -9.131398e-05 -0.0001559961 0.00013729847 -8.946246e-05
2.537024e-05 0.00039055242 4.128621e-05 -0.00019289834 5.1984684e-06 1.20695595e-05 -0.00021075598 -2.671442e-05
-0.00029465638 0.00036939228 -7.379991e-05 -6.0456405e-05 5.9880083e-05 -0.0006099904 2.4829551e-05 -3.323091e-05
-0.000475807 0.00018042851 0.00048167404 7.925807e-05 -1.6439457e-06 2.537468e-05 0.00057872775 -0.0003016017
-1.6951984e-05 -4.6182377e-05 0.0001489108 -4.321404e-05 -0.0001839118 0.00017812249 0.00011546795 -4.8803654e-06
-0.00025376838 8.045354e-05 -2.0287414e-05 -1.6937522e-05 -3.5590423e-05 0.0001142616 0.00020146415 -5.3186548e-05
-0.00028759116 0.0005088846 0.00042818417 0.00022312632 0.00055292004 -0.00027201994 0.00026866145 -0.00029842043
0.0007011854 0.0011098048 -0.00024108974 0.0034288298 0.001601544 -0.0014766967 0.0035417804 -0.0026204162
0.00017488186 0.0004565774 -0.00012191801 -3.6511086e-05 0.00021212528 -0.00013116261 6.0930048e-05 -0.00032081365
-0.00016275636 0.00023128049 7.691496e-05 4.0313666e-05 0.000101003585 0.00022177059 7.016935e-06 -0.00012847659
-0.00026311618 0.00020443101 0.00017025894 -6.2352856e-06 0.00010721655 6.65296e-05 0.0002448006 -5.5344077e-05

hidden_layer.variational_strategy._variational_distribution.variational_mean f4 [10, 128]
00000000: 578f e43c 77ae 4a3a cf6e 483a 1632 283a
00000010: e0d7 4039 8e7c c438 2b17 5638 0e00 02b9
00000020: ad8e c0b9 3857 23ba e54e 4aba 577c 34ba
00000030: 7653 16ba 7d09 63ba d438 fab9 73bc 84ba
00000040: deeb 9cba 47af 55ba c7fb 73ba d14e 3dba
00000050: eb3e 37ba aab8 8bba 9e0e 2eba 6dec 8fba
00000060: 7592 90ba 2fd9 eab9 8685 17ba c497 97ba
00000070: 09ae c6ba 8950 95ba 2515 22ba c9dd 09ba
00000080: 3b33 0aba 3ce6 a9b9 cc84 6abb aa40 a5b9
00000090: c741 d6b9 088a 15ba 9ed4 f2b9 e289 17ba
000000a0: c50d 68b9 eac5 81ba a4a5 90ba 90f5 ebb9
000000b0: 4f45 31b9 04a1 d2b9 83b7 1fba d939 58ba
000000c0: 81a2 74bb f55e 093c 7d35 7cba b9c0 ce37
000000d0: 598a 543b c2db 7f39 a3db 9bba 7608 1dba
000000e0: e06c 3ebb f760 d5b9 175a b839 ac71 92bc
000000f0: 9f1e b2b9 2e28 9eb9 533a b5b9 ef31 0d39
00000100: 4a0f 4ab9 e0b3 b7b9 9dd1 4d3b 10cd 67b8
00000110: dc23 a43b 5919 543a 7d02 9bb9 37c5 2038
00000120: ad57 97ba cacf 48b9 eb9e d837 4186 bebb
00000130: 061e 10ba 2d97 a0b9 fd3f 30ba 40d9 9c3b
00000140: 0e49 c83a 9aca 17ba 562c bdb9 e06f fcb8
00000150: bd7f b5b9 7d7d f5b9 7156 00bb 074e aab8
00000160: ae43 8bb7 06c9 8cba 886c e1b8 c145 15bb
00000170: 1601 30ba 323d 7aba e4ab c6ba 9258 b23a
00000180: b400 67b9 92f8 873a 8b3f c0b9 f70a 9c3a
00000190: 578b 1cba ee8b 23b9 5b4f 803a 2991 e0b9
000001a0: 9682 3639 9e87 7d3a 3331 2ebb 61c8 d1b9
000001b0: 66e3 1839 4533 aeb9 b4e2 0fba 5dd4 8f3a
000001c0: 49ee 623c 677c c1b8 6fc2 70bc fba1 ad3a
000001d0: 0406 97b8 292b 1ab9 be71 9db9 c777 0eb9
000001e0: d509 efb8 fdef e2b9 e32d 4639 288c d2b8
000001f0: 27fb 5cb9 7837 49ba 17f4 08b9 3a2d aab9
00000200: e32f 7b3b fe0b a93a 9f36 6d3a ed1f 1c3a
00000210: 7681 a739 db62 9f39 708c b939 7635 ad39
00000220: aecc 8d39 4825 8239 36ed 9739 af20 6839
00000230: 9ccb 7b39 0e5a 2b38 d9e2 5c39 2952 9e38
00000240: f7d0 d537 efa9 f438 6ffb 2339 f74f f938
00000250: 2d61 5938 7c3e 6438 098d 3bb8 a311 f3b8
00000260: 4862 a4b8 a962 45b8 e4df dc38 7b22 1638
00000270: 3664 7f38 a17d e338 2901 a1b8 c9cd 29b9
00000280: d8be efb8 74f3 1fb9 b991 86b8 09fe 7a38
00000290: 1b5c 1a38 9851 38b9 5586 0638 4036 46b9
000002a0: 4610 57b9 a92b 9cb6 5fbd 53b8 ec16 e5b7
000002b0: 0f5e 47b9 f887 0836 d1b5 4eb9 952f dcb8
000002c0: 5067 9eb8 7239 8438 78f5 61b9 0c3b 3cb9
000002d0: b370 04b9 88b8 36b9 0236 3db9 b164 6eb9
000002e0: 960b e3b8 04d6 1fb9 75b1 2fb9 6d0d 38b9
000002f0: de77 21b9 8be4 65b9 6d21 08b7 07a5 d5b9
00000300: dfe6 89b9 76a3 94b8 669b 13b9 d0f4 2eb9
00000310: 6cc9 02b9 2ec8 d5b9 b0b4 92b8 dcd5 01b9
00000320: 30da 90b9 4518 0bba 225d c4b6 10ac cbba
00000330: 9b42 a337 2893 dcb9 9097 66b8 2983 d837
00000340: f50c 35b9 68d1 2637 cb27 98b8 f28c 37b9
00000350: 673f 9bba e4ba b5b8 455d 2238 4689 38b9
00000360: 9238 4038 a957 17b8 e622 2cb9 4a76 e83a
00000370: d593 b4ba 3048 ce37 80f9 0bbc 7a09 7fb8
00000380: b036 09b9 ff48 9eb8 9da5 84b9 a27f c6b8
00000390: 9016 feb7 6df6 79b7 a5a5 2fbb 66c7 a5b8
000003a0: edc5 9cb9 a757 eb3a 67c3 50b8 4ce8 bbb8
000003b0: f286 a1b8 d5c4 9fb8 bb00 553b 2615 08b9
000003c0: d47e 13b9 861a c0b8 6331 4aba c62e bcb8
000003d0: a1c9 333b 94a7 53b8 6393 46b9 c44f c93b
000003e0: 1803 433a c9a8 fdb8 13a8 2db8 0a12 ddb7
000003f0: f988 023b 2888 b9b8 51af 39b8 f8cd 06b8
0.027900381 0.0007731686 0.00076459063 0.0006416155 0.00018390967 9.3692084e-05 5.1043153e-05 -0.00012397786
-0.00036727395 -0.0006230953 -0.00077174447 -0.0006884983 -0.00057344825 -0.00086607767 -0.00047726056 -0.0010126963
-0.0011972149 -0.00081514235 -0.0009307232 -0.00072215224 -0.00069902715 -0.0010659893 -0.00066397514 -0.0010980495
-0.0011029976 -0.00044793772 -0.00057800894 -0.0011565615 -0.0015158068 -0.0011391799 -0.00061829604 -0.0005259184
-0.0005271916 -0.0003240573 -0.003578472 -0.0003151943 -0.0004086627 -0.0005704467 -0.0004631625 -0.0005780739
-0.00022130374 -0.0009900902 -0.0011035693 -0.0004500565 -0.00016905855 -0.00040174287 -0.0006092714 -0.0008248366
-0.0037328305 0.008384456 -0.00096210075 2.4646857e-05 0.0032431094 0.00024400561 -0.0011891018 -0.00059903355
-0.0029056594 -0.0004069877 0.00035162337 -0.017876469 -0.0003397362 -0.00030166045 -0.00034566465 0.0001346541
-0.00019269917 -0.00035038497 0.0031405457 -5.526567e-05 0.0050091576 0.00080909353 -0.00029565758 3.8330643e-05
-0.0011546515 -0.00019150894 2.5823208e-05 -0.005814344 -0.0005497638 -0.00030630213 -0.0006723402 0.0047866404
0.0015280561 -0.0005790383 -0.00036081922 -0.00012037135 -0.00034618183 -0.00046823538 -0.0019582773 -8.1207654e-05
-1.6601607e-05 -0.0010741062 -0.000107490516 -0.0022777172 -0.0006714029 -0.0009545862 -0.0015157429 0.0013606718
-0.00022030139 0.0010373762 -0.00036668437 0.0011905123 -0.0005971691 -0.00015597019 0.0009789275 -0.00042832762
0.0001740552 0.00096713926 -0.0026579618 -0.0004001288 0.00014580562 -0.00033226065 -0.00054887985 0.0010973323
0.013850757 -9.226129e-05 -0.014694794 0.0013247126 -7.2013616e-05 -0.00014702663 -0.00030030118 -0.00013586796
-0.000113982394 -0.00043284884 0.00018899846 -0.000100396865 -0.00021074396 -0.0007675807 -0.00013060901 -0.00032458623
0.0038328103 0.0012897251 0.00090489717 0.0005955685 0.00031949178 0.00030400496 0.00035390584 0.00033036963
0.00027046114 0.0002482331 0.000289777 0.0002213742 0.00024013076 4.0853447e-05 0.00021065342 7.5493306e-05
2.5488886e-05 0.00011666479 0.00015638558 0.0001188814 5.1827334e-05 5.441763e-05 -4.4715624e-05 -0.00011590428
-7.838436e-05 -4.7060345e-05 0.0001053212 3.57949e-05 6.0890066e-05 0.00010847604 -7.677294e-05 -0.00016193757
-0.000114319555 -0.00015254115 -6.416761e-05 5.9841233e-05 3.680224e-05 -0.00017578003 3.2073196e-05 -0.00018902961
-0.0002051006 -4.654245e-06 -5.0482686e-05 -2.7309601e-05 -0.00019013158 2.0344723e-06 -0.00019713423 -0.0001049928
-7.5532706e-05 6.3049505e-05 -0.00021549116 -0.00017951074 -0.00012630485 -0.00017425616 -0.00018044564 -0.00022734959
-0.000108263615 -0.00015243149 -0.00016755408 -0.00017552609 -0.0001539881 -0.00021924281 -8.114014e-06 -0.0004074948
-0.0002630269 -7.087637e-05 -0.00014076903 -0.00016685133 -0.00012472802 -0.0004077567 -6.995478e-05 -0.00012382068
-0.00027628383 -0.00053060456 -5.8520973e-06 -0.001553895 1.946213e-05 -0.0004207131 -5.4977427e-05 2.5810283e-05
-0.00017266332 9.943127e-06 -7.255337e-05 -0.00017504746 -0.0011844457 -8.665564e-05 3.8710674e-05 -0.00017598746
4.5829052e-05 -3.6082845e-05 -0.00016416199 0.0017735448 -0.0013776968 2.4590729e-05 -0.008543372 -6.0805563e-05
-0.00013085711 -7.547624e-05 -0.00025300393 -9.465149e-05 -3.0289666e-05 -1.4898932e-05 -0.0026801613 -7.904954e-05
-0.00029902105 0.00179552 -4.9773047e-05 -8.9601235e-05 -7.702214e-05 -7.618374e-05 0.0032501656 -0.00012977849
-0.0001406626 -9.160214e-05 -0.00077130477 -8.973251e-05 0.0027433413 -5.046239e-05 -0.00018937657 0.006143542
0.00074391207 -0.00012095419 -4.1402945e-05 -2.6353653e-05 0.0019918068 -8.8468485e-05 -4.4270713e-05 -3.2139913e-05

hidden_layer.variational_strategy._variational_distribution.chol_variational_covar f4 [10, 128, 128]
00000000: d823 463f 0000 0000 0000 0000 0000 0000
00000010: 0000 0000 0000 0000 0000 0000 0000 0000
00000020: 0000 0000 0000 0000 0000 0000 0000 0000
00000030: 0000 0000 0000 0000 0000 0000 0000 0000
00000040: 0000 0000 0000 0000 0000 0000 0000 0000
00000050: 0000 0000 0000 0000 0000 0000 0000 0000
00000060: 0000 0000 0000 0000 0000 0000 0000 0000
00000070: 0000 0000 0000 0000 0000 0000 0000 0000
00000080: 0000 0000 0000 0000 0000 0000 0000 0000
00000090: 0000 0000 0000 0000 0000 0000 0000 0000
000000a0: 0000 0000 0000 0000 0000 0000 0000 0000
000000b0: 0000 0000 0000 0000 0000 0000 0000 0000
000000c0: 0000 0000 0000 0000 0000 0000 0000 0000
000000d0: 0000 0000 0000 0000 0000 0000 0000 0000
000000e0: 0000 0000 0000 0000 0000 0000 0000 0000
000000f0: 0000 0000 0000 0000 0000 0000 0000 0000
00000100: 0000 0000 0000 0000 0000 0000 0000 0000
00000110: 0000 0000 0000 0000 0000 0000 0000 0000
00000120: 0000 0000 0000 0000 0000 0000 0000 0000
00000130: 0000 0000 0000 0000 0000 0000 0000 0000
00000140: 0000 0000 0000 0000 0000 0000 0000 0000
00000150: 0000 0000 0000 0000 0000 0000 0000 0000
00000160: 0000 0000 0000 0000 0000 0000 0000 0000
00000170: 0000 0000 0000 0000 0000 0000 0000 0000
00000180: 0000 0000 0000 0000 0000 0000 0000 0000
00000190: 0000 0000 0000 0000 0000 0000 0000 0000
000001a0: 0000 0000 0000 0000 0000 0000 0000 0000
000001b0: 0000 0000 0000 0000 0000 0000 0000 0000
000001c0: 0000 0000 0000 0000 0000 0000 0000 0000
000001d0: 0000 0000 0000 0000 0000 0000 0000 0000
000001e0: 0000 0000 0000 0000 0000 0000 0000 0000
000001f0: 0000 0000 0000 0000 0000 0000 0000 0000
00000200: bf93 8eb8 a47d 463f 0000 0000 0000 0000
00000210: 0000 0000 0000 0000 0000 0000 0000 0000
00000220: 0000 0000 0000 0000 0000 0000 0000 0000
00000230: 0000 0000 0000 0000 0000 0000 0000 0000
00000240: 0000 0000 0000 0000 0000 0000 0000 0000
00000250: 0000 0000 0000 0000 0000 0000 0000 0000
00000260: 0000 0000 0000 0000 0000 0000 0000 0000
00000270: 0000 0000 0000 0000 0000 0000 0000 0000
00000280: 0000 0000 0000 0000 0000 0000 0000 0000
00000290: 0000 0000 0000 0000 0000 0000 0000 0000
000002a0: 0000 0000 0000 0000 0000 0000 0000 0000
000002b0: 0000 0000 0000 0000 0000 0000 0000 0000
000002c0: 0000 0000 0000 0000 0000 0000 0000 0000
000002d0: 0000 0000 0000 0000 0000 0000 0000 0000
000002e0: 0000 0000 0000 0000 0000 0000 0000 0000
000002f0: 0000 0000 0000 0000 0000 0000 0000 0000
00000300: 0000 0000 0000 0000 0000 0000 0000 0000
00000310: 0000 0000 0000 0000 0000 0000 0000 0000
00000320: 0000 0000 0000 0000 0000 0000 0000 0000
00000330: 0000 0000 0000 0000 0000 0000 0000 0000
00000340: 0000 0000 0000 0000 0000 0000 0000 0000
00000350: 0000 0000 0000 0000 0000 0000 0000 0000
00000360: 0000 0000 0000 0000 0000 0000 0000 0000
00000370: 0000 0000 0000 0000 0000 0000 0000 0000
00000380: 0000 0000 0000 0000 0000 0000 0000 0000
00000390: 0000 0000 0000 0000 0000 0000 0000 0000
000003a0: 0000 0000 0000 0000 0000 0000 0000 0000
000003b0: 0000 0000 0000 0000 0000 0000 0000 0000
000003c0: 0000 0000 0000 0000 0000 0000 0000 0000
000003d0: 0000 0000 0000 0000 0000 0000 0000 0000
000003e0: 0000 0000 0000 0000 0000 0000 0000 0000
000003f0: 0000 0000 0000 0000 0000 0000 0000 0000
0.77398443 0.0 0.0 0.0 0.0 0.0 0.0 0.0
0.0 0.0 0.0 0.0 0.0 0.0 0.0 0.0
0.0 0.0 0.0 0.0 0.0 0.0 0.0 0.0
0.0 0.0 0.0 0.0 0.0 0.0 0.0 0.0
0.0 0.0 0.0 0.0 0.0 0.0 0.0 0.0
0.0 0.0 0.0 0.0 0.0 0.0 0.0 0.0
0.0 0.0 0.0 0.0 0.0 0.0 0.0 0.0
0.0 0.0 0.0 0.0 0.0 0.0 0.0 0.0
0.0 0.0 0.0 0.0 0.0 0.0 0.0 0.0
0.0 0.0 0.0 0.0 0.0 0.0 0.0 0.0
0.0 0.0 0.0 0.0 0.0 0.0 0.0 0.0
0.0 0.0 0.0 0.0 0.0 0.0 0.0 0.0
0.0 0.0 0.0 0.0 0.0 0.0 0.0 0.0
0.0 0.0 0.0 0.0 0.0 0.0 0.0 0.0
0.0 0.0 0.0 0.0 0.0 0.0 0.0 0.0
0.0 0.0 0.0 0.0 0.0 0.0 0.0 0.0
-6.7986075e-05 0.7753546 0.0 0.0 0.0 0.0 0.0 0.0
0.0 0.0 0.0 0.0 0.0 0.0 0.0 0.0
0.0 0.0 0.0 0.0 0.0 0.0 0.0 0.0
0.0 0.0 0.0 0.0 0.0 0.0 0.0 0.0
0.0 0.0 0.0 0.0 0.0 0.0 0.0 0.0
0.0 0.0 0.0 0.0 0.0 0.0 0.0 0.0
0.0 0.0 0.0 0.0 0.0 0.0 0.0 0.0
0.0 0.0 0.0 0.0 0.0 0.0 0.0 0.0
0.0 0.0 0.0 0.0 0.0 0.0 0.0 0.0
0.0 0.0 0.0 0.0 0.0 0.0 0.0 0.0
0.0 0.0 0.0 0.0 0.0 0.0 0.0 0.0
0.0 0.0 0.0 0.0 0.0 0.0 0.0 0.0
0.0 0.0 0.0 0.0 0.0 0.0 0.0 0.0
0.0 0.0 0.0 0.0 0.0 0.0 0.0 0.0
0.0 0.0 0.0 0.0 0.0 0.0 0.0 0.0
0.0 0.0 0.0 0.0 0.0 0.0 0.0 0.0

hidden_layer.mean_module.weights f4 [8, 1]
00000000: f06a ab3d af4d 073e 74a2 dcbe 0574 36be
00000010: 401c 8fbd 5311 37be 34aa 4abe a1df f73d
0.08370006 0.13213228 -0.43092692 -0.17817695 -0.0698781 -0.17877702 -0.1979149 0.12103201

hidden_layer.covar_module.raw_outputscale f4 [10]
00000000: 5b25 b8c0 6cb1 bac0 473e e9be 50ac 73bf
00000010: 0d47 bdc0 c227 b9c0 2e88 b8c0 13cb b7c0
00000020: f9e0 1fc0 68ce b5c0
-5.75456 -5.834158 -0.45555326 -0.95184803 -5.914923 -5.7861032 -5.7666235 -5.7435393
-2.4981062 -5.681446

hidden_layer.covar_module.base_kernel.raw_lengthscale f4 [10, 1, 8]
00000000: b34c 5539 1535 953a bf1b fc3a 6978 92ba
00000010: 8d20 adba 289d 4d39 2993 eaba ddc1 24ba
00000020: 1997 0e39 d327 a2b8 b4fd 8b39 e32d 3f39
00000030: ae51 9238 424d ee37 cfe2 1eba b363 3f39
00000040: f616 0841 7aae 0f41 6dd5 c240 7ee4 5140
00000050: 12d9 cd3f 384f b93f 8754 b83f 45dc ef3f
00000060: 7193 a440 0912 c440 0986 2440 2d75 8340
00000070: 4ea6 6c40 4b5c 8840 5034 9340 db5e aa40
00000080: b1a8 aaba b46a 2cba 0e01 843a 07e2 65bb
00000090: 12e1 43bb 664a 26bb 8031 99bb 29e3 4dbb
000000a0: 8a6f bbba e463 023b 2806 59ba 6aac 48bb
000000b0: c618 0ebb 1241 dfba 4cb4 26bb ad0d 1abb
000000c0: ffb6 8039 eb3b 9f38 56fb 2e3a 11dd 2638
000000d0: 53be 9d38 dfc7 203a 831c b1b9 64d2 9b39
000000e0: be25 09bb a3fb 34bb ae25 8b3a ab47 9bbb
000000f0: 7bc0 7abb 2319 87bb 7f4b 9abb d83c 83bb
00000100: 11cb b73f 7b1c 8e3f ffb9 3940 2c84 cc40
00000110: abfa ad40 ae6c ae40 4ca1 af40 1353 c840
00000120: 42d1 9fba 5688 d6b8 c628 743a 3481 47bb
00000130: 8b37 19bb cfc5 fbb9 6a9e 4cbb b1ad 4abb
0.00020341836 0.0011383618 0.0019234343 -0.0011174801 -0.0013208553 0.00019608869 -0.001789664 -0.00062849914
0.00013598464 -7.73218e-05 0.0002670117 0.00018232274 6.9770365e-05 2.8407787e-05 -0.0006061019 0.0001825232
8.505606 8.980097 6.088553 3.279571 1.608187 1.4477301 1.4400796 1.8739096
5.142998 6.1272016 2.5706809 4.1080537 3.6976504 4.261266 4.600136 5.324079
-0.0013020245 -0.00065771793 0.0010071115 -0.003507735 -0.002988879 -0.0025373935 -0.0046750903 -0.0031415916
-0.0014300209 0.0019895965 -0.00082788104 -0.0030620345 -0.0021682247 -0.0017032942 -0.0025437055 -0.0023506687
0.00024550405 7.5928714e-05 0.0006675025 3.978337e-05 7.521794e-05 0.0006133299 -0.00033781314 0.00029720657
-0.0020927037 -0.0027615807 0.0010616088 -0.004738768 -0.00382617 -0.0041228696 -0.004708707 -0.004005056
1.4358846 1.1102442 2.9019773 6.3911343 5.436849 5.4507666 5.4884396 6.260141
-0.0012193101 -0.0001022971 0.0009313937 -0.0030442001 -0.0023379053 -0.0004802183 -0.0031222352 -0.0030926282

last_layer.variational_strategy.inducing_points f4 [128, 10]
00000000: c399 36bf 7ad5 6fbf 5538 9dba 27ef c0be
00000010: e65f 0abf b7b5 01bf c7e7 0abf 2764 ebbe
00000020: b714 9dbe 8317 0cbf 4719 363e f8f6 0fbe
00000030: ffe8 e3be c5c1 3d3f 5003 93be defd 313d
00000040: 8db8 88bd d0ac b3bc 1475 84be 2f88 eabe
00000050: 9d81 da3e cba0 363f 23fd aa3e 220c bdbe
00000060: 3201 4b3f 3de9 863e 8cbc ea3e 3a57 783f
00000070: 432d 6dbd 23a0 5c3f f711 8fbe 5614 8e3f
00000080: a393 4d3e d1a9 403f 71f7 30bf 8077 323f
00000090: ab33 31be 78f7 c73b 14e3 00bf b64d 4e3f
000000a0: 351f 8c3e 1e84 453e bcca 863e a016 bdbe
000000b0: ba06 933e bfea 293f 6aec ab3f a946 0d3f
000000c0: 5e34 e6bd ef0f 533f 71da 50bf 5d44 9e3e
000000d0: 7ced 803d d42c ddbe e5ca 8abf dd21 6abe
000000e0: 2078 58be 4df2 8bbf c242 bdbe 79c4 c1be
000000f0: d5ec 38bb 2548 273e 65c6 8abe dc77 2abc
00000100: b2cb c03f d680 833f 15a1 af3e 36bd 36bf
00000110: b07f 51be 4943 5dbe 0cff 4d3f 1090 4b3f
00000120: 156a 303f 09fc 7e3f bcac 4b3f e6ea 4c3f
00000130: fea5 4c3f 1533 4c3f 73ed 963f aaf3 473f
00000140: ca7c f5be b625 86be 9f79 7b3b a5b0 b3be
00000150: 1055 34be d8d2 a3bf 4460 5bbf f70b 20bf
00000160: 1c73 9bbe bb22 13bf 6322 af3d 2193 9d3e
00000170: 936b 953d e044 c6bf 101d 9f3c ed83 7d3e
00000180: 2227 403e e879 c03e fb96 eb3d 92f8 fcbe
00000190: 915d e2be f5bc b1be 1aad b4bf c17a 463f
000001a0: 3aa4 aabe 24a5 a6be cb6d d7be 439e cbbe
000001b0: 363b 043f 5528 8ebe e7b6 9f3f 518a 64bf
000001c0: 7520 ecbc 7936 6cbf 986f 533f 836f ebbd
000001d0: 3420 783e db28 c23d 6711 cb3e 50d8 0f3e
000001e0: 8f5e ecbe 4889 ed3d 6899 cebe 9042 523f
000001f0: e172 453c e44b 3cbf 470b 063f 2b9c b7bd
00000200: e6f6 14bf 573d 70be e912 15bf 7ed3 16bf
00000210: 8c2e 0bbf e6c5 863e caa2 1abf 9857 1abf
00000220: a6c6 1abf 452e 0cbf aa38 a1bf c4cc 13bf
00000230: 51b0 67be 3aa7 d3bd d3f9 d03f 4c5f 37be
00000240: f030 18bc 2afa 02bf e2f0 94bd 947b aabd
00000250: c64b 5bbf c677 cbbe 3760 09be 1659 babe
00000260: 1d45 c93f 11b3 01bd f529 c4be df21 893e
00000270: 8022 cdbe e7b1 71be 57a8 50bf 8aca 383d
00000280: 384f 5d3f 18cd 853f 5c5e 543e ee82 e3be
00000290: 76b4 be3e 6072 b63e f9f3 0a3f 6201 8cbe
000002a0: 7ab0 a5be 489e d93e 8402 1f3e 66b2 483e
000002b0: 3527 983e 083e e73e c6e4 083f 4e73 7b3e
000002c0: 4911 98be 01e1 403e fdee 99bf 531c d6bd
000002d0: 49de b4bc c1a2 bf3e 99b0 e4bd c26b afbe
000002e0: 97f0 5a3d 036b 41be ffee 9d3e e617 323d
000002f0: 40c9 d03f 84c3 e5be 7820 57bd c2c1 babe
00000300: 657e ea3c da94 353f f74b ed3c 0ce4 fbbe
00000310: 9f9c c1be 5e70 69be 9987 c2be 9445 243f
00000320: 3e1b 1ebf 1938 2abf b841 a6bf 109f 4fbf
00000330: e614 25bf 6d12 22bf 323e 2bbf 941f 29bf
00000340: 2192 003f c4ee 2fbf 0e68 453f baaa 7ebe
00000350: a5b5 c6be f3c7 fdbd 66fe 873e fc76 c93d
00000360: e9bf e63e f356 513f 2445 6abf 90fb efbd
00000370: cb5c 963e 20e7 a53e 439f fb3e 9736 d2be
00000380: fdfd 653e 3bd5 7c3f 9edf 6dbe 8d38 6a3e
00000390: 0816 573f ffdf 883f a2b2 c6be 4882 83bc
000003a0: cdf4 153f b2b3 003f 7c2e 76bd d2b9 103e
000003b0: bc13 36bf 2291 48bf 5a03 373e 12ef 16bf
000003c0: 4585 04bf 4fa0 b1be 455c 4cbc 7900 2b3f
000003d0: 845c 26bd 4f84 333e 83d1 15be a95d 933e
000003e0: 9735 c8be 4724 043c 3936 a2be 51f3 a03d
000003f0: 5416 0cbf ff56 afbe 37f8 ca3d 9400 ea3d
-0.7132837 -0.93685114 -0.0011994938 -0.3768246 -0.5405258 -0.506679 -0.54259914 -0.45974848
-0.30679867 -0.54723376 0.1778308 -0.14059055 -0.445137 0.74123794 -0.28713465 0.043454997
-0.06675825 -0.02193299 -0.25870574 -0.45807025 0.42677012 0.713391 0.33396253 -0.3692332
0.792987 0.26349822 0.45846975 0.970081 -0.057904493 0.8618185 -0.27943394 1.1099956
0.2007585 0.7525912 -0.69127566 0.6971359 -0.17304866 0.0061024986 -0.50346494 0.8058733
0.2736756 0.1928868 0.2632655 -0.36931324 0.2871607 0.6637382 1.3431523 0.55185944
-0.11240457 0.8244619 -0.81583315 0.30911532 0.062952965 -0.43198264 -1.0843168 -0.2286448
-0.21139574 -1.0933319 -0.36964995 -0.3784521 -0.0028217335 0.16336115 -0.27104488 -0.010404553
1.5062163 1.0273693 0.34302583 -0.7138246 -0.20458865 -0.21607699 0.80467296 0.79516697
0.6891187 0.99603325 0.79560447 0.80045927 0.79940784 0.79765445 1.1791214 0.78106177
-0.4794677 -0.26200646 0.0038372052 -0.35095707 -0.17610574 -1.279872 -0.85693765 -0.62518257
-0.3036126 -0.5747487 0.085514806 0.30776313 0.07295909 -1.5489769 0.019423038 0.24757357
0.18764928 0.37593007 0.115034066 -0.49408394 -0.4421201 -0.34714475 -1.4115326 0.7753106
-0.3332842 -0.32547867 -0.42075953 -0.39769182 0.5165285 -0.27765146 1.2477692 -0.89273554
-0.02882407 -0.9227062 0.82592154 -0.114958785 0.24231035 0.09480449 0.39661714 0.1404736
-0.46165892 0.1159845 -0.40351415 0.82132816 0.012051315 -0.735533 0.5236096 -0.089653336
-0.5818924 -0.234609 -0.5823198 -0.5891646 -0.543679 0.2632286 -0.60404646 -0.6028991
-0.60459363 -0.547581 -1.2595417 -0.5773432 -0.22625853 -0.1033463 1.632624 -0.17907447
-0.009289011 -0.5116297 -0.07272507 -0.08324352 -0.85662496 -0.39739817 -0.1341561 -0.36396092
1.5724217 -0.03166491 -0.3831326 0.26783654 -0.40065384 -0.2360302 -0.81506866 0.04511503
0.86449003 1.0453215 0.2073912 -0.4443583 0.37247056 0.35634136 0.5427852 -0.27344805
-0.32361203 0.42503572 0.15528303 0.19599304 0.29717413 0.45164514 0.5347408 0.24555704
-0.29700688 0.18835832 -1.2026058 -0.10454621 -0.02207865 0.3742886 -0.11166496 -0.342619
0.0534521 -0.18888478 0.30846402 0.043479823 1.6311417 -0.4487573 -0.0525212 -0.3647595
0.028624723 0.70930254 0.028966887 -0.49197423 -0.37814805 -0.22796771 -0.37994078 0.6416867
-0.6176032 -0.6649185 -1.2988806 -0.81102085 -0.64485013 -0.63309366 -0.6689178 -0.6606381
0.50222975 -0.687237 0.771119 -0.24869815 -0.3881046 -0.12391653 0.26561278 0.098371476
0.4506829 0.817733 -0.9151175 -0.117179036 0.2936767 0.32402897 0.49144945 -0.41057274
0.2246017 0.98762864 -0.23229834 0.22873135 0.8401799 1.0693358 -0.3880816 -0.016053334
0.5857666 0.50274193 -0.060102925 0.14133385 -0.7112386 -0.78346455 0.17872372 -0.5895854
-0.51765853 -0.34692618 -0.012473171 0.66797596 -0.040615574 0.1753094 -0.14630704 0.28782395
-0.39103386 0.00806529 -0.31681994 0.07858909 -0.5472157 -0.3424606 0.099106245 0.114258915

last_layer.variational_strategy._variational_distribution.variational_mean f4 [128]
00000000: 93fe 453d 1459 cd3d 26eb dc3e 862a ec3c
00000010: 4b3d 7e3d 0ec5 99bd e71c 94bc 2dce 223f
00000020: e1e0 91bd df4e 233e ca3d 0f3e 477c d33e
00000030: c49d 9cbe 4f94 83bf b269 cf3f 8d73 b53e
00000040: e923 e9be 8a76 d8be 173d b23f c46e 173f
00000050: e160 30bf c256 5ebe d80a 843f cb17 253f
00000060: 6dd3 493d 0f6b cabc f388 063f 5410 50bf
00000070: 1806 6e3d 5c24 cebe d9bf c83f 8dc2 be3f
00000080: 8ef1 cb3e 89c2 59be 4dfa 43be 159d b83f
00000090: 13b3 efbf effb 06bf e878 b43f 2e29 253e
000000a0: 2550 f0bf 5c44 833e aa69 853f 75b8 23be
000000b0: 0eda b63e 0bad 113f 78b7 433f a15d 2a3e
000000c0: b0c3 8fbe 0892 5a3e 6265 193b 3ec9 223e
000000d0: 158e cf3d f1c4 9bbe aa53 ac3e 0694 0a3f
000000e0: 3d01 bf3e b6ea 2c3f 4017 c4be c9a8 8c3f
000000f0: e4a9 ae3f 91ab fb3e 6a45 86be 40cb 943f
00000100: 3b1d e03e 77b4 1e3f cd28 37bf f3ef c63e
00000110: b72d ca3e a437 cfbd c2bc 05bd 68e1 0b3f
00000120: d63c 673e e708 4dbe 2028 6d3f 8b59 7ebf
00000130: e08c ac3e c9e6 293f 0951 6a3e c988 223f
00000140: 8b44 29bf d436 2d3f a041 1a3f 7b62 7a3e
00000150: 769e 9dbe c5df a73d e4cd 24bf 0b88 14bf
00000160: 575e f6be a756 c4be caef b33f 7597 68bf
00000170: e6db ad3f 8b50 9d3f cb41 b53f 51b6 4ebe
00000180: e7fc a83f ea0f 6e3f 3679 f7be 6d98 d63f
00000190: 91fd 913f 3051 a33f 5832 0340 95ee f83f
000001a0: 4251 bb3f f262 933f bfe1 e13f 42c2 35bf
000001b0: 5d2a 00c0 c134 0b40 cf48 493f e290 8f3f
000001c0: c751 6c3f 3a7e 8d3f 497d acbf ae60 eabf
000001d0: 5839 2d3f f143 b8bf 4a9c 0e3f b4fa 013f
000001e0: fd0a edbf cb42 d13f c3a5 d53e 9963 55c0
000001f0: 4d58 ef3f d728 2840 3e54 bfbf fcc2 6bbd
0.048338484 0.10026756 0.43148154 0.02882887 0.062070172 -0.07508288 -0.018080188 0.6359585
-0.0712297 0.15948056 0.13988414 0.41305754 -0.30589116 -1.0279635 1.6204131 0.3543972
-0.4553521 -0.42277938 1.3924893 0.5915339 -0.68897825 -0.21712783 1.0315809 0.6448943
0.049273897 -0.024709253 0.5255272 -0.81274915 0.05811128 -0.40262115 1.5683547 1.4903122
0.3983273 -0.21265616 -0.19138451 1.4422938 -1.8726524 -0.5272817 1.4099398 0.1612899
-1.8774458 0.25638092 1.0422871 -0.15988334 0.35713238 0.5690467 0.76451826 0.16637279
-0.28078985 0.21344769 0.0023406376 0.1589708 0.10134522 -0.30423692 0.3365758 0.54132116
0.37305632 0.6754564 -0.38298988 1.0989009 1.3645597 0.49154332 -0.26224834 1.1624527
0.437723 0.6199412 -0.7154663 0.38854942 0.39488003 -0.101180345 -0.032650717 0.5464082
0.22581801 -0.20022927 0.9263935 -0.9935538 0.3370123 0.66367775 0.22882475 0.6348997
-0.66120213 0.67661786 0.60256386 0.2445163 -0.3078496 0.081969775 -0.64376664 -0.58020085
-0.4811885 -0.3834736 1.4057553 -0.90856105 1.3582733 1.2290205 1.4160703 -0.20186736
1.320218 0.9299303 -0.48334664 1.6765267 1.1405507 1.2759151 2.0499477 1.944781
1.4634173 1.1514571 1.7647017 -0.7099954 -2.0025856 2.1750948 0.7862672 1.121609
0.9231228 1.1054146 -1.3475734 -1.8310754 0.67665625 -1.4395734 0.5570723 0.5077317
-1.8518978 1.6348509 0.4172803 -3.334204 1.8698822 2.6274927 -1.4947584 -0.057559

last_layer.variational_strategy._variational_distribution.chol_variational_covar f4 [128, 128]
00000000: d524 763d 0000 0000 0000 0000 0000 0000
00000010: 0000 0000 0000 0000 0000 0000 0000 0000
00000020: 0000 0000 0000 0000 0000 0000 0000 0000
00000030: 0000 0000 0000 0000 0000 0000 0000 0000
00000040: 0000 0000 0000 0000 0000 0000 0000 0000
00000050: 0000 0000 0000 0000 0000 0000 0000 0000
00000060: 0000 0000 0000 0000 0000 0000 0000 0000
00000070: 0000 0000 0000 0000 0000 0000 0000 0000
00000080: 0000 0000 0000 0000 0000 0000 0000 0000
00000090: 0000 0000 0000 0000 0000 0000 0000 0000
000000a0: 0000 0000 0000 0000 0000 0000 0000 0000
000000b0: 0000 0000 0000 0000 0000 0000 0000 0000
000000c0: 0000 0000 0000 0000 0000 0000 0000 0000
000000d0: 0000 0000 0000 0000 0000 0000 0000 0000
000000e0: 0000 0000 0000 0000 0000 0000 0000 0000
000000f0: 0000 0000 0000 0000 0000 0000 0000 0000
00000100: 0000 0000 0000 0000 0000 0000 0000 0000
00000110: 0000 0000 0000 0000 0000 0000 0000 0000
00000120: 0000 0000 0000 0000 0000 0000 0000 0000
00000130: 0000 0000 0000 0000 0000 0000 0000 0000
00000140: 0000 0000 0000 0000 0000 0000 0000 0000
00000150: 0000 0000 0000 0000 0000 0000 0000 0000
00000160: 0000 0000 0000 0000 0000 0000 0000 0000
00000170: 0000 0000 0000 0000 0000 0000 0000 0000
00000180: 0000 0000 0000 0000 0000 0000 0000 0000
00000190: 0000 0000 0000 0000 0000 0000 0000 0000
000001a0: 0000 0000 0000 0000 0000 0000 0000 0000
000001b0: 0000 0000 0000 0000 0000 0000 0000 0000
000001c0: 0000 0000 0000 0000 0000 0000 0000 0000
000001d0: 0000 0000 0000 0000 0000 0000 0000 0000
000001e0: 0000 0000 0000 0000 0000 0000 0000 0000
000001f0: 0000 0000 0000 0000 0000 0000 0000 0000
00000200: 9f55 63bd 15fa d13d 0000 0000 0000 0000
00000210: 0000 0000 0000 0000 0000 0000 0000 0000
00000220: 0000 0000 0000 0000 0000 0000 0000 0000
00000230: 0000 0000 0000 0000 0000 0000 0000 0000
00000240: 0000 0000 0000 0000 0000 0000 0000 0000
00000250: 0000 0000 0000 0000 0000 0000 0000 0000
00000260: 0000 0000 0000 0000 0000 0000 0000 0000
00000270: 0000 0000 0000 0000 0000 0000 0000 0000
00000280: 0000 0000 0000 0000 0000 0000 0000 0000
00000290: 0000 0000 0000 0000 0000 0000 0000 0000
000002a0: 0000 0000 0000 0000 0000 0000 0000 0000
000002b0: 0000 0000 0000 0000 0000 0000 0000 0000
000002c0: 0000 0000 0000 0000 0000 0000 0000 0000
000002d0: 0000 0000 0000 0000 0000 0000 0000 0000
000002e0: 0000 0000 0000 0000 0000 0000 0000 0000
000002f0: 0000 0000 0000 0000 0000 0000 0000 0000
00000300: 0000 0000 0000 0000 0000 0000 0000 0000
00000310: 0000 0000 0000 0000 0000 0000 0000 0000
00000320: 0000 0000 0000 0000 0000 0000 0000 0000
00000330: 0000 0000 0000 0000 0000 0000 0000 0000
00000340: 0000 0000 0000 0000 0000 0000 0000 0000
00000350: 0000 0000 0000 0000 0000 0000 0000 0000
00000360: 0000 0000 0000 0000 0000 0000 0000 0000
00000370: 0000 0000 0000 0000 0000 0000 0000 0000
00000380: 0000 0000 0000 0000 0000 0000 0000 0000
00000390: 0000 0000 0000 0000 0000 0000 0000 0000
000003a0: 0000 0000 0000 0000 0000 0000 0000 0000
000003b0: 0000 0000 0000 0000 0000 0000 0000 0000
000003c0: 0000 0000 0000 0000 0000 0000 0000 0000
000003d0: 0000 0000 0000 0000 0000 0000 0000 0000
000003e0: 0000 0000 0000 0000 0000 0000 0000 0000
000003f0: 0000 0000 0000 0000 0000 0000 0000 0000
0.06009372 0.0 0.0 0.0 0.0 0.0 0.0 0.0
0.0 0.0 0.0 0.0 0.0 0.0 0.0 0.0
0.0 0.0 0.0 0.0 0.0 0.0 0.0 0.0
0.0 0.0 0.0 0.0 0.0 0.0 0.0 0.0
0.0 0.0 0.0 0.0 0.0 0.0 0.0 0.0
0.0 0.0 0.0 0.0 0.0 0.0 0.0 0.0
0.0 0.0 0.0 0.0 0.0 0.0 0.0 0.0
0.0 0.0 0.0 0.0 0.0 0.0 0.0 0.0
0.0 0.0 0.0 0.0 0.0 0.0 0.0 0.0
0.0 0.0 0.0 0.0 0.0 0.0 0.0 0.0
0.0 0.0 0.0 0.0 0.0 0.0 0.0 0.0
0.0 0.0 0.0 0.0 0.0 0.0 0.0 0.0
0.0 0.0 0.0 0.0 0.0 0.0 0.0 0.0
0.0 0.0 0.0 0.0 0.0 0.0 0.0 0.0
0.0 0.0 0.0 0.0 0.0 0.0 0.0 0.0
0.0 0.0 0.0 0.0 0.0 0.0 0.0 0.0
-0.055501577 0.102527775 0.0 0.0 0.0 0.0 0.0 0.0
0.0 0.0 0.0 0.0 0.0 0.0 0.0 0.0
0.0 0.0 0.0 0.0 0.0 0.0 0.0 0.0
0.0 0.0 0.0 0.0 0.0 0.0 0.0 0.0
0.0 0.0 0.0 0.0 0.0 0.0 0.0 0.0
0.0 0.0 0.0 0.0 0.0 0.0 0.0 0.0
0.0 0.0 0.0 0.0 0.0 0.0 0.0 0.0
0.0 0.0 0.0 0.0 0.0 0.0 0.0 0.0
0.0 0.0 0.0 0.0 0.0 0.0 0.0 0.0
0.0 0.0 0.0 0.0 0.0 0.0 0.0 0.0
0.0 0.0 0.0 0.0 0.0 0.0 0.0 0.0
0.0 0.0 0.0 0.0 0.0 0.0 0.0 0.0
0.0 0.0 0.0 0.0 0.0 0.0 0.0 0.0
0.0 0.0 0.0 0.0 0.0 0.0 0.0 0.0
0.0 0.0 0.0 0.0 0.0 0.0 0.0 0.0
0.0 0.0 0.0 0.0 0.0 0.0 0.0 0.0

last_layer.covar_module.base_kernel.raw_lengthscale f4 [1, 10]
00000000: 9a06 5940 7feb 4f40 1aa1 3540 6e90 8f3f
00000010: a283 4e40 3999 5240 efc8 5240 7f22 5940
00000020: 9a79 d13f 4750 5a40
3.391028 3.2487485 2.8379579 1.1215951 3.2267842 3.290602 3.293514 3.3927305
1.6365235 3.4111497
