CompareCQR/Experiments/EXP1/model_bin/GPmodel_on_boston.pth (torch, 809789 bytes, 10 tensors)

hidden_layer.variational_strategy.inducing_points f4 [10, 128, 13]
00000000: 98e9 c0bd 17e5 1a3d d4b4 77be fbca 66bf
00000010: d1b0 1cbe 640a aabd 34dd 243e bf58 3bbb
00000020: 4de7 10bf e8d4 a33f ff55 d8bd 3314 91be
00000030: e7aa 05be 51f2 b0be 1d42 ef3c bf7b 05bf
00000040: 8f28 91be 0861 0dbe 0ff9 363e 4af9 18bf
00000050: 2249 c53c d97b 97be 3265 103d 9431 36bf
00000060: dca2 b6ba aaae d8be fd21 ef3e 31b5 edbe
00000070: a43e c33e d038 bfbe 8f4b 3f3f e55d 9bbe
00000080: 4463 683f c5cf d1be 7974 053e a1b9 883f
00000090: 6255 a73e 5959 f43e 3ec0 763f 7c7b 5dbe
000000a0: dbc0 683d 41af c13e 8324 b7be 55f0 0d3f
000000b0: 75e6 a8be c06f 743e 3b61 00be 4e2d 9bbe
000000c0: 704f 00be 4ad3 dfbd a249 95be f9f9 35bf
000000d0: c0d4 1dbf 6e4b 25bf 20aa 26bf cec2 81be
000000e0: fc74 70be 6a65 8e3f f95a 63be fc77 ac3a
000000f0: aee4 e6bc 5e84 3fbf 200f 2c3d 87b3 083e
00000100: b1d7 8abf bec6 debd 1458 c2be 616e a5be
00000110: c3d5 f8be b832 23bf dee4 b83c 5d95 7a3f
00000120: b3a7 17bf dd8d b4be 74e9 88be 74c5 343f
00000130: f95c 593d 7406 6c3e 376d bcbe 55ce a5be
00000140: 26b6 2abf df43 343b 2988 d3be ee8a e7be
00000150: 6120 e6bd 0aee 9abe c637 b1be b856 6b3e
00000160: 1dc2 213f cdb3 313f 3773 4cbe 0163 78bd
00000170: 5150 2f3f 0249 e1be 750e 483e e7cf 8c3b
00000180: 5d93 82bd 4152 f43d 781e 463e 6871 05be
00000190: 47f7 aabe 5766 2f3f d239 b6bd 041d 3c3e
000001a0: 2128 54be 917e 4abe ba5d edbe b316 45be
000001b0: 3c1f 9fbd fdf1 cdbd 368a 703f 7700 fdbe
000001c0: dd03 b0be cecb 313f 252c 8bbe c7d9 853e
000001d0: ff28 033d b347 b63f 8ae1 9dbe a8c7 a83e
000001e0: 71c4 12be 3c04 2d3f ec5b 423e bf87 d23e
000001f0: 31a6 a8be ce23 183f c020 1a3f f44a d13e
00000200: 16f4 b63e 96b0 d23e 311a 15be ac10 a3be
00000210: 68a8 afbe 8c50 91be c263 49be 3bb3 b7be
00000220: d86b b23e 18c6 a13e aef4 1ebf 88e2 fcbe
00000230: 6999 003f c3c1 2a3e df42 2f3f 1bf0 4dbe
00000240: 2e07 6fbe f3d7 1dbf 23e7 aebe 4ab4 7bbd
00000250: f02c 63bf 5278 a83e a0ca b13d 42d0 18bf
00000260: 0c83 d4be 82aa 403f 20cb b03e 33cf 9fbe
00000270: ad1c b83c 8b56 63be e504 8f3e 7e3f b3be
00000280: 3708 97be fe4f 223d 6df1 86be 11cf 213f
00000290: 665e 35bd 8d9c 863e f967 70be aa2e 593e
000002a0: 501a e13e d04e 9b3d 8a70 cdbe 99c1 cf3e
000002b0: 1c50 74be 3313 113e 2066 a5bd 3b4e 5a3c
000002c0: af76 08be b06c a9be e1bf 23be 4c89 06bf
000002d0: 0795 7fbf e47c 4ebf 6efd 273d f486 5cbf
000002e0: cc00 cbbd 046c 22be 890c a5be 7c01 593f
000002f0: 7800 a93e 3502 133e 55f4 4bbc 3bb7 38be
00000300: e114 5cbe 8bd7 7c3e 59df 26bf 77dc 623e
00000310: 43a5 b6be 6dbe 3bbe 55d3 a8be d38d 8a3f
00000320: b090 1a3f 9662 fe3e 868e 7ebf 0d16 9a3f
00000330: a3ee 753f 028a 803e beb9 2a3e ba19 8e3e
00000340: 8ed7 bebd dc1d b73c 9dc0 e73e 9ba9 893e
00000350: 700f 723e 34f2 85be d92d acbd 18b8 de3d
00000360: 5f2e 1dbf 5f45 f9bc 3546 293e fc79 773d
00000370: 5f6d 593d cf31 54be ff62 ecbd 169a 443f
00000380: 686a 41be 4132 14be f828 6a3f 6391 8b3e
00000390: 4ba3 2bbd bfcc 15bf 2135 b6be d5c3 12bf
000003a0: d379 423e 98e7 99bf 848d 4cbd 66e5 6f3d
000003b0: 668f e2bd f7db dcbd dac8 b53d bb9e 56be
000003c0: 94d1 8d3d 7d3d 37bd 4286 05bd 324d 02be
000003d0: af37 c5be 3218 2dbf f498 353e 49ec 4ebe
000003e0: a494 0ebe 5820 a0ba 4822 45be 6938 dfbd
000003f0: 3d4a be3e 2a7c 393f 668d b1be 37f7 d2bd
-0.094195545 0.037816133 -0.24190074 -0.90153474 -0.15301825 -0.08302763 0.16100007 -0.0028586832
-0.56602937 1.2799349 -0.105632775 -0.28335723 -0.13053475 -0.34559873 0.02920633 -0.52141947
-0.28351256 -0.13806546 0.17868446 -0.59755385 0.024082724 -0.29586676 0.035252757 -0.711694
-0.0013934034 -0.42320758 0.46705619 -0.464273 0.38133729 -0.37348032 0.7472467 -0.30345073
0.9077647 -0.40978828 0.13032712 1.068165 0.3268233 0.47724417 0.9638709 -0.21629137
0.056824546 0.3782902 -0.35770044 0.5544484 -0.32988325 0.23870754 -0.1253709 -0.30308002
-0.12530303 -0.10928972 -0.2915774 -0.71084553 -0.61652756 -0.6456822 -0.6510334 -0.25343937
-0.23482126 1.1124699 -0.22202672 0.0013158317 -0.028185215 -0.7481135 0.04200661 0.13349734
-1.0847074 -0.10877751 -0.37957823 -0.32310775 -0.48600587 -0.63749266 0.02257007 0.9788416
-0.59240264 -0.35264483 -0.2674061 0.7061379 0.05306718 0.23049337 -0.36802074 -0.3238398
-0.66684186 0.0027506275 -0.4131482 -0.45223182 -0.112366445 -0.30259734 -0.34612864 0.229823
0.6318682 0.6941498 -0.19965826 -0.060641292 0.6848193 -0.44001013 0.19536765 0.004297245
-0.063757636 0.11929751 0.1934756 -0.13031542 -0.33391783 0.68515533 -0.08897747 0.18370444
-0.20718433 -0.19774844 -0.4636057 -0.1924694 -0.07769629 -0.10055921 0.93960893 -0.49414417
-0.34377947 0.69451606 -0.27182117 0.26142713 0.03202152 1.4240631 -0.30836135 0.32964826
-0.14332749 0.67584586 0.18980378 0.4111919 -0.32939294 0.59429634 0.6020622 0.40877497
0.35733098 0.4115035 -0.14560772 -0.31848657 -0.3430817 -0.28381765 -0.19666961 -0.3587893
0.34847903 0.31596446 -0.620921 -0.4939158 0.50234085 0.16675477 0.6846141 -0.20111124
-0.23342583 -0.6165764 -0.34160718 -0.061451234 -0.88740444 0.32904297 0.08681226 -0.59692776
-0.4150623 0.75260174 0.34529972 -0.31212768 0.022474611 -0.22200982 0.27933422 -0.35009378
-0.29498455 0.039627068 -0.26356068 0.63206583 -0.04427948 0.26291314 -0.23477162 0.21209207
0.43965387 0.07583392 -0.40124923 0.4057739 -0.23858684 0.1416748 -0.080761194 0.013324316
-0.13326524 -0.33090734 -0.15991165 -0.5255325 -0.9983677 -0.8065932 0.041013174 -0.8614342
-0.09912261 -0.15861517 -0.32236126 0.8476789 0.3300817 0.1435631 -0.01244839 -0.18038647
-0.2149234 0.24691598 -0.6518455 0.22154413 -0.3567296 -0.1833436 -0.32973734 1.0824531
0.60377026 0.4968459 -0.99436224 1.2037979 0.96067256 0.25105292 0.16672418 0.27754003
-0.093184575 0.022353105 0.4526414 0.2688721 0.23638701 -0.2616135 -0.08407182 0.10874957
-0.6139888 -0.030428587 0.16530688 0.060419068 0.05308282 -0.20722125 -0.115423195 0.76797616
-0.18888247 -0.14472295 0.91468763 0.2725936 -0.041903775 -0.5851554 -0.3558741 -0.57330066
0.18991785 -1.2023802 -0.049939647 0.05856838 -0.11062507 -0.107841425 0.088762 -0.20958988
0.069247395 -0.044736374 -0.03259874 -0.1272476 -0.38519046 -0.67615044 0.17734128 -0.20207323
-0.1392389 -0.001221667 -0.19251359 -0.10899431 0.37166014 0.72455084 -0.3467819 -0.10301059

hidden_layer.variational_strategy._variational_distribution.variational_mean f4 [10, 128]
00000000: 3bc4 ff3d 7c58 b33e 29ad 003e 4124 89bd
00000010: e333 9b3e d3e5 063e 47f5 67be d196 f83c
00000020: 13fa 9ebd e413 8c3d 7573 bb3d 75b4 c13e
00000030: 4311 cfbe fd86 0d3e ca12 f0bd 34f9 ccbe
00000040: ed3c 98bd eaa7 a93e 8bad 013d 6856 7dbe
00000050: 4871 78be 3d11 92be 3906 09bd 30da ddbd
00000060: fda4 133f 3e27 143f b1de 0dbe 5b11 9abd
00000070: 1df2 a8bd 55b3 be3b bf6f bc3c 8ab7 393e
00000080: 808f 35bd cba6 eabd a614 3fbd 5c3b 21be
00000090: ecf9 37bd 6170 6ebe 890e 163d 6bb0 ce3d
000000a0: 0635 f0bc a5ee a23e 1610 0dbd 22e6 3c3e
000000b0: f2da 613d c0e3 b7bd e23b 673e da1d 6e3e
000000c0: 4825 133d bca4 1cbd d293 c43d 6d56 2dbe
000000d0: 2be2 02bd f067 64be 2853 183e b49c 8fbd
000000e0: 8367 643e 284f aebd 9bed 483e 77a9 c3bd
000000f0: 49ab d03b 1e5d 933d 8388 5f3c 9827 4b3d
00000100: 1f71 8dba e31c 873d d892 4d3c f97c 83bd
00000110: fa2e 683e dc49 69be e4af 383e 96f4 d5bd
00000120: a4c2 17be b360 ddbd c0ee 7abd 0dcb c83c
00000130: 5c84 673d a506 38bb cdec 043c 5969 123e
00000140: 315d 9d3c 7fbd 51be f16f 98be a65d d63d
00000150: b9aa fe3d b50a d53d a166 003e e28d 9cbe
00000160: 3bd9 05bd b6be 33bd 0fc8 8dbd 695d c3bd
00000170: 9e06 413e 184d 1e3e 3343 963e 8a7c 7d3b
00000180: a30c 15bd acb7 d23c ff53 833d 4113 f63d
00000190: 2fe5 833e f7d4 d7bd 5d58 f63d 23e2 97be
000001a0: dab9 ef3d da77 38bd 2260 25bd b135 d43c
000001b0: f92b a4bc 8580 dcbe 3b96 aabc 0808 7bbd
000001c0: 8ec7 92bd bc64 db3c aeb7 093d a7c4 433d
000001d0: de5a 5fbe f76a f53d 95ce bb3c a041 cfbd
000001e0: e048 29bd 9dd7 da3d d85a 853d f481 a33b
000001f0: f8da 23bd 3eee e8be b06d 01bf c0ec 233e
00000200: 8609 9f3f 9712 e73e 2440 633f 6d7c c33f
00000210: 9caf 323e b675 933c cc2e 983f 46ac 4f3f
00000220: 1ec0 3abf b058 0bbe b287 733f f757 bebd
00000230: 18cd 7bbf 8ed9 913f 6580 363f 23ac 183e
00000240: f037 4e3f 7851 583f 7823 35bf aae0 cc3f
00000250: 863f c23f 54f4 4c3d e6bf df3d 97c3 503f
00000260: 8184 90bf 41e7 003e 7772 83be 0c3e 333f
00000270: 2207 6cbe 1aff 783f fa51 043d 958c 0fbe
00000280: 50a1 5f3f c16f ff3e c56a 7dbf 0a5c b7bd
00000290: b127 76bd a6c4 9c3e 317c 453f 8dd7 883f
000002a0: 4694 b53f 7bbb f03d 0fab d13e 6f72 fa3e
000002b0: 5a39 583e 76b8 36be 1d74 043e d941 bb3e
000002c0: 6a7a ac3f 5a49 4a3f 54e7 95bd c337 e6bf
000002d0: b1ad 993e 3fb3 2b3f 7ce8 613f 80d5 bcbf
000002e0: 9f46 813f 6364 18be 8516 71bf 0133 94be
000002f0: 1974 f63e 6bef 74bf 923f b83d a2a4 ab3f
00000300: 7454 543e d76a 8e3f 430f 3f3f 1ae6 59bf
00000310: 68ec 973f 0585 8f3d ff35 3239 6f06 16be
00000320: 1d49 a03f b5db a63e 9a8c 513f bdd0 f63d
00000330: 8059 4d3e 891d a43f b43b a7bf ce91 7d3d
00000340: 3c72 e0bc 733c 283e f128 e9bf 5fbf 7e3f
00000350: 1982 1dbf 6046 2cbf 0722 d93e 1d1a 7a3f
00000360: 8ca8 6fbe 1de7 8b3f 6a8f 403d 3abf 373f
00000370: 4ce5 b53e 88b2 bcbe 9a10 263f 3c7e c33f
00000380: a713 8e3f 975b cb3e 6859 22bf 6052 acbe
00000390: c342 a13e d4ee ddbe f5c7 8dbf dae3 1a3f
000003a0: 6ed6 263f 0437 483f 4809 b93f ecae cdbe
000003b0: 4e02 6c3f cad8 ba3f 4a6d 013f 6e02 2a3e
000003c0: c18c 6abf 5007 ad3f e901 cdbe 12a3 49bf
000003d0: 18b3 393f aacd 8f3f 7756 04bf 94bb e33e
000003e0: 2070 aa3f a55b 5bbf d58e a9bf 031a 373f
000003f0: 23f9 a03f 098b 9dbf 8e1b bfbc 8d74 f23d
0.124886 0.35028446 0.12566055 -0.06696368 0.30313024 0.13173608 -0.2265216 0.030345352
-0.077625416 0.06839731 0.09152881 0.3783299 -0.40442857 0.13821025 -0.11722334 -0.40033877
-0.07433496 0.3313592 0.031659644 -0.24739993 -0.24261963 -0.28528777 -0.0334532 -0.108326316
0.5767363 0.5787238 -0.13854481 -0.075228415 -0.082493044 0.005819718 0.023002503 0.18136421
-0.044326305 -0.114575945 -0.04665055 -0.157453 -0.04491608 -0.23285057 0.036634956 0.10092243
-0.029322159 0.31822696 -0.03443917 0.18447164 0.055140443 -0.08978987 0.22581437 0.23253575
0.035924226 -0.03824304 0.09598507 -0.169275 -0.03195397 -0.22305274 0.14875472 -0.070123106
0.22305112 -0.085111916 0.1962189 -0.09553807 0.006368075 0.07195495 0.013643387 0.049598306
-0.0010791159 0.065973066 0.012547217 -0.06420321 0.2267417 -0.22782081 0.18035847 -0.10447042
-0.14820343 -0.108094595 -0.061262846 0.024510885 0.056522712 -0.0028080132 0.008113098 0.14298
0.019209476 -0.20482443 -0.29772905 0.10467081 0.124349065 0.10402433 0.1253915 -0.30576998
-0.03267787 -0.043883048 -0.06922924 -0.09539301 0.1885018 0.15459096 0.29348144 0.0038678967
-0.036389004 0.025722347 0.06412505 0.12015391 0.2576079 -0.10538667 0.12028573 -0.29664716
0.1170537 -0.045036174 -0.040374883 0.025904508 -0.020040499 -0.43066803 -0.020823589 -0.061286956
-0.07166968 0.026781432 0.033622436 0.047794964 -0.21812007 0.119832925 0.022925654 -0.10119939
-0.041329265 0.10685656 0.06511468 0.004989857 -0.040003747 -0.45494264 -0.50557995 0.16008282
1.2424781 0.4513137 0.88769746 1.5272347 0.17449802 0.018000465 1.1889281 0.81122243
-0.729494 -0.1360805 0.9512893 -0.09294122 -0.98359823 1.1394517 0.71289665 0.14909415
0.80554104 0.8449931 -0.70757246 1.6006062 1.5175636 0.050037697 0.109252736 0.81548446
-1.1290437 0.12588216 -0.25673267 0.7001655 -0.23049596 0.97264254 0.03230474 -0.14018472
0.8735552 0.4988995 -0.9899104 -0.08953102 -0.060096446 0.3061878 0.77142626 1.0690781
1.4185874 0.11754509 0.4095082 0.4891543 0.21115628 -0.17843804 0.12934919 0.36573675
1.3474858 0.79018176 -0.07319513 -1.7985767 0.3001533 0.6707038 0.8824537 -1.4752655
1.0099677 -0.14882044 -0.9417499 -0.28945163 0.4813545 -0.9567782 0.089965 1.3409617
0.20735341 1.1126355 0.7463266 -0.8511673 1.186902 0.07007793 0.00016995518 -0.14650892
1.2522312 0.32589498 0.81855166 0.120515324 0.20053673 1.2821513 -1.3065095 0.06190663
-0.027398221 0.1642931 -1.8215619 0.9951076 -0.6152664 -0.67294884 0.42408773 0.97696096
-0.2340414 1.0929905 0.04701177 0.71776164 0.35526502 -0.3685496 0.6486908 1.5272899
1.1099747 0.39718315 -0.63417673 -0.33656597 0.31496248 -0.43346274 -1.1076647 0.60503924
0.65170944 0.7820895 1.4455957 -0.40172517 0.92191017 1.4597409 0.50557387 0.1660249
-0.91621023 1.3517857 -0.4004052 -0.7876445 0.725389 1.1234639 -0.51694435 0.44479048
1.3315468 -0.85686713 -1.3246714 0.71524066 1.257603 -1.2308055 -0.023328569 0.118386365

hidden_layer.variational_strategy._variational_distribution.chol_variational_covar f4 [10, 128, 128]
00000000: dfeb 593f 0000 0000 0000 0000 0000 0000
00000010: 0000 0000 0000 0000 0000 0000 0000 0000
00000020: 0000 0000 0000 0000 0000 0000 0000 0000
00000030: 0000 0000 0000 0000 0000 0000 0000 0000
00000040: 0000 0000 0000 0000 0000 0000 0000 0000
00000050: 0000 0000 0000 0000 0000 0000 0000 0000
00000060: 0000 0000 0000 0000 0000 0000 0000 0000
00000070: 0000 0000 0000 0000 0000 0000 0000 0000
00000080: 0000 0000 0000 0000 0000 0000 0000 0000
00000090: 0000 0000 0000 0000 0000 0000 0000 0000
000000a0: 0000 0000 0000 0000 0000 0000 0000 0000
000000b0: 0000 0000 0000 0000 0000 0000 0000 0000
000000c0: 0000 0000 0000 0000 0000 0000 0000 0000
000000d0: 0000 0000 0000 0000 0000 0000 0000 0000
000000e0: 0000 0000 0000 0000 0000 0000 0000 0000
000000f0: 0000 0000 0000 0000 0000 0000 0000 0000
00000100: 0000 0000 0000 0000 0000 0000 0000 0000
00000110: 0000 0000 0000 0000 0000 0000 0000 0000
00000120: 0000 0000 0000 0000 0000 0000 0000 0000
00000130: 0000 0000 0000 0000 0000 0000 0000 0000
00000140: 0000 0000 0000 0000 0000 0000 0000 0000
00000150: 0000 0000 0000 0000 0000 0000 0000 0000
00000160: 0000 0000 0000 0000 0000 0000 0000 0000
00000170: 0000 0000 0000 0000 0000 0000 0000 0000
00000180: 0000 0000 0000 0000 0000 0000 0000 0000
00000190: 0000 0000 0000 0000 0000 0000 0000 0000
000001a0: 0000 0000 0000 0000 0000 0000 0000 0000
000001b0: 0000 0000 0000 0000 0000 0000 0000 0000
000001c0: 0000 0000 0000 0000 0000 0000 0000 0000
000001d0: 0000 0000 0000 0000 0000 0000 0000 0000
000001e0: 0000 0000 0000 0000 0000 0000 0000 0000
000001f0: 0000 0000 0000 0000 0000 0000 0000 0000
00000200: 71fa 70be 05ea 193f 0000 0000 0000 0000
00000210: 0000 0000 0000 0000 0000 0000 0000 0000
00000220: 0000 0000 0000 0000 0000 0000 0000 0000
00000230: 0000 0000 0000 0000 0000 0000 0000 0000
00000240: 0000 0000 0000 0000 0000 0000 0000 0000
00000250: 0000 0000 0000 0000 0000 0000 0000 0000
00000260: 0000 0000 0000 0000 0000 0000 0000 0000
00000270: 0000 0000 0000 0000 0000 0000 0000 0000
00000280: 0000 0000 0000 0000 0000 0000 0000 0000
00000290: 0000 0000 0000 0000 0000 0000 0000 0000
000002a0: 0000 0000 0000 0000 0000 0000 0000 0000
000002b0: 0000 0000 0000 0000 0000 0000 0000 0000
000002c0: 0000 0000 0000 0000 0000 0000 0000 0000
000002d0: 0000 0000 0000 0000 0000 0000 0000 0000
000002e0: 0000 0000 0000 0000 0000 0000 0000 0000
000002f0: 0000 0000 0000 0000 0000 0000 0000 0000
00000300: 0000 0000 0000 0000 0000 0000 0000 0000
00000310: 0000 0000 0000 0000 0000 0000 0000 0000
00000320: 0000 0000 0000 0000 0000 0000 0000 0000
00000330: 0000 0000 0000 0000 0000 0000 0000 0000
00000340: 0000 0000 0000 0000 0000 0000 0000 0000
00000350: 0000 0000 0000 0000 0000 0000 0000 0000
00000360: 0000 0000 0000 0000 0000 0000 0000 0000
00000370: 0000 0000 0000 0000 0000 0000 0000 0000
00000380: 0000 0000 0000 0000 0000 0000 0000 0000
00000390: 0000 0000 0000 0000 0000 0000 0000 0000
000003a0: 0000 0000 0000 0000 0000 0000 0000 0000
000003b0: 0000 0000 0000 0000 0000 0000 0000 0000
000003c0: 0000 0000 0000 0000 0000 0000 0000 0000
000003d0: 0000 0000 0000 0000 0000 0000 0000 0000
000003e0: 0000 0000 0000 0000 0000 0000 0000 0000
000003f0: 0000 0000 0000 0000 0000 0000 0000 0000
0.85125536 0.0 0.0 0.0 0.0 0.0 0.0 0.0
0.0 0.0 0.0 0.0 0.0 0.0 0.0 0.0
0.0 0.0 0.0 0.0 0.0 0.0 0.0 0.0
0.0 0.0 0.0 0.0 0.0 0.0 0.0 0.0
0.0 0.0 0.0 0.0 0.0 0.0 0.0 0.0
0.0 0.0 0.0 0.0 0.0 0.0 0.0 0.0
0.0 0.0 0.0 0.0 0.0 0.0 0.0 0.0
0.0 0.0 0.0 0.0 0.0 0.0 0.0 0.0
0.0 0.0 0.0 0.0 0.0 0.0 0.0 0.0
0.0 0.0 0.0 0.0 0.0 0.0 0.0 0.0
0.0 0.0 0.0 0.0 0.0 0.0 0.0 0.0
0.0 0.0 0.0 0.0 0.0 0.0 0.0 0.0
0.0 0.0 0.0 0.0 0.0 0.0 0.0 0.0
0.0 0.0 0.0 0.0 0.0 0.0 0.0 0.0
0.0 0.0 0.0 0.0 0.0 0.0 0.0 0.0
0.0 0.0 0.0 0.0 0.0 0.0 0.0 0.0
-0.23533036 0.6012271 0.0 0.0 0.0 0.0 0.0 0.0
0.0 0.0 0.0 0.0 0.0 0.0 0.0 0.0
0.0 0.0 0.0 0.0 0.0 0.0 0.0 0.0
0.0 0.0 0.0 0.0 0.0 0.0 0.0 0.0
0.0 0.0 0.0 0.0 0.0 0.0 0.0 0.0
0.0 0.0 0.0 0.0 0.0 0.0 0.0 0.0
0.0 0.0 0.0 0.0 0.0 0.0 0.0 0.0
0.0 0.0 0.0 0.0 0.0 0.0 0.0 0.0
0.0 0.0 0.0 0.0 0.0 0.0 0.0 0.0
0.0 0.0 0.0 0.0 0.0 0.0 0.0 0.0
0.0 0.0 0.0 0.0 0.0 0.0 0.0 0.0
0.0 0.0 0.0 0.0 0.0 0.0 0.0 0.0
0.0 0.0 0.0 0.0 0.0 0.0 0.0 0.0
0.0 0.0 0.0 0.0 0.0 0.0 0.0 0.0
0.0 0.0 0.0 0.0 0.0 0.0 0.0 0.0
0.0 0.0 0.0 0.0 0.0 0.0 0.0 0.0

hidden_layer.mean_module.weights f4 [13, 1]
00000000: 3b56 cf3d 1c2d ee3c 336b c6bb adc4 b4bf
00000010: 6e1f 323e d43d 393b e019 ca3c 098a 063e
00000020: eb4d 06be 0e90 033e 981a c23d ce65 64bc
00000030: b744 4f3e
0.10123869 0.029074244 -0.0060552596 -1.4122521 0.17394802 0.0028265612 0.024670541 0.13138594
-0.13115661 0.12847921 0.094777286 -0.013940288 0.20241056

hidden_layer.covar_module.raw_outputscale f4 [10]
00000000: e396 fdbf d914 f1bf 88af f9bf cef3 fcbf
00000010: 58b2 febf a446 ffbf 8e28 fbbf 341c fabf
00000020: fe79 04c0 8248 febf
-1.9811672 -1.8834487 -1.9506693 -1.9761903 -1.9898176 -1.9943433 -1.9621751 -1.9539857
-2.0699458 -1.9865878

hidden_layer.covar_module.base_kernel.raw_lengthscale f4 [10, 1, 13]
00000000: 5d6c c73f d99b 1240 c6ba f13f 40a0 bc3f
00000010: 9f8b f23f 5ff3 1140 955c 0040 a7ec 0440
00000020: 9860 f73f c021 e83f fc48 0140 32ec ca3f
00000030: f207 f13f df24 0340 7d83 6c40 a399 2440
00000040: 3f88 ec3f 80e9 3440 51f5 f53f 1611 3140
00000050: 7f58 2540 68b9 1940 8cca 0140 10ad 3640
00000060: c34f 0c40 ad71 c63f df86 b03f ae5a 1140
00000070: d2b7 eb3f 369a b63f 21d5 ee3f 5e07 1340
00000080: 3ac5 f23f fbd9 0040 4f88 eb3f 972f ee3f
00000090: f68c f93f e8a7 bb3f 4131 fb3f 717f 0740
000000a0: 1dfa 1a40 adfe f43f 3d39 ad3f 8976 e23f
000000b0: 2514 1d40 a7b8 fa3f e270 fc3f b0c6 fc3f
000000c0: ef82 ee3f 9816 fc3f 75e7 a13f 3476 ba3f
000000d0: 6509 bf3f d275 0f40 52d3 ed3f 7fe0 b63f
000000e0: b7a0 fa3f 9ec6 1440 89a4 f43f b9f6 0040
000000f0: 5368 ec3f b4a8 eb3f 9973 0440 1793 c73f
00000100: 6ff9 f23f 7b3c ce3f 1601 1540 6719 f13f
00000110: 2f7c ab3f 5cd6 f83f 1f9a 1440 3d6e ec3f
00000120: ad2a f73f 07a5 0340 2e6e e83f c9a9 0940
00000130: ec53 b83f 5497 d43f f82d ab3f 49ce 1840
00000140: 9743 ec3f 351a b53f 426b f93f d96d 1240
00000150: d46b 0140 cdc5 0440 bf87 f73f beed e93f
00000160: c62d 0240 e6b9 d23f c003 ef3f e4ca 0b40
00000170: 5073 4b40 a2ff 1740 0bec df3f 1b0e 0e40
00000180: 4c25 1f40 0d90 0b40 9d05 a23f 6659 1840
00000190: 4689 0f40 dd6b 1a40 bf60 4640 cf56 bb3f
000001a0: d0ea 0440 ce06 1f40 258b 0840 961a c23f
000001b0: 8400 0240 0f31 1f40 a0a8 0140 1aa4 fd3f
000001c0: f850 1b40 d9d6 0940 d3ca 0940 08d5 0840
000001d0: fcfd cf3f 284d 0e40 cdda 1040 597b e43f
000001e0: 63d5 ab3f ba7c df3f eda7 1640 d718 0040
000001f0: 4601 d93f 07a4 eb3f c435 f23f 28cc 0240
00000200: 92ed a83f 793b df3f
1.5579945 2.2907622 1.8885124 1.4736404 1.8948859 2.2804792 2.0056508 2.076944
1.9326353 1.81353 2.0200796 1.5853331 1.883055 2.0491254 3.6955254 2.5718772
1.8479079 2.8267517 1.921549 2.7666678 2.5835264 2.4019413 2.0279875 2.854313
2.1923683 1.5503441 1.3791159 2.2711596 1.8415473 1.4265811 1.8658792 2.2973247
1.8966439 2.0133045 1.8400973 1.8608273 1.9496143 1.4660616 1.9624406 2.1171534
2.4215157 1.9140221 1.3533093 1.7692424 2.4543545 1.9587601 1.9721949 1.9748135
1.8633708 1.9694395 1.264876 1.4567323 1.4924742 2.2415662 1.8580115 1.4287261
1.9580296 2.3246226 1.9112712 2.0150588 1.8469337 1.8410859 2.0695555 1.5591763
1.8982371 1.6112207 2.3281913 1.8835877 1.3397273 1.9440417 2.3219068 1.8471142
1.9309899 2.0569475 1.8158624 2.1509879 1.4400611 1.6608682 1.3373404 2.3875906
1.8458127 1.4148623 1.9485857 2.2879546 2.0222063 2.0745728 1.9338301 1.8275678
2.0340438 1.6462982 1.867302 2.1842585 3.178913 2.3749776 1.749391 2.219611
2.4866514 2.1806672 1.2657963 2.3804564 2.2427535 2.4128335 3.099655 1.4635867
2.0768318 2.4847903 2.1334927 1.5164363 2.0312815 2.4873693 2.025917 1.9815705
2.426817 2.1537383 2.1530044 2.1380024 1.6249385 2.2234592 2.2633545 1.7850143
1.3424495 1.7459939 2.3539994 2.001516 1.6953514 1.8409432 1.8922658 2.0437107
1.3197501 1.7440025

last_layer.variational_strategy.inducing_points f4 [128, 10]
00000000: db18 04c0 99d1 893f e4bc 88bf afcb b73f
00000010: 7710 40bf 6a9d 5fbf 2c01 9cbf 2980 963f
00000020: 3b55 463f 49e2 3abf b298 afbf 1a95 c53f
00000030: 422e 62bf 73fc 8abf 7f49 b6bf 9454 503f
00000040: c0ce 8a3f 7228 1e3f 002d 773f 8260 9dbf
00000050: 18c7 96bf 0375 0d3e b8f8 59bf 0087 8cbe
00000060: 3b67 b5bf 2204 823f 32bd 53bf aeda f33f
00000070: 6268 50bd dfec c0bf 7bd7 bfbf 6617 d0bf
00000080: 9021 59bf 0893 68bf 8c00 233f 6195 5abf
00000090: 335e 8b3f 7162 1a40 7c79 003f 83ae ed3e
000000a0: 6046 b1bf 1a24 8bbf f65d acbf 85ff b4bf
000000b0: f12b b03e 2ad4 8c3f 6158 9b3f ae26 753b
000000c0: 14bf 1240 d18b f1be 6f48 773f 4aef 8e3f
000000d0: 12c0 cebf e3c2 61bf c148 89bf c3f8 ac3f
000000e0: 226c 00c0 eb5b 90bf ce5f bcbf 9149 71bf
000000f0: 83f0 863f 6937 3bbf 1b47 8abf 9867 76bf
00000100: b2f7 9d3f 2de0 c4bf 2e10 4dbf 366d 0c40
00000110: 3bcb 96bf 06e3 58bf 2c42 203f 3463 0b40
00000120: a805 0fbf 122c e0bf 0b98 ac3f 74ba 223f
00000130: b074 c53d 0a8a 81bf d8ab e83e 3287 be3f
00000140: 75f7 d3bf a59d d03d 8865 92bf 5852 2e3f
00000150: 3e32 19bf 1064 84bf 3e47 38c0 6866 fa3d
00000160: 712c ec3e 4f6e 323f ee58 6dbf 6cec 953d
00000170: 2a17 bbbf 9b66 3d3f af06 6d3f 9866 51be
00000180: e8bb 26c0 c6b0 603e 557b 223f bd09 18bf
00000190: 6e2b 11c0 27c0 abbf ee74 bbbf c099 b7bf
000001a0: b127 53bf 83fb 93bf a316 9b3f 3f35 553f
000001b0: e609 953e c36f a63e bf9b 9cbf f0dc 7ebf
000001c0: d19f 17c0 2c20 7abf b488 373f 88dd 7bbe
000001d0: 8c36 d7bf b1a6 2dbf d0d4 463f 271d ccbf
000001e0: 151a 24bf 0825 9a3f 641d 9f3f 1bce a2bf
000001f0: c605 d4bf 8fc2 e43f 1dcc 283f c33d 1e3f
00000200: ed28 57bf 33b2 f4be 0b96 91bf 3cef a33f
00000210: 5bee abbe df06 0440 28f4 253f 267b 663f
00000220: 198f bcbf 56f1 b2bf 0643 4fbf 0d50 2ebf
00000230: c446 7ebf c793 8fbf 8bf4 5dbf 66e0 a2bf
00000240: 04f4 cb3f 1b81 a43f 08c8 3e3f 07f1 6e3f
00000250: 3289 4cbf f2c1 f0bf ec20 46bf 7e52 85bf
00000260: f6ff e6bf b0c5 81bf 3615 9ebf a98c a93f
00000270: e8d9 b2bf 3b35 ba3e bccc b5bf 8941 afbf
00000280: 0e10 203e cfc3 ebbf c86d eabf ca83 c8bf
00000290: 75da 6abf 3fce d5bf 03fd 5cbf 5460 3a3f
000002a0: f7eb 13bf f64f cdbf 4d58 6b3f 7dd3 d4bf
000002b0: 9693 b9bf c227 b0bf 5a0b 0cbf 93c6 97bf
000002c0: ff95 4fbf ad36 7f3f ca93 3b3f fc6e f33f
000002d0: a8e3 36bf 9090 943e c262 10c0 5516 74bf
000002e0: 491b dabe 2a7a e13f bffa 4b3f c0eb b4be
000002f0: 4002 12bf 3a70 773f e838 c8bf 24b5 7b3f
00000300: 4d8d 5e3f 7443 7dbf fdc1 f03e 0c29 9e3f
00000310: 6f80 b6bf fabf f4bf 18d5 91bf 39e0 543f
00000320: 1771 0fbf 6ac9 e3bf bf35 89bf dfd1 b6bf
00000330: d4c2 f1be ad91 61be a111 13c0 ed19 8a3e
00000340: f2c4 6b3e fbe9 af3f 3839 6e3f 1220 e3bf
00000350: 05b0 9ebf 9c5f a6bf ad19 acbe eb2e bb3f
00000360: ec21 ab3f 7634 9fbf 989a 49bf 17d5 0640
00000370: f4e6 94be c1f4 913f eab8 79bf 6541 ff3f
00000380: d21e 0240 5662 733f 27f8 f6bd ead2 523f
00000390: 8142 813f dd76 673f c945 a6bf 9471 f7bf
000003a0: 09f3 b1bf 4b76 9ebf 0bb2 08c0 f0ae 3f3f
000003b0: 8eef 35bf 13dd 1cbf a32c 9bbf 240f 3b3f
000003c0: 943d 6bbf 271e 463f c7e6 ef3f 6c92 433f
000003d0: c3c2 163f d891 a2bf 5a79 d3bf 9fa1 953f
000003e0: ca05 63bf 1676 13bf 5c7b 41bf 809a ed3f
000003f0: 523f 14bf bc40 243f 6b95 6fbf 66a8 733f
-2.064017 1.0767089 -1.0682645 1.4359034 -0.75025123 -0.8734957 -1.2187858 1.1757861
0.774738 -0.73001534 -1.3718474 1.5436127 -0.88351834 -1.0858291 -1.4241179 0.81379056
1.0844345 0.61780465 0.9655304 -1.2295077 -1.1779509 0.13814168 -0.8514514 -0.27446747
-1.4172128 1.0157511 -0.82710564 1.9051111 -0.050880797 -1.5072287 -1.4987634 -1.6257141
-0.8481684 -0.9084935 0.6367271 -0.85384184 1.0888122 2.4122584 0.5018537 0.46422204
-1.3849602 -1.0870392 -1.3466175 -1.4140478 0.34408525 1.1002247 1.2136346 0.0037407088
2.2929125 -0.47176984 0.965949 1.1166775 -1.6152365 -0.88188 -1.0725328 1.3513416
-2.0066 -1.1278051 -1.4716737 -0.9425288 1.0542148 -0.73131424 -1.080295 -0.9625182
1.2341216 -1.5380913 -0.80102813 2.1941657 -1.1780771 -0.8472141 0.6260097 2.1779299
-0.55868006 -1.7513449 1.34839 0.63565755 0.09641397 -1.0120251 0.45443606 1.4885008
-1.6559893 0.10186318 -1.1437235 0.68094397 -0.5984229 -1.0343037 -2.8793483 0.12226564
0.46127656 0.6969957 -0.9271382 0.073204845 -1.4616444 0.7398469 0.92588323 -0.20449293
-2.605219 0.21942434 0.6346944 -0.5938986 -2.2682757 -1.3418015 -1.4645059 -1.4343796
-0.8248244 -1.156113 1.2116283 0.8328437 0.29109114 0.32507142 -1.223503 -0.99555874
-2.3691294 -0.9770534 0.7169297 -0.24596226 -1.6813521 -0.67832476 0.77668476 -1.5946397
-0.641023 1.2042551 1.2430844 -1.2719148 -1.6564262 1.7871875 0.6593645 0.6181299
-0.8404682 -0.47792205 -1.1373914 1.2807384 -0.33580288 2.0629194 0.6482568 0.9003166
-1.473117 -1.39799 -0.80961645 -0.680909 -0.9932673 -1.1216973 -0.8670127 -1.2724731
1.5933843 1.28519 0.74523973 0.9333653 -0.79896843 -1.8809187 -0.77393985 -1.04158
-1.8046863 -1.0138454 -1.2350223 1.3246051 -1.397275 0.36368737 -1.4203105 -1.3691875
0.15631124 -1.8419131 -1.8314753 -1.5665219 -0.9173959 -1.6703566 -0.86323565 0.72803235
-0.5778193 -1.6040027 0.9193161 -1.6627041 -1.4498165 -1.3762133 -0.5470482 -1.1857475
-0.8108825 0.99692804 0.73272383 1.9018245 -0.71441126 0.29016542 -2.2560277 -0.95346576
-0.42598942 1.7615407 0.79679483 -0.35336113 -0.57034683 0.9665562 -1.5642366 0.98323274
0.8693436 -0.9893105 0.47023 1.2356277 -1.4257945 -1.9121087 -1.1393156 0.83154637
-0.56031936 -1.7795842 -1.0719527 -1.4282798 -0.47218955 -0.22028227 -2.297951 0.26972905
0.23024347 1.374328 0.9305606 -1.7744162 -1.2397467 -1.2997928 -0.3361334 1.4623693
1.3369727 -1.2437885 -0.78751516 2.106756 -0.29082453 1.1402818 -0.9754778 1.9941832
2.0331311 0.95071924 -0.1205905 0.8235308 1.009842 0.90415746 -1.2990047 -1.9331536
-1.3902293 -1.237985 -2.1358669 0.7487631 -0.71068656 -0.6127483 -1.2122997 0.7306998
-0.91890836 0.7738976 1.8742303 0.763953 0.5889093 -1.2700758 -1.6521409 1.1689948
-0.8868071 -0.5760206 -0.75578856 1.8562775 -0.5790912 0.64161277 -0.9358737 0.9517883

last_layer.variational_strategy._variational_distribution.variational_mean f4 [128]
00000000: 5eac 1240 d3b9 1440 c436 1640 2f0d 1340
00000010: 8e63 1940 f973 1640 6010 1640 eff7 1340
00000020: 17d2 1540 e0fc 1540 7c71 1940 dc3a 1640
00000030: 88c8 1440 78f4 1740 5677 1940 08c5 1a40
00000040: 9baf 1740 e3fb 1740 e624 1840 07d1 1940
00000050: 0068 1a40 67f4 1940 4e75 1940 92bc 1c40
00000060: ecbf 1640 588c 1540 d1eb 1640 f0d1 1840
00000070: b0e7 1840 e840 1840 013e 1740 7797 1940
00000080: 550f 1c40 18bf 1740 fd96 1540 fa83 1840
00000090: 7e59 1540 372f 1a40 01c9 1540 e14a 1940
000000a0: dbca 1640 bd38 1940 667e 1d40 2903 1c40
000000b0: 28a4 1940 9177 1a40 8a30 1840 1ba1 1b40
000000c0: d5dd 1640 7491 1b40 e3f3 4640 c894 1740
000000d0: c82b 1640 71c8 1740 28ac 1b40 1d3b 1b40
000000e0: 9bfa 1a40 770f 1840 74b9 1740 8318 1b40
000000f0: cd8c 1840 0206 1d40 fbff 1c40 c1e0 1f40
00000100: 2289 1940 d455 1840 e2fa 1a40 0ff6 1740
00000110: bea5 1540 b05e 1d40 61dd 1840 3950 1940
00000120: 2abc 1940 4d7f 2040 02b3 1840 25f8 1740
00000130: 861e 2640 70e4 2140 7ed9 1f40 f660 2040
00000140: 1b34 1b40 b725 1b40 5fed 2040 76af 1e40
00000150: 7c90 2940 45f7 1e40 c30d 1e40 9db3 1940
00000160: 14b5 1b40 e3df 1e40 2b8a 1740 7772 1d40
00000170: 56d7 2140 4f41 1a40 846c 1840 365c 1f40
00000180: ce49 1b40 325f 2340 b081 1d40 b554 1d40
00000190: 13d4 1b40 546a 2140 10a8 2d40 2593 2340
000001a0: c700 3040 76ad 1f40 4308 2440 17d9 2340
000001b0: de35 2f40 3ae2 2140 6df8 2440 4456 1e40
000001c0: 3006 2140 bea1 2b40 fdb7 1c40 6250 1f40
000001d0: 174b 3240 e397 3040 a15d 2540 5348 59c0
000001e0: 08fa 2140 dea5 1e40 114b 2b40 79a8 4f40
000001f0: 7c48 3840 1021 3340 9bc2 3140 fea1 3440
2.2917705 2.3238418 2.3470926 2.2976797 2.3967013 2.3508284 2.3447495 2.3120077
2.3409479 2.3435593 2.3975515 2.3473425 2.3247395 2.3742962 2.3979087 2.4182758
2.370093 2.374749 2.377252 2.403383 2.4125977 2.4055421 2.3977847 2.4490094
2.355464 2.336691 2.358143 2.3878136 2.389141 2.3789616 2.3631594 2.3998697
2.4384358 2.3710384 2.3373406 2.3830552 2.3335872 2.4091318 2.3403933 2.3951952
2.3561313 2.394088 2.4608397 2.4376929 2.4006443 2.4135478 2.3779626 2.431708
2.3572896 2.4307528 3.1086357 2.368456 2.3464222 2.371609 2.4323826 2.425483
2.4215457 2.375944 2.3706942 2.423371 2.3835938 2.4534917 2.4531238 2.498093
2.398995 2.3802385 2.4215627 2.3743932 2.338241 2.4589043 2.388512 2.3955214
2.4021096 2.5077698 2.3859258 2.3745205 2.595613 2.5295677 2.4976497 2.505918
2.4250553 2.424177 2.514488 2.4794593 2.6494436 2.4838421 2.46959 2.4015877
2.4329271 2.482415 2.367808 2.4601114 2.528768 2.4102361 2.3816233 2.490003
2.4263797 2.5526853 2.4610405 2.458295 2.434819 2.5221148 2.7133827 2.555856
2.7500474 2.4949622 2.5630043 2.560125 2.7376628 2.5294328 2.5776627 2.4740152
2.5160027 2.681747 2.4487298 2.4892812 2.7858331 2.7592704 2.5838397 -3.3950393
2.5308857 2.4788737 2.6764567 3.2446578 2.879424 2.798893 2.7775028 2.8223872

last_layer.variational_strategy._variational_distribution.chol_variational_covar f4 [128, 128]
00000000: 80ea 683f 0000 0000 0000 0000 0000 0000
00000010: 0000 0000 0000 0000 0000 0000 0000 0000
00000020: 0000 0000 0000 0000 0000 0000 0000 0000
00000030: 0000 0000 0000 0000 0000 0000 0000 0000
00000040: 0000 0000 0000 0000 0000 0000 0000 0000
00000050: 0000 0000 0000 0000 0000 0000 0000 0000
00000060: 0000 0000 0000 0000 0000 0000 0000 0000
00000070: 0000 0000 0000 0000 0000 0000 0000 0000
00000080: 0000 0000 0000 0000 0000 0000 0000 0000
00000090: 0000 0000 0000 0000 0000 0000 0000 0000
000000a0: 0000 0000 0000 0000 0000 0000 0000 0000
000000b0: 0000 0000 0000 0000 0000 0000 0000 0000
000000c0: 0000 0000 0000 0000 0000 0000 0000 0000
000000d0: 0000 0000 0000 0000 0000 0000 0000 0000
000000e0: 0000 0000 0000 0000 0000 0000 0000 0000
000000f0: 0000 0000 0000 0000 0000 0000 0000 0000
00000100: 0000 0000 0000 0000 0000 0000 0000 0000
00000110: 0000 0000 0000 0000 0000 0000 0000 0000
00000120: 0000 0000 0000 0000 0000 0000 0000 0000
00000130: 0000 0000 0000 0000 0000 0000 0000 0000
00000140: 0000 0000 0000 0000 0000 0000 0000 0000
00000150: 0000 0000 0000 0000 0000 0000 0000 0000
00000160: 0000 0000 0000 0000 0000 0000 0000 0000
00000170: 0000 0000 0000 0000 0000 0000 0000 0000
00000180: 0000 0000 0000 0000 0000 0000 0000 0000
00000190: 0000 0000 0000 0000 0000 0000 0000 0000
000001a0: 0000 0000 0000 0000 0000 0000 0000 0000
000001b0: 0000 0000 0000 0000 0000 0000 0000 0000
000001c0: 0000 0000 0000 0000 0000 0000 0000 0000
000001d0: 0000 0000 0000 0000 0000 0000 0000 0000
000001e0: 0000 0000 0000 0000 0000 0000 0000 0000
000001f0: 0000 0000 0000 0000 0000 0000 0000 0000
00000200: 04fb 8ebd f890 613f 0000 0000 0000 0000
00000210: 0000 0000 0000 0000 0000 0000 0000 0000
00000220: 0000 0000 0000 0000 0000 0000 0000 0000
00000230: 0000 0000 0000 0000 0000 0000 0000 0000
00000240: 0000 0000 0000 0000 0000 0000 0000 0000
00000250: 0000 0000 0000 0000 0000 0000 0000 0000
00000260: 0000 0000 0000 0000 0000 0000 0000 0000
00000270: 0000 0000 0000 0000 0000 0000 0000 0000
00000280: 0000 0000 0000 0000 0000 0000 0000 0000
00000290: 0000 0000 0000 0000 0000 0000 0000 0000
000002a0: 0000 0000 0000 0000 0000 0000 0000 0000
000002b0: 0000 0000 0000 0000 0000 0000 0000 0000
000002c0: 0000 0000 0000 0000 0000 0000 0000 0000
000002d0: 0000 0000 0000 0000 0000 0000 0000 0000
000002e0: 0000 0000 0000 0000 0000 0000 0000 0000
000002f0: 0000 0000 0000 0000 0000 0000 0000 0000
00000300: 0000 0000 0000 0000 0000 0000 0000 0000
00000310: 0000 0000 0000 0000 0000 0000 0000 0000
00000320: 0000 0000 0000 0000 0000 0000 0000 0000
00000330: 0000 0000 0000 0000 0000 0000 0000 0000
00000340: 0000 0000 0000 0000 0000 0000 0000 0000
00000350: 0000 0000 0000 0000 0000 0000 0000 0000
00000360: 0000 0000 0000 0000 0000 0000 0000 0000
00000370: 0000 0000 0000 0000 0000 0000 0000 0000
00000380: 0000 0000 0000 0000 0000 0000 0000 0000
00000390: 0000 0000 0000 0000 0000 0000 0000 0000
000003a0: 0000 0000 0000 0000 0000 0000 0000 0000
000003b0: 0000 0000 0000 0000 0000 0000 0000 0000
000003c0: 0000 0000 0000 0000 0000 0000 0000 0000
000003d0: 0000 0000 0000 0000 0000 0000 0000 0000
000003e0: 0000 0000 0000 0000 0000 0000 0000 0000
000003f0: 0000 0000 0000 0000 0000 0000 0000 0000
0.9098282 0.0 0.0 0.0 0.0 0.0 0.0 0.0
0.0 0.0 0.0 0.0 0.0 0.0 0.0 0.0
0.0 0.0 0.0 0.0 0.0 0.0 0.0 0.0
0.0 0.0 0.0 0.0 0.0 0.0 0.0 0.0
0.0 0.0 0.0 0.0 0.0 0.0 0.0 0.0
0.0 0.0 0.0 0.0 0.0 0.0 0.0 0.0
0.0 0.0 0.0 0.0 0.0 0.0 0.0 0.0
0.0 0.0 0.0 0.0 0.0 0.0 0.0 0.0
0.0 0.0 0.0 0.0 0.0 0.0 0.0 0.0
0.0 0.0 0.0 0.0 0.0 0.0 0.0 0.0
0.0 0.0 0.0 0.0 0.0 0.0 0.0 0.0
0.0 0.0 0.0 0.0 0.0 0.0 0.0 0.0
0.0 0.0 0.0 0.0 0.0 0.0 0.0 0.0
0.0 0.0 0.0 0.0 0.0 0.0 0.0 0.0
0.0 0.0 0.0 0.0 0.0 0.0 0.0 0.0
0.0 0.0 0.0 0.0 0.0 0.0 0.0 0.0
-0.06981471 0.8811183 0.0 0.0 0.0 0.0 0.0 0.0
0.0 0.0 0.0 0.0 0.0 0.0 0.0 0.0
0.0 0.0 0.0 0.0 0.0 0.0 0.0 0.0
0.0 0.0 0.0 0.0 0.0 0.0 0.0 0.0
0.0 0.0 0.0 0.0 0.0 0.0 0.0 0.0
0.0 0.0 0.0 0.0 0.0 0.0 0.0 0.0
0.0 0.0 0.0 0.0 0.0 0.0 0.0 0.0
0.0 0.0 0.0 0.0 0.0 0.0 0.0 0.0
0.0 0.0 0.0 0.0 0.0 0.0 0.0 0.0
0.0 0.0 0.0 0.0 0.0 0.0 0.0 0.0
0.0 0.0 0.0 0.0 0.0 0.0 0.0 0.0
0.0 0.0 0.0 0.0 0.0 0.0 0.0 0.0
0.0 0.0 0.0 0.0 0.0 0.0 0.0 0.0
0.0 0.0 0.0 0.0 0.0 0.0 0.0 0.0
0.0 0.0 0.0 0.0 0.0 0.0 0.0 0.0
0.0 0.0 0.0 0.0 0.0 0.0 0.0 0.0

last_layer.covar_module.base_kernel.raw_lengthscale f4 [1, 10]
00000000: 03c0 e93f 8888 d73f 3016 e53f 0c82 e43f
00000010: 5b04 e73f f89b e83f 8da5 e33f 50be df3f
00000020: 0052 e83f f06a e33f
1.8261722 1.6838541 1.7897396 1.7852187 1.8048204 1.8172598 1.7784897 1.7479954
1.8150024 1.776701
