CompareCQR/Experiments/EXP1/model_bin/GPmodel_on_concrete.pth (torch, 784057 bytes, 10 tensors)

hidden_layer.variational_strategy.inducing_points f4 [10, 128, 8]
00000000: 9130 183f 4882 cc3d 2881 5039 4d25 38bf
00000010: b3ed 063e 2012 f13e f3b4 b63e 3d42 bdbd
00000020: 9723 34bf 8412 bc3f b47f 53bf 5edd 40bf
00000030: 6e63 423f f9d2 0fbf b9e7 33bf 3d97 5dbc
00000040: 5fb9 a2bd de64 a0bd 3667 6b3f 86a2 7bbf
00000050: 9e25 c33f 9540 543f 29bf 7e3f 9bd1 b3bc
00000060: 05df 42bf 379f 583f 64a5 59bd 7af0 31bf
00000070: df26 b5bc df47 62bf 4b24 11bf fdab 3d3f
00000080: 0263 263f f1b9 27be cc19 ddbe 5077 513f
00000090: 3e22 89be 821f 3bbe 3581 513f 78cf 84bf
000000a0: f8bc 1d3f c102 35bf 905a c2bf 505d 833f
000000b0: 067f 52bf dd30 563e 9382 483e ea3d 0dbf
000000c0: 1af8 bfbd 033f 84bf f0c9 75bf feba 97bf
000000d0: 3c10 9fbf 888c 1abf fbfc cebd fe7c 34bf
000000e0: fab6 3abf 0eae 313f 5dc2 c83e ac9b 6abf
000000f0: b53c 113f 0012 13bf 7582 c53e 8a42 963d
00000100: a59e b7bf a1b0 283e fc52 f7bd c35e 5fbe
00000110: f752 dd3e 0e96 f6be 3e4c cabd ae67 643f
00000120: 6e9f 53be 2fc4 a5be cae5 2fbf d8f8 bfbd
00000130: dd93 233f a943 71be 96a4 0cbf ccfd 38bf
00000140: 81d1 c7bf 18e2 1bbe 8750 c9be 5f65 ccbe
00000150: 8b6e a5be d7d2 193f 7a06 2e3f 655d e33e
00000160: 9127 0b3f 3937 673f 0905 3ebf f0d9 a9bf
00000170: 0e93 d63f 7e71 90bf 3593 bc3f 19d0 f53d
00000180: e008 763d 7ec8 a73e 93d9 943d 5de5 843e
00000190: f75e dcbe 1249 d03f f635 babd 595c 1a3f
000001a0: 0e70 c9be 38b1 bcbe 9289 67bf 4522 99bf
000001b0: 6b6a 083f 2154 e7be 2100 f23e 2353 3b3d
000001c0: e637 22bf ee4b 7d3f 1d89 76bf d82f c8bb
000001d0: bd47 0dbf 2047 0b40 64e3 81bf b8e9 9fbd
000001e0: b099 cc3f ac92 8bbd 5599 be3e 13b8 13bf
000001f0: 397c 873f 0303 1abf 40ac 9abd 0556 7b3e
00000200: c291 02bf 774c 313e 873b a03f 2f49 1ebd
00000210: 5d2e f53d 7067 903e 9f43 e33d 622a 0fbf
00000220: 9d32 cb3e b5ec dfbe 8ea4 f73e 6275 0fbf
00000230: f0a8 7e3f 5b93 cabe 3199 543f 8847 3bbe
00000240: cec1 1d3e 7f7c 18be dfb2 b3be 9f86 9dbe
00000250: 237d 67bf 832b c73e 8a43 8dbd 94f2 7c3e
00000260: 4c88 393f d930 863f 9fc3 92bf 7713 0abf
00000270: 7566 313f 7d22 adbf aef8 553f 306d 33bf
00000280: 5de6 ed3d 1ae7 663f 2d0a 44bf 033e e33f
00000290: 696c 6fbf 85a3 663e 2f52 e6bf a265 8cbd
000002a0: 5faf c53f 4547 69bf 238f 73bf 6fc8 613d
000002b0: ffd4 14be 61dd 073d 06de 55bf 8f22 febc
000002c0: 2711 053e 4b53 153f 6c34 e4be 34c8 0ebf
000002d0: b2bf dabf 960a 87bf 53b6 2a3d 4daa b3bf
000002e0: 0f66 af3e 7060 043f d7e2 04bf d1b1 363e
000002f0: 9962 223f a528 e43d feab 0f3f 3b7b df3e
00000300: 78bb 253f c913 473f f4c0 dbbe 2d27 c13e
00000310: 7d58 133e e011 3bbf 98d3 31bf 3c3b a13f
00000320: 0405 b93f 9591 903e 7593 1fbf 531e 0b3f
00000330: eb47 dd3e caf0 cabf fb50 993d aff0 1f3f
00000340: 8268 8b3e 3464 843d 3a0b 8c3f ce9d 623f
00000350: af74 203f cd0f b9bf 5e4c 40bf 5094 48be
00000360: 13d1 b7bf 51e6 a03e 8498 893e 22ae c23d
00000370: 0d9c 003e 35b8 423f 4a9e ee3d 40db 3b3f
00000380: 0e0d e53c 4707 03bf ebae 723f f1f1 d2be
00000390: 299c 1a3f f398 b53e c6aa dbbe 2686 fabc
000003a0: 05a9 793f 5d42 88bf d16f 0ebf 3842 f43e
000003b0: 8249 84bf 7643 c73e 8fde 55bf 8357 5abe
000003c0: 2cbf 823f 22d2 1ebf 9a5e d23e d4e8 0b3e
000003d0: c9dc 51be c9a8 e4bf 07fa 1bbc 20a0 7bbc
000003e0: 94a4 3c3f ab10 063f cc5b 2ebf 0bd5 8abe
000003f0: 4d95 c23e 3c7f ae3f 243c 1d3e a34c 4c3f
0.59449106 0.09985787 0.0001988454 -0.71931916 0.13176613 0.4708414 0.35684928 -0.092411496
-0.70366806 1.469315 -0.82616735 -0.7533778 0.7593297 -0.56181294 -0.70275456 -0.013524828
-0.07945513 -0.07831739 0.9195436 -0.98294866 1.5245855 0.82911044 0.9951044 -0.021950534
-0.7612155 0.8461794 -0.053136244 -0.69507563 -0.022113262 -0.88390917 -0.56696004 0.7409056
0.64994824 -0.16379525 -0.43183744 0.8182268 -0.26783937 -0.18273738 0.8183778 -1.0375814
0.6161647 -0.7070733 -1.5183887 1.0262852 -0.8222507 0.20917077 0.1958106 -0.551726
-0.093734935 -1.033173 -0.9601126 -1.185394 -1.2426829 -0.60370684 -0.10106846 -0.7050322
-0.7293545 0.6940621 0.39210787 -0.91643786 0.56733257 -0.5744934 0.38576093 0.0733691
-1.434529 0.16473629 -0.12076375 -0.21813492 0.4322736 -0.48161358 -0.09877823 0.892207
-0.20666286 -0.3237624 -0.68710005 -0.09373635 0.63897496 -0.23560967 -0.5493864 -0.72262263
-1.561081 -0.15222967 -0.3931925 -0.3992109 -0.323109 0.6008734 0.6797863 0.44407192
0.5435725 0.9031864 -0.74226433 -1.3269634 1.6763628 -1.1284635 1.4732424 0.12002582
0.060067058 0.3277015 0.072680615 0.2595624 -0.43041202 1.6272299 -0.090923235 0.6029716
-0.39343303 -0.36853957 -0.9044429 -1.1963583 0.5328738 -0.45181373 0.47265723 0.045733582
-0.63366544 0.98943985 -0.9630297 -0.006109219 -0.5518759 2.1762161 -1.0147519 -0.0780825
1.5984402 -0.06815085 0.37226358 -0.5770275 1.0584785 -0.60160846 -0.07552385 0.24544533
-0.5100366 0.17314325 1.2518166 -0.038644012 0.11971734 0.28203917 0.11096882 -0.55924046
0.39687052 -0.4373528 0.48367733 -0.56038487 0.9947653 -0.39565548 0.8304625 -0.18289006
0.15405962 -0.14891241 -0.35097405 -0.3076677 -0.9042532 0.38900384 -0.06897648 0.24701911
0.724736 1.0483657 -1.1465949 -0.5393595 0.6929696 -1.352615 0.8358258 -0.7008848
0.11616204 0.90196383 -0.76578027 1.77533 -0.93524796 0.22523315 -1.799383 -0.068553224
1.5444144 -0.91124374 -0.95140284 0.05512279 -0.14534377 0.033170108 -0.83541906 -0.031022338
0.12994824 0.5833022 -0.44571245 -0.55774236 -1.7089751 -1.0550106 0.041677784 -1.4036347
0.34257552 0.5170965 -0.5190863 0.17841269 0.634317 0.11140565 0.56121814 0.43648705
0.6473918 0.77764565 -0.4292065 0.377252 0.14389224 -0.7307415 -0.6946349 1.2596202
1.4454656 0.2823607 -0.62334377 0.54343146 0.43218932 -1.5854733 0.07486149 0.6247663
0.2722817 0.06464425 1.0940926 0.8852204 0.62678045 -1.4457947 -0.7511653 -0.19587827
-1.4360679 0.31425717 0.26874173 0.095058694 0.12559529 0.7606233 0.11651285 0.73381424
0.027960327 -0.5118298 0.94798154 -0.41200212 0.6039453 0.35468253 -0.42903727 -0.030581545
0.9752353 -1.0645252 -0.5563937 0.4770677 -1.0334933 0.38918656 -0.8354272 -0.21322446
1.0214591 -0.6203939 0.410878 0.13663036 -0.20494379 -1.7864009 -0.00952006 -0.015358001
0.73688626 0.52369183 -0.6810882 -0.27115664 0.38004532 1.3632579 0.15354973 0.7980444

hidden_layer.variational_strategy._variational_distribution.variational_mean f4 [10, 128]
00000000: 789b 11bf 5988 94be aac0 4bbf 3097 a7bf
00000010: 0cf3 453e 70d6 fcbe 125e 39bf a84e 2cbf
00000020: bc3c 3ebf 513b 3f3e f325 423e 4e83 d7bd
00000030: 0667 2e3f ccdf 0ebf b742 713e 5f5e 5f3e
00000040: fb14 233f d588 3c3d 93d9 aa3e 1731 933e
00000050: 401a ddbd 77e2 02bf c7f9 0940 21a0 3f3f
00000060: 8ade 9bbe 9547 33be f740 34bf 418e 123f
00000070: dd9b 64bf 8ec6 f1be 4daf 5cbf fc56 32bf
00000080: 2e85 1fbf edb6 ea3e e189 f7bc 230c fcbd
00000090: 6b08 b43e 34c2 c03e f0f0 83be 9cab 87bf
000000a0: d97e cabe faf8 1abf a4b1 b1bf 24a6 dbbe
000000b0: b018 9abd 5929 fcbe 9661 013f a373 d73f
000000c0: 00e1 18be a087 663e 951b 5fbf e4eb 1dbf
000000d0: f3b1 52be f1fd b2bf e3c9 bebf 9252 84be
000000e0: e136 893b a09c 1d3e 1008 acbd 0eea d8bf
000000f0: 35d8 3e3e b4b6 01bf 7fcd 83bf 9b17 efbe
00000100: 12e6 49bf af86 4d3f b9bc 833e f5fa aebf
00000110: 0011 cfbf 096e 97bf cabb 09bf ae0a 3b3f
00000120: f507 b33e d21f ce3c 555f 92bd 27d4 c9be
00000130: bd08 e6be 9691 dcbf 0048 303e 37ed 933e
00000140: 5723 393f 3e9c 6a3f f056 423f 10eb d83f
00000150: 433f 2c3f 97b9 843d f4be 0f3f 7a89 da3f
00000160: e872 363d 9132 acbe 3ca3 22bd cb2d aa3f
00000170: c956 8ebf 3bb9 5a3f d7ce babf faa5 0ebf
00000180: ed59 c4bd d52c 92bf c070 383f aba8 fc3e
00000190: b4f7 4f3f ce9c 0a40 4e0e fc3f cda7 37bf
000001a0: 1846 e53f c485 a3bf 8818 26bf f440 943f
000001b0: d7d4 d23f d32c 00c0 1097 93bf c489 96be
000001c0: ff38 81bd 589d b43f b236 2940 7bb1 a5bf
000001d0: 8d6d a93e 1631 a83f 0c3e 61bf f7a7 7c3e
000001e0: 30b3 ddbf 7339 823f 83ec 8c3f f4f4 78bf
000001f0: bccd 8e3f 60af 133f 18fe c5bf dbcd 5040
00000200: b866 2dbf c48b 43bf e7a3 54bf 0546 e63d
00000210: f574 8c3e 276a 14bf d1b9 39bf f9b2 29be
00000220: f83b 05bd 4f50 8abf 7e11 52bf b53c 8c3e
00000230: 32e3 043d 6099 20bf bd1a 28bf 6ec3 f9be
00000240: 3e50 553e 0bfe 5abe 9a2a 6fbf 98f4 b5be
00000250: 84d1 0ebf cc3e ba3e beab 9bbf 78d4 923e
00000260: 7009 62bf ea31 c8bd 573b 353f f45c 1fbf
00000270: dc07 133f f606 92bf 332f b7bf 5056 b23e
00000280: ee4f 5b3f 9b41 3bbf 553a 84bf 37c7 e2bf
00000290: 210d d63e f37f 503e e57c 983d a4f9 17bf
000002a0: 257e 0abf 7d6b e93e 15e4 223f e11d 3cbf
000002b0: a651 4c3e b85d a9be 51ae 3abe 541e 8abd
000002c0: bf89 f2be 1c4a 15be 6127 e33e 3abf 343f
000002d0: a3f7 3cbf 8071 9bbe 6e22 02bf 2834 11bf
000002e0: 2ac5 73be 7fe9 30bf be1e 2f3d 7f83 06bf
000002f0: bf79 82bf 183f 04be 7771 aebf 8001 01be
00000300: 4833 9e3e 227b 94bf d6f1 bf3f af79 b53e
00000310: b973 9c3f 4204 8dbc 6658 e3be 300a 923f
00000320: a945 7abe 5bde d23d 1181 cabf e777 4e3e
00000330: e676 45bf c7ab 16bf e454 46bf 784d 4cbf
00000340: d3b7 bb3e d7c5 8d3e 46c4 39be a7a9 9fbf
00000350: f723 87bf 6e85 93be b36b 593f 117b f1be
00000360: 96bf 6dbf fb58 083f 1d07 44bf f239 f1be
00000370: 7534 15bf f526 73be 5123 02bf a37f 56be
00000380: 686f babe cba9 5bbf 5bda f1be 8d7f f6be
00000390: ef25 8dbf b274 cfbe e011 633f 6fdf 9dbe
000003a0: faa4 653e c4d3 223f 1ca4 a03f cac6 89be
000003b0: ad29 a6bf 3292 22bf 7332 223f 2784 b9be
000003c0: 0dae f93e e7fe f83d 49bd 463f 2a67 853f
000003d0: e442 b83d bd6a 6cbf 1cb8 10bf 4e8f 193f
000003e0: f36e 0bbf 1976 ffbe 9361 513f 0f2e e53d
000003f0: 304c 753f 7554 e8be 8e8c 823e a7df acbf
-0.5687785 -0.29010275 -0.7959086 -1.3093014 0.19330996 -0.49382353 -0.72409165 -0.6730752
-0.74311423 0.18674971 0.18959789 -0.10523091 0.6812595 -0.55810237 0.23560606 0.21813343
0.6370389 0.04602893 0.3336912 0.2874839 -0.107960224 -0.5112681 2.1558702 0.7485371
-0.3044322 -0.17507775 -0.7041163 0.5724831 -0.8930033 -0.47221798 -0.8620499 -0.6966398
-0.6231259 0.45842686 -0.030217113 -0.123070024 0.35162672 0.37648165 -0.25769758 -1.0599246
-0.39549902 -0.6053616 -1.3882337 -0.42900193 -0.0752424 -0.49250296 0.5053953 1.6832165
-0.1492958 0.22512674 -0.8715146 -0.61688066 -0.20575695 -1.3983747 -1.4905361 -0.25844246
0.0041874503 0.15391779 -0.08399975 -1.6946428 0.18637164 -0.5066941 -1.0297087 -0.46697697
-0.78866684 0.80283636 0.2572992 -1.3670336 -1.6177063 -1.1830455 -0.5380217 0.7306317
0.34967008 0.025161657 -0.071470894 -0.39419672 -0.44928542 -1.7231929 0.17214966 0.28891918
0.7231955 0.91644657 0.75913906 1.6946735 0.6728403 0.06480711 0.56150746 1.7073205
0.044543177 -0.3363233 -0.039706454 1.3295225 -1.1120235 0.8543889 -1.4594373 -0.5572201
-0.095874645 -1.1419932 0.7204704 0.49347433 0.8123734 2.1658206 1.9691865 -0.7174042
1.7912016 -1.2775197 -0.6488118 1.1582322 1.6471204 -2.0027359 -1.1530476 -0.29401982
-0.06309699 1.4110518 2.6439633 -1.2944788 0.33091393 1.313998 -0.879853 0.24673449
-1.7320309 1.0173782 1.1009678 -0.9724877 1.1156535 0.57689476 -1.5468168 3.2625644
-0.6773486 -0.7638514 -0.83062595 0.11243824 0.2743298 -0.57974476 -0.7254916 -0.16572179
-0.032527894 -1.0805758 -0.8205794 0.27390066 0.032443233 -0.6273403 -0.656658 -0.48781914
0.20831391 -0.21385972 -0.9342438 -0.35538173 -0.55788445 0.36376035 -1.2161787 0.28677726
-0.8829565 -0.09775145 0.7079367 -0.6225121 0.5743387 -1.1408374 -1.4311279 0.34831476
0.8566884 -0.7314698 -1.0330302 -1.7717046 0.41806892 0.20361309 0.07445697 -0.59365296
-0.5409873 0.4558982 0.63629276 -0.7348309 0.19953021 -0.33079314 -0.18230559 -0.06744066
-0.47370717 -0.14579052 0.4436598 0.7060429 -0.73815364 -0.3036003 -0.50833786 -0.5672021
-0.23805681 -0.69106287 0.042753927 -0.525444 -1.0193404 -0.12914693 -1.3628377 -0.12598228
0.308985 -1.1600077 1.4995677 0.354444 1.2222816 -0.017213944 -0.4440338 1.1409359
-0.24440636 0.10296317 -1.5820638 0.20162927 -0.7713455 -0.5885586 -0.7747328 -0.7980571
0.36663684 0.27690002 -0.18141279 -1.2473649 -1.0557851 -0.28812736 0.8492996 -0.47164205
-0.9287046 0.53260773 -0.76573354 -0.4711452 -0.5828317 -0.2374533 -0.5083514 -0.20947127
-0.3641312 -0.8580596 -0.47236905 -0.4814419 -1.1027201 -0.4051872 0.8869915 -0.3083453
0.22426215 0.6360438 1.2550082 -0.26909477 -1.2981468 -0.63504326 0.6335823 -0.36233637
0.48765603 0.12157994 0.77632576 1.0422108 0.089971334 -0.9235037 -0.5653093 0.5998429
-0.5446617 -0.4989479 0.8178951 0.111904256 0.9581938 -0.45376936 0.2549786 -1.3505753

hidden_layer.variational_strategy._variational_distribution.chol_variational_covar f4 [10, 128, 128]
00000000: e380 5e3e 0000 0000 0000 0000 0000 0000
00000010: 0000 0000 0000 0000 0000 0000 0000 0000
00000020: 0000 0000 0000 0000 0000 0000 0000 0000
00000030: 0000 0000 0000 0000 0000 0000 0000 0000
00000040: 0000 0000 0000 0000 0000 0000 0000 0000
00000050: 0000 0000 0000 0000 0000 0000 0000 0000
00000060: 0000 0000 0000 0000 0000 0000 0000 0000
00000070: 0000 0000 0000 0000 0000 0000 0000 0000
00000080: 0000 0000 0000 0000 0000 0000 0000 0000
00000090: 0000 0000 0000 0000 0000 0000 0000 0000
000000a0: 0000 0000 0000 0000 0000 0000 0000 0000
000000b0: 0000 0000 0000 0000 0000 0000 0000 0000
000000c0: 0000 0000 0000 0000 0000 0000 0000 0000
000000d0: 0000 0000 0000 0000 0000 0000 0000 0000
000000e0: 0000 0000 0000 0000 0000 0000 0000 0000
000000f0: 0000 0000 0000 0000 0000 0000 0000 0000
00000100: 0000 0000 0000 0000 0000 0000 0000 0000
00000110: 0000 0000 0000 0000 0000 0000 0000 0000
00000120: 0000 0000 0000 0000 0000 0000 0000 0000
00000130: 0000 0000 0000 0000 0000 0000 0000 0000
00000140: 0000 0000 0000 0000 0000 0000 0000 0000
00000150: 0000 0000 0000 0000 0000 0000 0000 0000
00000160: 0000 0000 0000 0000 0000 0000 0000 0000
00000170: 0000 0000 0000 0000 0000 0000 0000 0000
00000180: 0000 0000 0000 0000 0000 0000 0000 0000
00000190: 0000 0000 0000 0000 0000 0000 0000 0000
000001a0: 0000 0000 0000 0000 0000 0000 0000 0000
000001b0: 0000 0000 0000 0000 0000 0000 0000 0000
000001c0: 0000 0000 0000 0000 0000 0000 0000 0000
000001d0: 0000 0000 0000 0000 0000 0000 0000 0000
000001e0: 0000 0000 0000 0000 0000 0000 0000 0000
000001f0: 0000 0000 0000 0000 0000 0000 0000 0000
00000200: dbbc 30be 692b a93e 0000 0000 0000 0000
00000210: 0000 0000 0000 0000 0000 0000 0000 0000
00000220: 0000 0000 0000 0000 0000 0000 0000 0000
00000230: 0000 0000 0000 0000 0000 0000 0000 0000
00000240: 0000 0000 0000 0000 0000 0000 0000 0000
00000250: 0000 0000 0000 0000 0000 0000 0000 0000
00000260: 0000 0000 0000 0000 0000 0000 0000 0000
00000270: 0000 0000 0000 0000 0000 0000 0000 0000
00000280: 0000 0000 0000 0000 0000 0000 0000 0000
00000290: 0000 0000 0000 0000 0000 0000 0000 0000
000002a0: 0000 0000 0000 0000 0000 0000 0000 0000
000002b0: 0000 0000 0000 0000 0000 0000 0000 0000
000002c0: 0000 0000 0000 0000 0000 0000 0000 0000
000002d0: 0000 0000 0000 0000 0000 0000 0000 0000
000002e0: 0000 0000 0000 0000 0000 0000 0000 0000
000002f0: 0000 0000 0000 0000 0000 0000 0000 0000
00000300: 0000 0000 0000 0000 0000 0000 0000 0000
00000310: 0000 0000 0000 0000 0000 0000 0000 0000
00000320: 0000 0000 0000 0000 0000 0000 0000 0000
00000330: 0000 0000 0000 0000 0000 0000 0000 0000
00000340: 0000 0000 0000 0000 0000 0000 0000 0000
00000350: 0000 0000 0000 0000 0000 0000 0000 0000
00000360: 0000 0000 0000 0000 0000 0000 0000 0000
00000370: 0000 0000 0000 0000 0000 0000 0000 0000
00000380: 0000 0000 0000 0000 0000 0000 0000 0000
00000390: 0000 0000 0000 0000 0000 0000 0000 0000
000003a0: 0000 0000 0000 0000 0000 0000 0000 0000
000003b0: 0000 0000 0000 0000 0000 0000 0000 0000
000003c0: 0000 0000 0000 0000 0000 0000 0000 0000
000003d0: 0000 0000 0000 0000 0000 0000 0000 0000
000003e0: 0000 0000 0000 0000 0000 0000 0000 0000
000003f0: 0000 0000 0000 0000 0000 0000 0000 0000
0.21728854 0.0 0.0 0.0 0.0 0.0 0.0 0.0
0.0 0.0 0.0 0.0 0.0 0.0 0.0 0.0
0.0 0.0 0.0 0.0 0.0 0.0 0.0 0.0
0.0 0.0 0.0 0.0 0.0 0.0 0.0 0.0
0.0 0.0 0.0 0.0 0.0 0.0 0.0 0.0
0.0 0.0 0.0 0.0 0.0 0.0 0.0 0.0
0.0 0.0 0.0 0.0 0.0 0.0 0.0 0.0
0.0 0.0 0.0 0.0 0.0 0.0 0.0 0.0
0.0 0.0 0.0 0.0 0.0 0.0 0.0 0.0
0.0 0.0 0.0 0.0 0.0 0.0 0.0 0.0
0.0 0.0 0.0 0.0 0.0 0.0 0.0 0.0
0.0 0.0 0.0 0.0 0.0 0.0 0.0 0.0
0.0 0.0 0.0 0.0 0.0 0.0 0.0 0.0
0.0 0.0 0.0 0.0 0.0 0.0 0.0 0.0
0.0 0.0 0.0 0.0 0.0 0.0 0.0 0.0
0.0 0.0 0.0 0.0 0.0 0.0 0.0 0.0
-0.17259543 0.33040932 0.0 0.0 0.0 0.0 0.0 0.0
0.0 0.0 0.0 0.0 0.0 0.0 0.0 0.0
0.0 0.0 0.0 0.0 0.0 0.0 0.0 0.0
0.0 0.0 0.0 0.0 0.0 0.0 0.0 0.0
0.0 0.0 0.0 0.0 0.0 0.0 0.0 0.0
0.0 0.0 0.0 0.0 0.0 0.0 0.0 0.0
0.0 0.0 0.0 0.0 0.0 0.0 0.0 0.0
0.0 0.0 0.0 0.0 0.0 0.0 0.0 0.0
0.0 0.0 0.0 0.0 0.0 0.0 0.0 0.0
0.0 0.0 0.0 0.0 0.0 0.0 0.0 0.0
0.0 0.0 0.0 0.0 0.0 0.0 0.0 0.0
0.0 0.0 0.0 0.0 0.0 0.0 0.0 0.0
0.0 0.0 0.0 0.0 0.0 0.0 0.0 0.0
0.0 0.0 0.0 0.0 0.0 0.0 0.0 0.0
0.0 0.0 0.0 0.0 0.0 0.0 0.0 0.0
0.0 0.0 0.0 0.0 0.0 0.0 0.0 0.0

hidden_layer.mean_module.weights f4 [8, 1]
00000000: 6803 0abf ae02 f5be aa03 acbe b21c 46be
00000010: 545f 63bd 0c16 58be d41e 38be 2819 38be
-0.5391145 -0.47853607 -0.33596545 -0.19346884 -0.055510834 -0.2110216 -0.1798051 -0.17978346

hidden_layer.covar_module.raw_outputscale f4 [10]
00000000: a707 ddbf 0cf9 04c0 78e1 bcbf afc7 edbf
00000010: db55 eebf 29de 03c0 71e8 f8bf 35fb febf
00000020: 298d 04c0 732e edbf
-1.726796 -2.0777006 -1.4756308 -1.8576564 -1.8619951 -2.0604346 -1.9445935 -1.9920412
-2.0711157 -1.85298

hidden_layer.covar_module.base_kernel.raw_lengthscale f4 [10, 1, 8]
00000000: 1fbf 1a40 85d4 1d40 5f61 0b40 fa02 f73f
00000010: 8d25 f23f 7781 cf3f 8bbf 2040 cdbf ba3f
00000020: 4948 1140 a125 0f40 863e f93f 5ce1 e73f
00000030: 0dca 1d40 67ec 1640 5b9f 1340 87b7 2c40
00000040: c78c 6840 533f 5840 9b56 4340 f8f1 2d40
00000050: 46a3 7140 c773 7040 447a 6c40 b060 b4bc
00000060: 01ed f43f 96bd 0140 6076 5f3f a8c3 1540
00000070: 3734 2c40 3a0c ef3f 7443 3040 a9f8 c63f
00000080: 453c 1c40 03b8 2040 1e67 e63f c456 d13f
00000090: ce68 2c40 72c0 2240 a5ea 1340 42bf 2340
000000a0: 9448 0d40 70af 0940 8a7c 2740 59fd f13f
000000b0: 47e3 1540 b5fa 0540 5ee2 1740 0d32 f23f
000000c0: c7e7 1640 f434 2140 76a2 1940 0213 a23f
000000d0: 121c 1640 54e4 1a40 f33e f33f a8d6 4040
000000e0: 8a64 0740 7eb5 0b40 fca5 e13f e6e5 dc3f
000000f0: 1bf6 2040 001e f33f 7644 0b40 73b1 0740
00000100: 166c 0a40 104e 1840 9d01 1840 1aa6 ae3f
00000110: 3c97 2140 0782 0e40 aba8 1140 b905 0840
00000120: 43b0 1840 b8ce 2440 b95a ec3f 22ad 0940
00000130: 7e30 1540 62a3 1740 5332 2e40 a392 e73f
2.417915 2.4660962 2.177818 1.9297783 1.891771 1.6211385 2.5116909 1.4589783
2.270037 2.2366717 1.9472206 1.8115649 2.4654572 2.3581789 2.3066013 2.6987016
3.6335924 3.378865 3.052161 2.7178936 3.7755904 3.7570665 3.6949625 -0.02201876
1.9134828 2.0271964 0.8729 2.340067 2.690687 1.8675606 2.754117 1.5544635
2.4411786 2.5112312 1.8000219 1.6354604 2.6938968 2.542996 2.3111966 2.5585485
2.2075548 2.1513329 2.6169763 1.890544 2.341997 2.093427 2.3731914 1.8921524
2.3578966 2.518857 2.4005408 1.2662051 2.3454633 2.420186 1.9003586 3.0131016
2.1155114 2.1829524 1.762878 1.725766 2.515021 1.899353 2.1760535 2.1202056
2.162847 2.3797646 2.3750985 1.364444 2.5248556 2.2266862 2.2759197 2.1253493
2.3857582 2.575117 1.8465186 2.1511922 2.3310847 2.369347 2.7218215 1.8091625

last_layer.variational_strategy.inducing_points f4 [128, 10]
00000000: ef57 6fbf f479 1bc0 7a7d 8c3f 343f a1bf
00000010: 2e4d e2bf a4e8 8f3f 04fa 303f 9410 833f
00000020: e05e 85bf 9729 d23e c0f4 0c40 0c08 0e3f
00000030: 2221 03c0 5b77 d23f 2b1e 393f fb38 b03f
00000040: 74d2 1ebe 64e6 bebf 635c a83f 04c2 dbbf
00000050: 5f23 5d3f 6f25 913f 3169 c63f 9224 bbbf
00000060: e475 0d40 cff8 86bf ae6d b9bf 07d2 1a40
00000070: 1f47 7dbf 632f cbbe 0ed7 b73f 8ec1 1b40
00000080: c092 e3bf 14a8 db3f b26c 7cbf 9510 c43f
00000090: 1469 a63f 704b ad3f 6326 b43f 0510 c03f
000000a0: 261a 16bf 595d 913f ba74 c43f 7029 c9bf
000000b0: c653 263f 350f b43f c10d 1740 82a6 0a3f
000000c0: d84f c0bf f19e 843f 175b 263f c4e5 8e3f
000000d0: 4c7d 853f a0f1 5a3e 575a 14c0 632e 413f
000000e0: ba1e aa3f ae17 a8bf ef60 b2bf 7572 b03f
000000f0: fe9f 06c0 b08f ad3f 2ba1 af3f 91c2 28bf
00000100: 6709 fd3f 5b43 ae3f 6ef7 093f f0ea 863f
00000110: 3a24 34bf 02c1 bf3f 12f1 0f40 6e8b c13f
00000120: 98f4 4cbf 49ec c23f f5c9 a6bf 0e4c bdbf
00000130: b023 913f 5f63 4c3f 0d6d 0740 1454 ac3f
00000140: 79f0 b03f ee4d 07c0 a45c 583f 253a 3abf
00000150: 53d8 273f 79a7 2ac0 4203 73bf 8e01 e0bf
00000160: 365c aebf 572f 8e3f cdd4 cdbe 1888 003e
00000170: e2a9 bc3f 5cc2 e7bf f533 aebf 4653 593f
00000180: 0570 60be 33f8 0140 729a e8be d84f fa3d
00000190: 9e3f 3c3f 5a92 833f 9469 f5bf 7b98 c13f
000001a0: 778e a4bf 8890 7d3f bea1 233f d89b 41bd
000001b0: 1e49 0940 3ed7 57bf 7c0b e63f 5ce1 a83f
000001c0: 9a12 84bf b21b d7bf b7b6 babe 5ba9 c8bf
000001d0: b6c0 b33f 7e6c 04bf e324 f93f 725b f03e
000001e0: 16a7 4dbf 8355 8a3e e976 07c0 ca8d 7abf
000001f0: 0111 b53f 937d 0f3f f4aa 1540 1d8e 98be
00000200: cd7b 8c3f 2a1a 6fbf c88d 80bf 04fe a33f
00000210: b0a8 be3f 0231 96bf ae4c 5abf e38a 52bf
00000220: d883 a5be 6be6 3dbf 6fa0 09c0 b0b9 d83e
00000230: 2e9e a33f 596f 30bf 90db 8e3f ffd2 72bf
00000240: 0bc3 463f 5601 5a3f c826 a7bf ec2c c43f
00000250: b842 04c0 8d6a 8abf 7ced 933f 5f10 a93f
00000260: 384d 0e3f 22ac a43f d309 d6bf b8d3 df3f
00000270: 17bf 2c3c 7b8e 9a3e a3c3 fcbf c5c9 6b3e
00000280: f303 02bf bc73 f93f eb2d 943f 70a6 febf
00000290: 210f 08bf 6276 473f a37b 0bbf 1827 9e3f
000002a0: 59df 833f ece7 023e f67e c7bf 19d9 f13f
000002b0: 805f 8f3f 32b9 d8be 2cb9 0d40 64b6 b93f
000002c0: fd95 22bf bc12 243f 2557 793f d622 223f
000002d0: 4c77 1a3f d1b0 de3f 9d72 2fbe 7e76 503f
000002e0: 6dba fabf 9b85 aabd be2e cebd 622b 95be
000002f0: 48b9 ff3f 0150 9ebf 2c5b 0940 a149 5cbf
00000300: f1c1 9f3f 32d8 0240 979a 803f 531e 08c0
00000310: 022e cf3e 7ed0 92bc ee62 d5bf c7a4 f73f
00000320: b74a acbf a9ef e6bf 44f0 0cc0 4e7b b0bf
00000330: 6a14 9d3d 99a6 d5bf 6a48 10c0 4d18 c2be
00000340: 37f4 ba3f 63c5 963f 922a d23f b769 2bbf
00000350: ffca 313f be85 afbf 2220 5e3d 0ef1 ccbf
00000360: 10c1 cc3f 5d79 dc3f d690 56bf 5f39 42bf
00000370: da28 4c3e 8509 c13f 6024 753f 28c6 e0be
00000380: dd3c 8f3f 18ce 3640 02de 933f 2499 013f
00000390: f6f2 e73f bd89 b9be 3184 8dbf 8bac b43f
000003a0: 78ee 5c3f 0fc6 833f 013c 173f 75b9 983f
000003b0: 55c3 5b3f d417 1cc0 1d14 323f 7180 c7be
000003c0: 4917 503f 3958 bc3f 02b3 61bf ea91 3240
000003d0: b2c4 d5be 8b02 8a3f 13b1 c33e 7ba5 b8bf
000003e0: 0c0c 70bf 2adf 63bf 1800 ebbf 1194 173f
000003f0: 6066 65bd fb1f 20bf 1e69 75bf 4e4f b93f
-0.9349355 -2.4293184 1.0975792 -1.2597413 -1.7679803 1.1242871 0.69131494 1.0239434
-1.0419579 0.41047356 2.2024384 0.5548103 -2.0488973 1.6442674 0.7231166 1.3767389
-0.15509969 -1.491406 1.3153194 -1.7168584 0.86382097 1.1339549 1.5500852 -1.4620535
2.2103205 -1.054468 -1.4486597 2.419069 -0.9893665 -0.3968459 1.4362504 2.4336886
-1.777916 1.7160668 -0.98603356 1.531756 1.3000817 1.3538647 1.4074215 1.5004889
-0.5863365 1.1356612 1.5348122 -1.5715771 0.6497158 1.4067141 2.3602145 0.5416032
-1.5024366 1.0361005 0.6498274 1.1163869 1.0428863 0.21381235 -2.318014 0.75461406
1.3290627 -1.3132226 -1.3935832 1.378493 -2.1035151 1.3559475 1.372106 -0.65921885
1.9768494 1.3614305 0.5389317 1.0540447 -0.7036778 1.4980776 2.2490888 1.5120676
-0.8006072 1.5228359 -1.3030382 -1.4788835 1.1339016 0.7983913 2.116031 1.3463159
1.3823386 -2.1141315 0.8451636 -0.7274497 0.6556446 -2.6664717 -0.94926846 -1.7500474
-1.362189 1.1108197 -0.40201417 0.12551916 1.4739344 -1.8106189 -1.3609606 0.8489269
-0.21917732 2.0307739 -0.45430332 0.1222226 0.7353457 1.0279038 -1.9172845 1.5124658
-1.2855977 0.9904866 0.63918674 -0.047267765 2.1450877 -0.8431281 1.7972255 1.3193774
-1.0318177 -1.6805327 -0.36467525 -1.5676683 1.4043186 -0.51728046 1.9464382 0.46944767
-0.8033308 0.27018365 -2.1166327 -0.978726 1.4145814 0.56050986 2.3385592 -0.29795924
1.0975281 -0.933993 -1.0043268 1.2811894 1.4895229 -1.1733706 -0.85273254 -0.82243174
-0.3232715 -0.74179715 -2.150417 0.42329168 1.2782648 -0.68919903 1.1160755 -0.94853204
0.7764136 0.8515829 -1.305871 1.5326209 -2.0665722 -1.0813767 1.155685 1.3208121
0.55586576 1.2865031 -1.6721748 1.7486486 0.010543606 0.3018683 -1.9747204 0.23026188
-0.50787276 1.9488444 1.1576513 -1.9894543 -0.53148085 0.7791501 -0.5448553 1.235568
1.0302535 0.12783784 -1.558562 1.8894378 1.1201019 -0.42328793 2.214427 1.4508786
-0.63510114 0.64091086 0.97398597 0.63334405 0.6033828 1.739771 -0.17133565 0.81430805
-1.9588143 -0.083262645 -0.10067509 -0.2913466 1.9978418 -1.2368165 2.1461897 -0.8604985
1.2481061 2.0444455 1.0047177 -2.1268508 0.4046479 -0.017921682 -1.6670816 1.9347161
-1.3460301 -1.8041888 -2.2021646 -1.378763 0.07669909 -1.6691467 -2.2544198 -0.37909165
1.4605778 1.1778988 1.6419241 -0.66958183 0.6945037 -1.371269 0.054229863 -1.6011064
1.5996418 1.7224537 -0.8381475 -0.7586879 0.19937459 1.508103 0.9575863 -0.4390118
1.1190449 2.856329 1.1552126 0.506243 1.8121021 -0.36237898 -1.1055967 1.4115156
0.86301374 1.0294818 0.59075934 1.1931597 0.8584493 -2.4389544 0.6956194 -0.3896518
0.8128553 1.4714423 -0.8816377 2.790156 -0.4175163 1.0782026 0.38221034 -1.4425501
-0.9376838 -0.89012396 -1.8359404 0.59210306 -0.056005836 -0.625488 -0.9586352 1.4477327

last_layer.variational_strategy._variational_distribution.variational_mean f4 [128]
00000000: 5ad5 5140 ee02 4d40 d555 4c40 4e0e 4240
00000010: d115 4940 3e62 4c40 55e0 4740 1318 4c40
00000020: b9c8 4f40 2099 4c40 8c6a 4c40 df49 4e40
00000030: 9adf 4f40 678a 4d40 96e0 4d40 6c4d 5040
00000040: c118 4d40 98e7 4840 def5 4c40 c05b 5140
00000050: 8a10 5540 efc7 5140 d71e 3c40 304c 4d40
00000060: a950 4b40 b5f5 5240 62ce 5240 f0d8 5240
00000070: d50b 4d40 dff4 5440 106f 4340 a639 3440
00000080: 9b2c 4f40 9be2 4140 80b9 5640 3fbb 5440
00000090: 1bb0 5440 3542 5240 1629 4c40 e1c4 4e40
000000a0: 0cea 4f40 96e0 4f40 05cc 5340 4b72 5540
000000b0: 1cbb 5140 52c7 4b40 1408 4e40 9fa9 5540
000000c0: 5810 5040 3da0 5540 cc34 5440 c4bb 5440
000000d0: 7407 5540 a3df 5640 6e67 5a40 0017 5540
000000e0: 59b9 5540 6f75 3840 f921 5240 2d07 5940
000000f0: e2e4 1f40 f5e3 5140 2b3f 5940 96ca 5740
00000100: 3a51 5340 42af 5a40 40ac 5940 1549 5840
00000110: 4e86 5940 a873 5640 9a1d 5840 a0f4 5540
00000120: b7af 4c40 2145 5d40 cc48 5e40 340e 5d40
00000130: 5235 5f40 74de 5740 8bf6 4e40 2539 6240
00000140: b832 5840 4a0e 7040 c9f6 5d40 8e79 5740
00000150: 4c98 5340 84bf 5a40 d7d0 4940 e5a8 5840
00000160: f04d 5840 0eea 5940 bed7 5940 0bfb 5940
00000170: 27a9 5b40 e7fd 5540 0bc8 5e40 d98a 5740
00000180: 6d44 5b40 ac31 5b40 3093 5140 55a4 5640
00000190: 63ee 5940 e61a 5b40 780f 6340 1329 5b40
000001a0: 87e8 7340 315b 6a40 09a1 6140 3496 6040
000001b0: 333e 6540 9ec2 5040 80de 7640 f673 5e40
000001c0: 2eb4 8440 9264 7b40 505c 5b40 f38b 6f40
000001d0: 5021 5540 0ecf 6440 ae4d 7040 f026 6c40
000001e0: 6d55 8040 300f 7240 baea 4740 fb79 9840
000001f0: 1b96 5d40 7619 7040 0130 7540 ba57 5b40
3.278647 3.2033038 3.1927388 3.032123 3.1419566 3.1934962 3.1230671 3.1889694
3.2466261 3.196846 3.194003 3.2232587 3.2480226 3.2115724 3.2168326 3.2547255
3.2046359 3.1391354 3.2025065 3.271225 3.3291345 3.277828 2.9393823 3.207775
3.176798 3.2962468 3.2938466 3.2944908 3.2038472 3.3274457 3.0536537 2.8160186
3.2370975 3.029456 3.355072 3.3239286 3.3232486 3.285291 3.1900077 3.2307665
3.24866 3.2480826 3.3093274 3.335101 3.2770452 3.1840405 3.219243 3.3384778
3.2509975 3.3379052 3.3157225 3.3239603 3.32858 3.3573997 3.4125628 3.3295288
3.3394377 2.8821676 3.2833235 3.391063 2.498345 3.2795384 3.3944805 3.3717399
3.3018327 3.416947 3.4011383 3.3794606 3.3988223 3.350809 3.3768067 3.3430557
3.1982248 3.4573443 3.4731932 3.453992 3.4876294 3.3729525 3.2337978 3.5347378
3.3780956 3.7508721 3.4681876 3.366794 3.3061705 3.4179392 3.1533716 3.3853085
3.379757 3.4049106 3.4037929 3.4059474 3.4321992 3.343622 3.4809597 3.3678496
3.4260514 3.4249067 3.2746086 3.35378 3.405175 3.4235168 3.5478191 3.424382
3.8110673 3.661816 3.5254538 3.5091677 3.5819213 3.2618785 3.8573303 3.4758277
4.1469946 3.9280133 3.4275093 3.7429168 3.3301582 3.5751376 3.7547412 3.6898766
4.010428 3.782177 3.1237016 4.76489 3.4622867 3.751554 3.831055 3.4272294

last_layer.variational_strategy._variational_distribution.chol_variational_covar f4 [128, 128]
00000000: cd1d 633f 0000 0000 0000 0000 0000 0000
00000010: 0000 0000 0000 0000 0000 0000 0000 0000
00000020: 0000 0000 0000 0000 0000 0000 0000 0000
00000030: 0000 0000 0000 0000 0000 0000 0000 0000
00000040: 0000 0000 0000 0000 0000 0000 0000 0000
00000050: 0000 0000 0000 0000 0000 0000 0000 0000
00000060: 0000 0000 0000 0000 0000 0000 0000 0000
00000070: 0000 0000 0000 0000 0000 0000 0000 0000
00000080: 0000 0000 0000 0000 0000 0000 0000 0000
00000090: 0000 0000 0000 0000 0000 0000 0000 0000
000000a0: 0000 0000 0000 0000 0000 0000 0000 0000
000000b0: 0000 0000 0000 0000 0000 0000 0000 0000
000000c0: 0000 0000 0000 0000 0000 0000 0000 0000
000000d0: 0000 0000 0000 0000 0000 0000 0000 0000
000000e0: 0000 0000 0000 0000 0000 0000 0000 0000
000000f0: 0000 0000 0000 0000 0000 0000 0000 0000
00000100: 0000 0000 0000 0000 0000 0000 0000 0000
00000110: 0000 0000 0000 0000 0000 0000 0000 0000
00000120: 0000 0000 0000 0000 0000 0000 0000 0000
00000130: 0000 0000 0000 0000 0000 0000 0000 0000
00000140: 0000 0000 0000 0000 0000 0000 0000 0000
00000150: 0000 0000 0000 0000 0000 0000 0000 0000
00000160: 0000 0000 0000 0000 0000 0000 0000 0000
00000170: 0000 0000 0000 0000 0000 0000 0000 0000
00000180: 0000 0000 0000 0000 0000 0000 0000 0000
00000190: 0000 0000 0000 0000 0000 0000 0000 0000
000001a0: 0000 0000 0000 0000 0000 0000 0000 0000
000001b0: 0000 0000 0000 0000 0000 0000 0000 0000
000001c0: 0000 0000 0000 0000 0000 0000 0000 0000
000001d0: 0000 0000 0000 0000 0000 0000 0000 0000
000001e0: 0000 0000 0000 0000 0000 0000 0000 0000
000001f0: 0000 0000 0000 0000 0000 0000 0000 0000
00000200: 5ab6 f73b 8ac1 653f 0000 0000 0000 0000
00000210: 0000 0000 0000 0000 0000 0000 0000 0000
00000220: 0000 0000 0000 0000 0000 0000 0000 0000
00000230: 0000 0000 0000 0000 0000 0000 0000 0000
00000240: 0000 0000 0000 0000 0000 0000 0000 0000
00000250: 0000 0000 0000 0000 0000 0000 0000 0000
00000260: 0000 0000 0000 0000 0000 0000 0000 0000
00000270: 0000 0000 0000 0000 0000 0000 0000 0000
00000280: 0000 0000 0000 0000 0000 0000 0000 0000
00000290: 0000 0000 0000 0000 0000 0000 0000 0000
000002a0: 0000 0000 0000 0000 0000 0000 0000 0000
000002b0: 0000 0000 0000 0000 0000 0000 0000 0000
000002c0: 0000 0000 0000 0000 0000 0000 0000 0000
000002d0: 0000 0000 0000 0000 0000 0000 0000 0000
000002e0: 0000 0000 0000 0000 0000 0000 0000 0000
000002f0: 0000 0000 0000 0000 0000 0000 0000 0000
00000300: 0000 0000 0000 0000 0000 0000 0000 0000
00000310: 0000 0000 0000 0000 0000 0000 0000 0000
00000320: 0000 0000 0000 0000 0000 0000 0000 0000
00000330: 0000 0000 0000 0000 0000 0000 0000 0000
00000340: 0000 0000 0000 0000 0000 0000 0000 0000
00000350: 0000 0000 0000 0000 0000 0000 0000 0000
00000360: 0000 0000 0000 0000 0000 0000 0000 0000
00000370: 0000 0000 0000 0000 0000 0000 0000 0000
00000380: 0000 0000 0000 0000 0000 0000 0000 0000
00000390: 0000 0000 0000 0000 0000 0000 0000 0000
000003a0: 0000 0000 0000 0000 0000 0000 0000 0000
000003b0: 0000 0000 0000 0000 0000 0000 0000 0000
000003c0: 0000 0000 0000 0000 0000 0000 0000 0000
000003d0: 0000 0000 0000 0000 0000 0000 0000 0000
000003e0: 0000 0000 0000 0000 0000 0000 0000 0000
000003f0: 0000 0000 0000 0000 0000 0000 0000 0000
0.8871735 0.0 0.0 0.0 0.0 0.0 0.0 0.0
0.0 0.0 0.0 0.0 0.0 0.0 0.0 0.0
0.0 0.0 0.0 0.0 0.0 0.0 0.0 0.0
0.0 0.0 0.0 0.0 0.0 0.0 0.0 0.0
0.0 0.0 0.0 0.0 0.0 0.0 0.0 0.0
0.0 0.0 0.0 0.0 0.0 0.0 0.0 0.0
0.0 0.0 0.0 0.0 0.0 0.0 0.0 0.0
0.0 0.0 0.0 0.0 0.0 0.0 0.0 0.0
0.0 0.0 0.0 0.0 0.0 0.0 0.0 0.0
0.0 0.0 0.0 0.0 0.0 0.0 0.0 0.0
0.0 0.0 0.0 0.0 0.0 0.0 0.0 0.0
0.0 0.0 0.0 0.0 0.0 0.0 0.0 0.0
0.0 0.0 0.0 0.0 0.0 0.0 0.0 0.0
0.0 0.0 0.0 0.0 0.0 0.0 0.0 0.0
0.0 0.0 0.0 0.0 0.0 0.0 0.0 0.0
0.0 0.0 0.0 0.0 0.0 0.0 0.0 0.0
0.00755958 0.8974844 0.0 0.0 0.0 0.0 0.0 0.0
0.0 0.0 0.0 0.0 0.0 0.0 0.0 0.0
0.0 0.0 0.0 0.0 0.0 0.0 0.0 0.0
0.0 0.0 0.0 0.0 0.0 0.0 0.0 0.0
0.0 0.0 0.0 0.0 0.0 0.0 0.0 0.0
0.0 0.0 0.0 0.0 0.0 0.0 0.0 0.0
0.0 0.0 0.0 0.0 0.0 0.0 0.0 0.0
0.0 0.0 0.0 0.0 0.0 0.0 0.0 0.0
0.0 0.0 0.0 0.0 0.0 0.0 0.0 0.0
0.0 0.0 0.0 0.0 0.0 0.0 0.0 0.0
0.0 0.0 0.0 0.0 0.0 0.0 0.0 0.0
0.0 0.0 0.0 0.0 0.0 0.0 0.0 0.0
0.0 0.0 0.0 0.0 0.0 0.0 0.0 0.0
0.0 0.0 0.0 0.0 0.0 0.0 0.0 0.0
0.0 0.0 0.0 0.0 0.0 0.0 0.0 0.0
0.0 0.0 0.0 0.0 0.0 0.0 0.0 0.0

last_layer.covar_module.base_kernel.raw_lengthscale f4 [1, 10]
00000000: ff5a 0140 dd57 0a40 aa04 e03f 2c2b 0040
00000010: 12c0 0040 f6a1 0140 46cb f63f 699a 0640
00000020: dd2c 0540 7a39 0340
2.021179 2.1616127 1.7501423 2.002635 2.011723 2.0255103 1.9280784 2.1031744
2.0808632 2.050383
