CompareCQR/Experiments/EXP1/model_bin/GPmodel_on_energy.pth (torch, 783997 bytes, 10 tensors)

hidden_layer.variational_strategy.inducing_points f4 [10, 128, 8]
0	0x3efc303b	0.49255547
1	0xbe86f7bc	-0.2636088
2	0xbf2bff42	-0.6718637
3	0xbfa0ed47	-1.2572411
4	0xbda2d5f0	-0.079509616
5	0x3e21d94c	0.15805548
6	0x3ee34152	0.44385773
7	0xbe1878bc	-0.14889807
8	0xbf21f101	-0.6325837
9	0x3f8e5f07	1.112275
10	0x3e6c8c7a	0.23100463
11	0xbdbeb4d2	-0.093118325
12	0xbca73383	-0.020410305
13	0xbed009df	-0.4063253
14	0xbe44fb01	-0.19236375
15	0xbe72c9db	-0.23709814
16	0x3f080aaf	0.531413
17	0xbea2aa33	-0.31770477
18	0x3e9a50ef	0.30139872
19	0xbf9af3ad	-1.2105614
20	0x3f0e1d97	0.555139
21	0x3f25c8c4	0.6475947
22	0x3f0e3577	0.5555033
23	0xbeb7bc60	-0.35885906
24	0xbeb02844	-0.3440572
25	0x3e6253c8	0.22102273
26	0xbf049cd0	-0.51801777
27	0xbf1a614c	-0.60304713
28	0xbde88001	-0.1135254
29	0xbfb59eef	-1.4189128
30	0xbeaf19c3	-0.34199342
31	0x3d460d3a	0.048352458
32	0x3eaf401e	0.34228605
33	0xbea6f8ba	-0.32611638
34	0xbe5e5bb1	-0.21714665
35	0x3f65b695	0.89731723
36	0x3ed8a625	0.42314258
37	0xbf03b915	-0.5145429
38	0x3f829eb0	1.0204678
39	0x3e17cc86	0.14824113
40	0x3ed6c192	0.41944557
41	0xbba0a605	-0.0049026036
42	0xbf955616	-1.1666896
43	0x3f16640b	0.58746403
44	0xbe96b3ab	-0.2943395
45	0x3f222a39	0.63345677
46	0x3f569fc0	0.8383751
47	0xbf546b02	-0.8297578
48	0xbe574fdd	-0.21026559
49	0x3ee44b53	0.44588718
50	0xbed02fef	-0.4066157
51	0xbeabd0ec	-0.33557832
52	0xbf46a118	-0.7758956
53	0xbf1401b6	-0.5781511
54	0x3e3c2c74	0.18376333
55	0xbe33b68f	-0.1755011
56	0x3ea401ea	0.3203271
57	0x3e6201ce	0.22071001
58	0x3e4b190d	0.19833775
59	0xbee6b8ca	-0.45062858
60	0x3f285596	0.65755594
61	0xbefbc14a	-0.49170905
62	0x3d89e2ee	0.067327365
63	0xbddd4d55	-0.108057655
64	0xbf8cad56	-1.0990398
65	0x3edd9b31	0.43282464
66	0x3c804e35	0.015662292
67	0x3ea55d2c	0.32297647
68	0xbe1d2b64	-0.15348583
69	0xbfbd8fea	-1.4809544
70	0x3ecb9ab4	0.39766467
71	0x3f6cc7c3	0.9249231
72	0xbf70ab3b	-0.94011277
73	0x3f1cb075	0.6120675
74	0x3e9fd349	0.31215885
75	0x3f490e3f	0.7853736
76	0xbf14d916	-0.58143747
77	0xbf4bdaf0	-0.7963095
78	0xbf123ceb	-0.57124203
79	0xbf4135df	-0.75472826
80	0xbf9c55fe	-1.2213743
81	0xbe39ffff	-0.18164061
82	0xbec9073e	-0.39263338
83	0xbd43f672	-0.04784245
84	0xbe5df0ac	-0.2167384
85	0xbec35aea	-0.381553
86	0x3ed5637f	0.41677472
87	0x3f29242e	0.6607083
88	0xbe11cd1f	-0.14238404
89	0x3f6f17f0	0.933959
90	0x3ea1d0fd	0.31604758
91	0xbde3a958	-0.11116284
92	0x3fae6bf2	1.3626692
93	0xbe0ddf65	-0.1385475
94	0x3f4eb978	0.8075175
95	0xbdd1d948	-0.10246521
96	0x3e601686	0.21883592
97	0xbd657d2b	-0.056027573
98	0x3e45008d	0.19238491
99	0xbece020f	-0.40235946
100	0x3cb8855a	0.022524524
101	0x3fbf1103	1.4927067
102	0xbe98c59c	-0.29838264
103	0x3eedae1c	0.46421897
104	0xbe9885f7	-0.29789707
105	0xbf282c56	-0.6569265
106	0xbf2ebe0d	-0.68258744
107	0xbed73a29	-0.4203656
108	0xbe51e980	-0.2049923
109	0x3e51c855	0.20486577
110	0x3f9d8822	1.230717
111	0xbed6454b	-0.4184974
112	0xbf45407b	-0.77051514
113	0x3f873221	1.0562173
114	0x3d69af16	0.05705174
115	0x3f1d0c57	0.61346954
116	0xbf4c2d59	-0.79756695
117	0x3fcb21c7	1.5869683
118	0x3e9ccd33	0.30625305
119	0x3f1563c0	0.5835533
120	0x3f70e84a	0.94104445
121	0xbf3ca843	-0.73694247
122	0x3e51d607	0.20491801
123	0xbf50858f	-0.81453794
124	0x3f77d9f5	0.9681695
125	0x3d64eeda	0.05589185
126	0xbe9fa4fa	-0.31180555
127	0x3f6e8884	0.93177056
128	0x3e1c9cf5	0.1529425
129	0xbe6c208f	-0.23059295
130	0x3ecb81a9	0.3974736
131	0xbecdc13e	-0.40186495
132	0x3dbf048f	0.09327041
133	0x3dec04a5	0.115243234
134	0x3e91d93b	0.28486046
135	0xbc9be7a3	-0.019031351
136	0x3e8e9451	0.2784753
137	0xbe36a8d9	-0.17837848
138	0x3ed55d01	0.4167252
139	0xbef55ad4	-0.4792086
140	0x3f6b8785	0.9200366
141	0x3dfba94d	0.12288151
142	0x3f98d1c7	1.1939019
143	0xbdbf1343	-0.09329846
144	0x3ebc2961	0.3675032
145	0x3edcf00d	0.43151894
146	0xbea58bef	-0.32333323
147	0xbed61dfe	-0.41819757
148	0xbf4c7eaf	-0.79880804
149	0x3f59ae43	0.8503153
150	0x3d7ed117	0.062211122
151	0x3dd35b96	0.10320203
152	0xbde60f08	-0.11233336
153	0x3eb5a318	0.35475993
154	0x3ea7d1d7	0.32777283
155	0xbecf52d7	-0.4049289
156	0x3ea7197a	0.32636625
157	0xbea97440	-0.33096504
158	0x3e278026	0.16357478
159	0xbfb1dd79	-1.3895713
160	0xbf2d887f	-0.677864
161	0x3f2fc3a4	0.686579
162	0xbf960cc8	-1.172265
163	0x3f737dff	0.9511413
164	0xbf754f64	-0.95824265
165	0x3f3c2f33	0.7350952
166	0xbf3ad974	-0.7298806
167	0xbef12bd8	-0.47103763
168	0x3f4fd72d	0.8118771
169	0xbeed9597	-0.4640319
170	0xbf82832d	-1.0196282
171	0xbde2f8da	-0.11082621
172	0x3f25adad	0.64718133
173	0x3c9ad0b1	0.01889834
174	0xbd5b1940	-0.053490877
175	0x3e75fd69	0.2402245
176	0xbe70c9a0	-0.23514414
177	0xbe1d13a3	-0.15339522
178	0x3de8767c	0.11350724
179	0xbe6f1ae7	-0.23350106
180	0xbf49c2e7	-0.7881302
181	0xbfc0375b	-1.5016893
182	0x3e38abd1	0.18034293
183	0xbf89449a	-1.072406
184	0x3f14e1ea	0.5815722
185	0xbf526541	-0.8218575
186	0xbebf0472	-0.3730808
187	0x3ebdc5c6	0.37064952
188	0x3f3678d3	0.71278113
189	0x3ef50c84	0.4786111
190	0x3f8e67f9	1.112548
191	0x3ecd112a	0.40052158
192	0x3f53802c	0.8261745
193	0x3ed31bf7	0.41232273
194	0xbf20cfa4	-0.62816834
195	0x3d311d32	0.043240733
196	0x3ed29aa6	0.41133612
197	0xbfb872a8	-1.440999
198	0x3ed3402a	0.4125989
199	0x3f9df49a	1.2340271
200	0x3e96cb2f	0.29451892
201	0x3e80bafa	0.25142652
202	0xbe73c6a4	-0.23806244
203	0x3f818d89	1.0121318
204	0xbe15acba	-0.14616671
205	0x3ca45c42	0.020063523
206	0xbedcf5d8	-0.43156314
207	0x3f55371b	0.8328721
208	0xbe60d24c	-0.21955222
209	0x3cdf26a0	0.027240098
210	0x3f0e1609	0.5550237
211	0x3f89bf62	1.076153
212	0x3f563ae8	0.83683634
213	0xbf0dcd91	-0.55391794
214	0x3c5edef7	0.013602964
215	0x3e4c59e3	0.19956164
216	0xbf502665	-0.81308585
217	0x3e2a5d62	0.16637185
218	0xbcad8d4e	-0.021185543
219	0x3e5a2fad	0.2130725
220	0xbef276c9	-0.4735625
221	0xbe4731ab	-0.1945254
222	0x3d659e56	0.056059204
223	0x3fa91b32	1.3211424
224	0x3c346af3	0.011011827
225	0xbc8dd2c9	-0.017312424
226	0x3eed8138	0.4638765
227	0xbe2f1f57	-0.17101799
228	0x3f438bdd	0.7638529
229	0x3e555eb3	0.20836906
230	0x3e5a83ef	0.21339391
231	0xbf18d318	-0.59697104
232	0x3f386141	0.720234
233	0xbf206242	-0.6264993
234	0x3dc090ff	0.09402656
235	0xbe29ecd7	-0.16594253
236	0x3e5b88fb	0.21438973
237	0xbeb95cd2	-0.3620363
238	0xbd9fe100	-0.07806587
239	0xbd5d8559	-0.05408225
240	0x3e93f043	0.28894243
241	0x3ed50288	0.41603494
242	0x3e962ae9	0.29329613
243	0x3d2a90e6	0.041642092
244	0xbebab84a	-0.36468726
245	0xbfaf594d	-1.3699127
246	0xbed016c6	-0.40642375
247	0x3d1937ce	0.037406735
248	0x3f216679	0.63046986
249	0xbed0af4a	-0.40758735
250	0x3ebeb3ca	0.37246543
251	0xbec6a617	-0.38798591
252	0x3f466190	0.7749262
253	0x3f466b1c	0.77507186
254	0x3d89bc01	0.06725312
255	0x3e0c2be1	0.13688613

hidden_layer.variational_strategy._variational_distribution.variational_mean f4 [10, 128]
0	0xbf21101b	-0.629152
1	0xbecf5707	-0.40496084
2	0xbefdebb2	-0.49593884
3	0xbf0d0bbb	-0.55096024
4	0xbec059eb	-0.37568602
5	0xbef0f7f6	-0.4706418
6	0x3e84ff6c	0.2597612
7	0xbf288376	-0.65825593
8	0xbe7b92b5	-0.24567683
9	0x3dcd02a5	0.1001027
10	0x3cf85d2e	0.030317869
11	0xbe8da1a2	-0.2766238
12	0x3ec683d6	0.38772458
13	0xbe469fab	-0.19396846
14	0x3f1dc5b4	0.61629796
15	0xbe90bfa8	-0.28271222
16	0xbdb0bc28	-0.08629638
17	0xbe9f0b2e	-0.31063217
18	0x3d28cd94	0.04121168
19	0xbe5ed078	-0.21759212
20	0xbd908a26	-0.070576
21	0xbe3933e9	-0.18086208
22	0xbe0cd9af	-0.13754915
23	0x3e6bf05b	0.23040907
24	0xbe83aa89	-0.25716045
25	0x3e28aa55	0.16471227
26	0xbf08c654	-0.53427625
27	0xbcd72b58	-0.026265785
28	0xbe946182	-0.28980643
29	0xbdc1811c	-0.09448454
30	0xbe82e4ca	-0.25565177
31	0x3ee2cf15	0.44298616
32	0xbec320c3	-0.38110933
33	0x3f0ac196	0.5420164
34	0xbedda2c4	-0.43288243
35	0xbef38d22	-0.47568613
36	0xbe1c23b4	-0.15247995
37	0xbe0e00bb	-0.13867466
38	0x3d281c0c	0.041042373
39	0xbdfaf7de	-0.12254308
40	0xbed71b5a	-0.42013055
41	0xbe84626c	-0.2585634
42	0xbe66a676	-0.22524437
43	0xbec885bd	-0.39164534
44	0xbec5b548	-0.3861487
45	0xbf20930c	-0.62724376
46	0xbe8c0ba4	-0.2735263
47	0x3da89832	0.08232154
48	0x3eec12d4	0.46108115
49	0xbe8d3c8b	-0.27585253
50	0xbf01c18d	-0.5068596
51	0xbef48c28	-0.4776318
52	0x3e93047f	0.28714368
53	0xbedb307c	-0.42810428
54	0xbe9a2fdf	-0.30114648
55	0xbe492b6f	-0.19645475
56	0xbe2da288	-0.16956532
57	0xbea2cbd5	-0.31796136
58	0x3eb13042	0.3460713
59	0x3eefd49d	0.468419
60	0xbea183de	-0.3154592
61	0xbe159a4b	-0.1460964
62	0xbee8c577	-0.45463154
63	0x3e56d4ce	0.20979616
64	0xbea0bad3	-0.31392536
65	0x3e5ae86d	0.21377726
66	0xbe8a3b3d	-0.2699832
67	0x3efccea0	0.49376392
68	0xbd36fa1e	-0.044672124
69	0xbe9f4cba	-0.31113225
70	0xbed15f41	-0.40892985
71	0x3e2d79c4	0.16940981
72	0xbe919bed	-0.28439274
73	0x3e0358cd	0.12826844
74	0xbe8cedae	-0.27525085
75	0x3ef3bc27	0.47604486
76	0x3e709ee3	0.2349811
77	0x3d1b32d5	0.037890274
78	0xbe55d421	-0.20881702
79	0x3da1d134	0.079012305
80	0x3e38e4f9	0.18056096
81	0xbe8fed66	-0.28110808
82	0xbd729d6a	-0.059232153
83	0x3c735afd	0.014853236
84	0xbe9ab697	-0.3021743
85	0x3ecc756c	0.39933336
86	0x3e7efe48	0.24901688
87	0x3e3891a6	0.1802431
88	0xbe9dfc92	-0.30856758
89	0x3f457637	0.77133507
90	0xbda98420	-0.08277154
91	0x3ed25f8b	0.41088519
92	0x3debda89	0.11516292
93	0xbecbaa96	-0.39778584
94	0xbeac93d7	-0.33706543
95	0x3ca213cf	0.019784836
96	0xbe9cdb25	-0.30635944
97	0xbd9f5e17	-0.07781618
98	0x3d26e0d0	0.04074174
99	0x3e52f8dc	0.20602745
100	0xbeb2748c	-0.34854543
101	0x3dcb01f3	0.09912481
102	0x3e8be8f0	0.27326155
103	0x3aa7d1f2	0.0012803657
104	0x3c857fce	0.016296294
105	0xbf3f5e85	-0.747536
106	0xbe638aa8	-0.22220862
107	0x3e3f9161	0.18707801
108	0x3f03571b	0.5130479
109	0xbf079229	-0.529574
110	0xbd53cfc5	-0.051711816
111	0xbed030c9	-0.4066222
112	0x3ec328ae	0.38116974
113	0xbe5a0ebe	-0.21294686
114	0xbe2972e3	-0.16547732
115	0x3ce7620a	0.02824499
116	0x3e891c45	0.2677938
117	0xbf23fa98	-0.6405425
118	0x3dda699c	0.10664675
119	0xbecfb58d	-0.405682
120	0xbd8b647d	-0.06806276
121	0xbed28e1b	-0.41124043
122	0x3eb12c6c	0.34604204
123	0x3e1f7628	0.15572417
124	0xbda91c22	-0.08257319
125	0xbed31e03	-0.41233835
126	0x3ea6a105	0.32544723
127	0x3f34af03	0.70579547
128	0xbf3a38af	-0.7274274
129	0xbf108acd	-0.56461793
130	0xbf193c1c	-0.59857345
131	0xbf0c814f	-0.5488481
132	0xbef1469e	-0.4712419
133	0xbefc77db	-0.49310192
134	0xbe0c2846	-0.13687238
135	0xbe8bf4a3	-0.2733508
136	0xbe9d38b2	-0.30707318
137	0xbf068b1d	-0.5255602
138	0xbf1009d9	-0.56265026
139	0xbebd1e88	-0.36937356
140	0xbe9dcdfc	-0.30821216
141	0xbf0d2b2b	-0.55143994
142	0xbee84082	-0.45361716
143	0xbef2c4ad	-0.47415677
144	0x3ce196ad	0.027537668
145	0xbf00463c	-0.5010717
146	0xbf074de7	-0.52853245
147	0xbc899a43	-0.01679719
148	0xbf1eb9b8	-0.62002134
149	0xbcc933ab	-0.02456077
150	0xbebea52d	-0.37235394
151	0xbe9440e6	-0.28955764
152	0xbeb9a773	-0.36260566
153	0xbea35215	-0.3189856
154	0x3e824f34	0.25451052
155	0xbed805de	-0.42191976
156	0x3ec27a46	0.37983912
157	0xbf23ea96	-0.64029825
158	0xbeaa4127	-0.33252832
159	0xbe7554b6	-0.23958096
160	0x3e3b4386	0.18287477
161	0xbe1a11d1	-0.15045859
162	0xbed9f69a	-0.42570955
163	0xbf0a5967	-0.5404267
164	0xbe845894	-0.2584883
165	0x3c813979	0.015774475
166	0x3e83abf6	0.25717133
167	0xbf0c8c88	-0.54901934
168	0xbeb9293e	-0.36164278
169	0x3ec9f1fc	0.39442432
170	0x3da1a7d6	0.0789334
171	0x3e89c587	0.26908514
172	0x3ed0d498	0.40787196
173	0xbeeb1502	-0.45914465
174	0xbec55d2a	-0.3854764
175	0xbf198954	-0.5997517
176	0x3e43dd95	0.19127496
177	0x3e3ffd1b	0.18748896
178	0xbf0f050c	-0.55867076
179	0x3e97a049	0.29614475
180	0x3e7cf0c3	0.24701218
181	0x3e03d15e	0.12872836
182	0xbf1b45b9	-0.60653263
183	0x3ea1ae70	0.31578398
184	0xbeaad9e5	-0.33369365
185	0xbef0577d	-0.46941748
186	0x3ed34f3a	0.41271383
187	0xbf29d9ca	-0.66347945
188	0xbdafb7e4	-0.08579996
189	0x3ebe784e	0.3720116
190	0x3ebcadcf	0.36851355
191	0xbf27b06d	-0.6550358
192	0xbe0779b9	-0.13230027
193	0xbeaa6f36	-0.33287972
194	0x3e1b9b02	0.1519585
195	0xbe5ed0c8	-0.21759331
196	0xbd1b2a98	-0.037882417
197	0xbda8614f	-0.08221685
198	0xbe665b04	-0.22495657
199	0x3efeecb4	0.49789965
200	0xbe5b36a1	-0.21407558
201	0xbe171a63	-0.1475616
202	0xbdb59336	-0.08865969
203	0x3d4d71d2	0.050157376
204	0xbec2f6c1	-0.38078883
205	0x3e61f17b	0.22064774
206	0x3bdf2646	0.0068099825
207	0xbe833761	-0.25628188
208	0xbeef2380	-0.46706772
209	0x3e1eb7e2	0.15499833
210	0x3e8e0830	0.27740622
211	0xbe09e5e5	-0.13466604
212	0xbdbe9035	-0.09304849
213	0xbea36e62	-0.31920153
214	0x3e735e5c	0.23766464
215	0x3edeb84a	0.43499976
216	0xbee3be2b	-0.44481024
217	0x3f0a2e0f	0.5397653
218	0x3ce7803f	0.028259395
219	0x3ce02a01	0.027363779
220	0x3e5563d7	0.20838867
221	0xbee8d23b	-0.45472893
222	0xbe18e08e	-0.14929411
223	0xbc6983b1	-0.014252589
224	0x3d411d9f	0.04714739
225	0x3cb95933	0.022625541
226	0xbe983294	-0.29726088
227	0xbd02b7da	-0.031913616
228	0xbf00dc39	-0.50336033
229	0xbdbe8a31	-0.09303702
230	0x3df9e306	0.122015044
231	0xbee424a2	-0.445592
232	0x3b9e7af2	0.0048364336
233	0x3dd18bf0	0.10231769
234	0x3e8020eb	0.25025114
235	0xbe611ed9	-0.21984424
236	0x3e8a7a81	0.27046588
237	0xbd265870	-0.040611684
238	0xbe530a6e	-0.20609447
239	0xbd0eb1e5	-0.034837622
240	0x3dc00e3d	0.09377716
241	0xbedc2c3d	-0.430025
242	0x3dc2b57f	0.09507274
243	0x3e8c882a	0.27447635
244	0xbd2a30c7	-0.041550424
245	0xbddc11e6	-0.10745601
246	0xbd73d5a3	-0.05952991
247	0xbbff899a	-0.007798386
248	0xbe8d8d78	-0.27646995
249	0xbc7f7479	-0.015591734
250	0xbdf09310	-0.117468
251	0xbe6924f4	-0.22768003
252	0xbe16558f	-0.14681076
253	0xbe246b6d	-0.16056605
254	0x3ea119d7	0.31465027
255	0x3d200ff5	0.039077718

hidden_layer.variational_strategy._variational_distribution.chol_variational_covar f4 [10, 128, 128]
0	0x3f2fd2ba	0.6868092
1	0x00000000	0.0
2	0x00000000	0.0
3	0x00000000	0.0
4	0x00000000	0.0
5	0x00000000	0.0
6	0x00000000	0.0
7	0x00000000	0.0
8	0x00000000	0.0
9	0x00000000	0.0
10	0x00000000	0.0
11	0x00000000	0.0
12	0x00000000	0.0
13	0x00000000	0.0
14	0x00000000	0.0
15	0x00000000	0.0
16	0x00000000	0.0
17	0x00000000	0.0
18	0x00000000	0.0
19	0x00000000	0.0
20	0x00000000	0.0
21	0x00000000	0.0
22	0x00000000	0.0
23	0x00000000	0.0
24	0x00000000	0.0
25	0x00000000	0.0
26	0x00000000	0.0
27	0x00000000	0.0
28	0x00000000	0.0
29	0x00000000	0.0
30	0x00000000	0.0
31	0x00000000	0.0
32	0x00000000	0.0
33	0x00000000	0.0
34	0x00000000	0.0
35	0x00000000	0.0
36	0x00000000	0.0
37	0x00000000	0.0
38	0x00000000	0.0
39	0x00000000	0.0
40	0x00000000	0.0
41	0x00000000	0.0
42	0x00000000	0.0
43	0x00000000	0.0
44	0x00000000	0.0
45	0x00000000	0.0
46	0x00000000	0.0
47	0x00000000	0.0
48	0x00000000	0.0
49	0x00000000	0.0
50	0x00000000	0.0
51	0x00000000	0.0
52	0x00000000	0.0
53	0x00000000	0.0
54	0x00000000	0.0
55	0x00000000	0.0
56	0x00000000	0.0
57	0x00000000	0.0
58	0x00000000	0.0
59	0x00000000	0.0
60	0x00000000	0.0
61	0x00000000	0.0
62	0x00000000	0.0
63	0x00000000	0.0
64	0x00000000	0.0
65	0x00000000	0.0
66	0x00000000	0.0
67	0x00000000	0.0
68	0x00000000	0.0
69	0x00000000	0.0
70	0x00000000	0.0
71	0x00000000	0.0
72	0x00000000	0.0
73	0x00000000	0.0
74	0x00000000	0.0
75	0x00000000	0.0
76	0x00000000	0.0
77	0x00000000	0.0
78	0x00000000	0.0
79	0x00000000	0.0
80	0x00000000	0.0
81	0x00000000	0.0
82	0x00000000	0.0
83	0x00000000	0.0
84	0x00000000	0.0
85	0x00000000	0.0
86	0x00000000	0.0
87	0x00000000	0.0
88	0x00000000	0.0
89	0x00000000	0.0
90	0x00000000	0.0
91	0x00000000	0.0
92	0x00000000	0.0
93	0x00000000	0.0
94	0x00000000	0.0
95	0x00000000	0.0
96	0x00000000	0.0
97	0x00000000	0.0
98	0x00000000	0.0
99	0x00000000	0.0
100	0x00000000	0.0
101	0x00000000	0.0
102	0x00000000	0.0
103	0x00000000	0.0
104	0x00000000	0.0
105	0x00000000	0.0
106	0x00000000	0.0
107	0x00000000	0.0
108	0x00000000	0.0
109	0x00000000	0.0
110	0x00000000	0.0
111	0x00000000	0.0
112	0x00000000	0.0
113	0x00000000	0.0
114	0x00000000	0.0
115	0x00000000	0.0
116	0x00000000	0.0
117	0x00000000	0.0
118	0x00000000	0.0
119	0x00000000	0.0
120	0x00000000	0.0
121	0x00000000	0.0
122	0x00000000	0.0
123	0x00000000	0.0
124	0x00000000	0.0
125	0x00000000	0.0
126	0x00000000	0.0
127	0x00000000	0.0
128	0xbdcba0cc	-0.09942779
129	0x3f2f14ab	0.6839091
130	0x00000000	0.0
131	0x00000000	0.0
132	0x00000000	0.0
133	0x00000000	0.0
134	0x00000000	0.0
135	0x00000000	0.0
136	0x00000000	0.0
137	0x00000000	0.0
138	0x00000000	0.0
139	0x00000000	0.0
140	0x00000000	0.0
141	0x00000000	0.0
142	0x00000000	0.0
143	0x00000000	0.0
144	0x00000000	0.0
145	0x00000000	0.0
146	0x00000000	0.0
147	0x00000000	0.0
148	0x00000000	0.0
149	0x00000000	0.0
150	0x00000000	0.0
151	0x00000000	0.0
152	0x00000000	0.0
153	0x00000000	0.0
154	0x00000000	0.0
155	0x00000000	0.0
156	0x00000000	0.0
157	0x00000000	0.0
158	0x00000000	0.0
159	0x00000000	0.0
160	0x00000000	0.0
161	0x00000000	0.0
162	0x00000000	0.0
163	0x00000000	0.0
164	0x00000000	0.0
165	0x00000000	0.0
166	0x00000000	0.0
167	0x00000000	0.0
168	0x00000000	0.0
169	0x00000000	0.0
170	0x00000000	0.0
171	0x00000000	0.0
172	0x00000000	0.0
173	0x00000000	0.0
174	0x00000000	0.0
175	0x00000000	0.0
176	0x00000000	0.0
177	0x00000000	0.0
178	0x00000000	0.0
179	0x00000000	0.0
180	0x00000000	0.0
181	0x00000000	0.0
182	0x00000000	0.0
183	0x00000000	0.0
184	0x00000000	0.0
185	0x00000000	0.0
186	0x00000000	0.0
187	0x00000000	0.0
188	0x00000000	0.0
189	0x00000000	0.0
190	0x00000000	0.0
191	0x00000000	0.0
192	0x00000000	0.0
193	0x00000000	0.0
194	0x00000000	0.0
195	0x00000000	0.0
196	0x00000000	0.0
197	0x00000000	0.0
198	0x00000000	0.0
199	0x00000000	0.0
200	0x00000000	0.0
201	0x00000000	0.0
202	0x00000000	0.0
203	0x00000000	0.0
204	0x00000000	0.0
205	0x00000000	0.0
206	0x00000000	0.0
207	0x00000000	0.0
208	0x00000000	0.0
209	0x00000000	0.0
210	0x00000000	0.0
211	0x00000000	0.0
212	0x00000000	0.0
213	0x00000000	0.0
214	0x00000000	0.0
215	0x00000000	0.0
216	0x00000000	0.0
217	0x00000000	0.0
218	0x00000000	0.0
219	0x00000000	0.0
220	0x00000000	0.0
221	0x00000000	0.0
222	0x00000000	0.0
223	0x00000000	0.0
224	0x00000000	0.0
225	0x00000000	0.0
226	0x00000000	0.0
227	0x00000000	0.0
228	0x00000000	0.0
229	0x00000000	0.0
230	0x00000000	0.0
231	0x00000000	0.0
232	0x00000000	0.0
233	0x00000000	0.0
234	0x00000000	0.0
235	0x00000000	0.0
236	0x00000000	0.0
237	0x00000000	0.0
238	0x00000000	0.0
239	0x00000000	0.0
240	0x00000000	0.0
241	0x00000000	0.0
242	0x00000000	0.0
243	0x00000000	0.0
244	0x00000000	0.0
245	0x00000000	0.0
246	0x00000000	0.0
247	0x00000000	0.0
248	0x00000000	0.0
249	0x00000000	0.0
250	0x00000000	0.0
251	0x00000000	0.0
252	0x00000000	0.0
253	0x00000000	0.0
254	0x00000000	0.0
255	0x00000000	0.0

hidden_layer.mean_module.weights f4 [8, 1]
0	0xbf93198b	-1.149217
1	0xbefdb36d	-0.49550954
2	0xbee420f3	-0.44556388
3	0xbf407a95	-0.75187045
4	0x3dae27e6	0.08503704
5	0xbdac2f36	-0.08407442
6	0x3cc888c8	0.024479285
7	0xbc388fdc	-0.0112647675

hidden_layer.covar_module.raw_outputscale f4 [10]
0	0xbff88613	-1.9415916
1	0xc001aec3	-2.0262916
2	0xbff1fcc7	-1.8905267
3	0xbffbfdd6	-1.968684
4	0xbfceed9c	-1.6166263
5	0xbffebea0	-1.9901924
6	0xbfe42279	-1.782302
7	0xbff79a91	-1.9344045
8	0xbfdfd3e1	-1.7486535
9	0xbffd2f08	-1.9779978

hidden_layer.covar_module.base_kernel.raw_lengthscale f4 [10, 1, 8]
0	0x3fde8bb3	1.7386383
1	0x3fd82cbc	1.6888652
2	0x3fc2f3c0	1.5230637
3	0x3fd48249	1.660226
4	0x3fc9c627	1.5763596
5	0x3ff28ac2	1.8948596
6	0x3fefb3e2	1.8726771
7	0x3ffa6790	1.9562855
8	0x3fdd9375	1.7310625
9	0x3fdeb327	1.7398423
10	0x3fe0ee21	1.7572671
11	0x3fdc3548	1.720376
12	0x3fcc4ca7	1.5960892
13	0x3fe820db	1.8135027
14	0x3fe5e41b	1.7960237
15	0x3feb9618	1.840518
16	0x3ffc9b93	1.9734977
17	0x3ff47753	1.9098915
18	0x3fcce274	1.6006608
19	0x3ffa8156	1.957072
20	0x3fe78af8	1.8089285
21	0x40125b6b	2.2868297
22	0x4000cf98	2.0126705
23	0x400102cb	2.0157955
24	0x3fc721d2	1.5557196
25	0x3fc77336	1.5582035
26	0x3fb8e9ef	1.4446391
27	0x3fce7ccc	1.6131835
28	0x3fc0f3a4	1.5074353
29	0x3fe6d4c2	1.8033679
30	0x3fefdf97	1.8740109
31	0x3ff55610	1.9166889
32	0x400b879d	2.1801522
33	0x40117e22	2.2733235
34	0x40198c9f	2.3992078
35	0x4001bbcc	2.0270872
36	0x3fd5233a	1.6651375
37	0x4037b44e	2.87038
38	0x401a3c4a	2.4099298
39	0x40291b46	2.6422896
40	0x3fbbf8f8	1.4685354
41	0x3fb87df4	1.4413438
42	0x3faafea6	1.3358963
43	0x3fcf7eea	1.6210606
44	0x3fbeb7a8	1.4899797
45	0x4000d11c	2.012763
46	0x3ff25332	1.8931639
47	0x3ffd6086	1.9795082
48	0x3fa75015	1.3071314
49	0x3fb67a36	1.4256046
50	0xbe007345	-0.12543972
51	0x3fdf4a4d	1.744455
52	0x3fc5adb0	1.544363
53	0x402485af	2.5706594
54	0x401adaad	2.419597
55	0x40219e5b	2.5252903
56	0x3fd75449	1.6822597
57	0x3fcf419e	1.61919
58	0x3f8f545d	1.1197621
59	0x3fe0e8ab	1.7571005
60	0x3fcaf670	1.5856457
61	0x4002caa6	2.0436187
62	0x3ff773a9	1.9332172
63	0x4000399c	2.0035162
64	0x4012fb79	2.2965987
65	0x40080367	2.1252077
66	0x40133e15	2.3006642
67	0x4002e9ce	2.0455203
68	0x3fdecbb2	1.7405913
69	0x402d5e62	2.7088857
70	0x4024f7f6	2.5776343
71	0x403d100d	2.9541047
72	0x3fced4bd	1.6158673
73	0x3fc76de1	1.5580407
74	0x3fc28429	1.5196582
75	0x3fd8b6b2	1.6930754
76	0x3fcc8535	1.5978152
77	0x3ff6d162	1.9282649
78	0x3ff18605	1.8869025
79	0x3ff9c44f	1.9513034

last_layer.variational_strategy.inducing_points f4 [128, 10]
0	0xbf4b58e9	-0.7943254
1	0xc014f22e	-2.3272815
2	0x3f234fd9	0.6379371
3	0x3f2c327c	0.67264533
4	0xbfcc61d3	-1.5967354
5	0x3f21be90	0.631814
6	0x3f4eb14e	0.80739295
7	0xbdf30ccc	-0.11867675
8	0xbf993835	-1.1970278
9	0x3eea0c2e	0.45712417
10	0x4007d6c5	2.1224835
11	0x3e979fdd	0.29614154
12	0xc0004243	-2.0040443
13	0x3fbbb656	1.466502
14	0x3f486db1	0.78292376
15	0x3fa4a674	1.2863297
16	0xbed7d735	-0.42156377
17	0xbfbcb777	-1.4743489
18	0x3f9d1579	1.2272178
19	0xbfdc8fe5	-1.7231413
20	0xbddf5cfb	-0.109064065
21	0x3f8f88e6	1.1213653
22	0x3fb86dfc	1.4408565
23	0xbf8eb4bb	-1.1148905
24	0x40060a8f	2.0943944
25	0xbf810993	-1.0081047
26	0xbfa1dea6	-1.2646072
27	0x4005e9ec	2.0924025
28	0xbf36a127	-0.7133965
29	0xbea5ae80	-0.32359695
30	0x3fa748ee	1.3069131
31	0x4014c997	2.324804
32	0xbfb66f69	-1.425275
33	0x3fd91058	1.6958113
34	0xbe9f8e39	-0.31163195
35	0x3fb78cea	1.4339879
36	0x3faf8bd4	1.3714547
37	0x3fa74b5a	1.306987
38	0x3fa7b8e4	1.3103299
39	0x3fa10f3a	1.2582772
40	0xbf0b0de9	-0.543181
41	0x3f8345d5	1.0255686
42	0x3fa2a0dd	1.2705342
43	0xbf7f9ef4	-0.9985192
44	0x3f84cc32	1.0374815
45	0x3fa985ea	1.3243992
46	0x400e04fd	2.2190545
47	0x3ea5363b	0.32267937
48	0xbf8169d7	-1.0110425
49	0x3f83aee4	1.0287747
50	0x3ee4885c	0.44635284
51	0x3e7c457f	0.24635886
52	0x3f488ba5	0.7833808
53	0x3eab5d9f	0.33469865
54	0xc00035c7	-2.0032823
55	0x3d2633e7	0.04057684
56	0x3f84ec73	1.0384659
57	0xbf12376e	-0.5711583
58	0xbf789da2	-0.9711553
59	0x3f618116	0.88087595
60	0xc0006cb2	-2.0066342
61	0x3fb88dbb	1.4418253
62	0x3fa545ab	1.2911886
63	0x3e8889cc	0.2666763
64	0x40056ebb	2.0848835
65	0x3f9e311f	1.235874
66	0xbe31fde2	-0.17382005
67	0x3f8a07e1	1.0783654
68	0xbee5c025	-0.44873157
69	0x3fc007b8	1.5002356
70	0x40033e2a	2.0506692
71	0x3fb50adc	1.4143939
72	0xbf1b998d	-0.60781175
73	0x3fb889c3	1.4417042
74	0xbf84f290	-1.0386524
75	0xbfab3822	-1.3376505
76	0x3f8391ed	1.0278908
77	0x3ef47881	0.47748187
78	0x3fd926c8	1.696496
79	0x3f6e3da1	0.9306279
80	0x3f86c283	1.052811
81	0xbfd052a5	-1.6275221
82	0x3e2ec2e6	0.17066535
83	0xbf3c3e3f	-0.7353248
84	0xbd618249	-0.05505589
85	0xc00be0df	-2.1856
86	0xbf11831d	-0.5684069
87	0xbf95d488	-1.1705484
88	0xbf0acde2	-0.542204
89	0x3f552f7a	0.8327557
90	0xbf275baa	-0.65374243
91	0x3ef15a5f	0.4713926
92	0x3f9f6113	1.24515
93	0xbfbd5f6b	-1.4794744
94	0xbf80a3e7	-1.0050019
95	0x3f54d741	0.8314095
96	0x3ea67877	0.32513782
97	0x3fe1526f	1.7603282
98	0xbde192e2	-0.11014344
99	0x3e3714cd	0.17879029
100	0x3f341f9e	0.70360744
101	0x3f76adb5	0.96358806
102	0xbfec2ecf	-1.8451785
103	0x3fb13988	1.3845682
104	0xbf9af165	-1.2104918
105	0x3f739d9a	0.95162356
106	0x3f61815f	0.8808803
107	0xbd5c4d72	-0.053784795
108	0x400db905	2.2144177
109	0xbf68b5e4	-0.90902543
110	0x3fe2c254	1.7715554
111	0x3fa5ed01	1.2962953
112	0xbf862c37	-1.0482243
113	0xbfcac947	-1.5842675
114	0x3f50532e	0.8137692
115	0xbfd9b300	-1.7007751
116	0x3fc4783d	1.5349194
117	0xbf2fbbf5	-0.68646175
118	0x3fec8864	1.8479123
119	0x3e1bc8c0	0.15213299
120	0x3e5aa729	0.21352829
121	0x3e920f54	0.2852732
122	0xbff70ed4	-1.93014
123	0xbf811fd1	-1.0087835
124	0x3fd4f9bd	1.6638714
125	0xbf3c0bc8	-0.73455477
126	0x4013497a	2.3013597
127	0xbc0a9f09	-0.0084607685
128	0x3f96f2af	1.1792811
129	0xbf65c819	-0.8975845
130	0xbed277e3	-0.4110709
131	0x3f703894	0.9383633
132	0x3f89c46d	1.0763069
133	0xbef9889c	-0.48737037
134	0xbed8a789	-0.4231532
135	0xbda3f2f6	-0.080053255
136	0x3e3e9fff	0.18615721
137	0xbee3591e	-0.4440393
138	0xbfce5955	-1.6121012
139	0x3e442edf	0.19158505
140	0x3f015bfc	0.5053098
141	0xbf526713	-0.8218853
142	0x3f7106ce	0.9415101
143	0xbea79895	-0.32733598
144	0x3f05676d	0.5211094
145	0x3f06ce6b	0.5265872
146	0xbf54cdf5	-0.83126765
147	0x3f97dd50	1.1864414
148	0xbfdcc735	-1.7248293
149	0xbf0a7b5c	-0.5409448
150	0x3ef78387	0.48342535
151	0x3e0349c2	0.12821105
152	0x3ebd0fea	0.36926204
153	0x3f12f0b7	0.5739855
154	0xbfa2af81	-1.270981
155	0x3f080693	0.5313503
156	0x3f02c9a8	0.51088953
157	0x3f07078e	0.527459
158	0xbfbec943	-1.490517
159	0x3e8dd8c5	0.27704445
160	0xbf414afd	-0.7550505
161	0x3fe8ca6a	1.8186772
162	0x3f9eb63e	1.2399366
163	0xbfd35f61	-1.6513482
164	0xbf061c3e	-0.52386844
165	0x3f6b9a1f	0.92032045
166	0xbf503672	-0.81333077
167	0x3fa7c797	1.3107785
168	0x3f6ff239	0.9372898
169	0x3f3af2dc	0.73026824
170	0xbfe04af3	-1.7522873
171	0x3feccd06	1.8500068
172	0x3f97a33e	1.1846693
173	0xbe36bca3	-0.17845397
174	0x4011a69a	2.2757936
175	0x3fb630af	1.4233607
176	0xbf5fef7c	-0.874748
177	0x3f88528e	1.0650194
178	0x3f66578c	0.89977336
179	0x3f94cb31	1.1624509
180	0x3f224761	0.63390166
181	0x3fc2c0a2	1.5215037
182	0x3e9a0b69	0.3008683
183	0x3f36dcd1	0.7143069
184	0xbfe29bd0	-1.77038
185	0xbe002447	-0.12513839
186	0xbd4d2f7c	-0.050094113
187	0x3f13dd9a	0.5776001
188	0x3ffb8a03	1.9651493
189	0xbf908cce	-1.129297
190	0x3fce076e	1.6096017
191	0xbeedf630	-0.4647689
192	0x3f5dd555	0.86653644
193	0x3fbb0e98	1.4613829
194	0x3f2a7e05	0.6659854
195	0xbfb5af59	-1.4194137
196	0x3d594ddb	0.053052764
197	0xbdfa349b	-0.12217065
198	0xbf63ba2c	-0.8895595
199	0x3fb72b3a	1.4310067
200	0xbf26d612	-0.65170395
201	0xbfc975e4	-1.5739102
202	0xbfdd1e7e	-1.727493
203	0xbf173841	-0.5907021
204	0x3f396a6f	0.7242803
205	0xbfe73bf0	-1.8065166
206	0xc0021c4f	-2.0329778
207	0x3f04959a	0.51790774
208	0x3f928f57	1.1449994
209	0x3f94c91e	1.1623876
210	0x3fafebb8	1.3743811
211	0xbe43bbe2	-0.1911464
212	0x3e82cfe3	0.2554923
213	0xbf5d1fbc	-0.8637655
214	0x3f07f180	0.53102875
215	0xbf8bff08	-1.0937204
216	0x3faf0358	1.3672895
217	0x3fbae47f	1.4600981
218	0xbee90b58	-0.45516467
219	0xbf0d343a	-0.55157816
220	0xbdc87d52	-0.09789528
221	0x3fc28671	1.5197278
222	0x3f84da58	1.0379133
223	0x3e595d1c	0.21226925
224	0x3ef6f10e	0.48230785
225	0x403711ea	2.8604684
226	0x3fb0f9b3	1.3826202
227	0x3fa760f6	1.3076465
228	0x3fb2857a	1.3946984
229	0x3f0424d4	0.51618695
230	0xbf9aa2d7	-1.2080945
231	0x3fac8aa7	1.3479813
232	0x3f843c17	1.0330838
233	0x3f51a75b	0.8189599
234	0x3ef1a39a	0.4719513
235	0x3f6cdb6b	0.92522305
236	0x3f819afe	1.0125425
237	0xc01d37ea	-2.4565377
238	0x3f0e262c	0.55526996
239	0x3f47ddf9	0.7807308
240	0x3f159517	0.5843062
241	0x3f667fbb	0.9003865
242	0xbed8a2df	-0.4231176
243	0x40176feb	2.366206
244	0xbd770a2b	-0.06031243
245	0x3f6181a2	0.8808843
246	0x3f133c01	0.57513434
247	0xbf7643b2	-0.96197045
248	0xbf04cfb1	-0.5187941
249	0xbec7d849	-0.390322
250	0xbff1d129	-1.8891956
251	0x3f32fd2f	0.6991758
252	0x3f2e564e	0.6810044
253	0x3caba555	0.02095286
254	0xbedf030d	-0.43557015
255	0x3fcaa68f	1.583208

last_layer.variational_strategy._variational_distribution.variational_mean f4 [128]
0	0x4018fd22	2.39045
1	0x401493b7	2.3215158
2	0x40142e45	2.315324
3	0x4010688b	2.2563808
4	0x4012e8e7	2.2954652
5	0x400d2de0	2.205925
6	0x40123cf9	2.2849715
7	0x40131953	2.2984207
8	0x4014f7f0	2.327633
9	0x40147a3c	2.3199606
10	0x40116316	2.2716727
11	0x401593ed	2.3371537
12	0x4015fa96	2.3434196
13	0x4015bcbd	2.3396447
14	0x40160834	2.3442507
15	0x4012858c	2.289401
16	0x40154eb5	2.332929
17	0x40146e9f	2.3192518
18	0x4012c2bd	2.293136
19	0x401232bb	2.2843463
20	0x401abc5c	2.4177465
21	0x40121caf	2.2830007
22	0x400ff0a7	2.2490633
23	0x401429a9	2.3150427
24	0x400e2043	2.220719
25	0x4017708a	2.3662438
26	0x4019b2d7	2.4015405
27	0x401a90b0	2.415081
28	0x400f7deb	2.2420604
29	0x401b15dc	2.4232092
30	0x40117050	2.27248
31	0x400bb91a	2.1831727
32	0x401356a2	2.3021626
33	0x40135d96	2.302587
34	0x401ba8ea	2.4321847
35	0x4016f78c	2.358859
36	0x40172f98	2.36228
37	0x401548e4	2.332574
38	0x40146da3	2.3191917
39	0x40165be6	2.349359
40	0x4012aaae	2.2916675
41	0x401217f5	2.2827122
42	0x400bbbcc	2.1833372
43	0x4017b40c	2.3703642
44	0x40149641	2.3216708
45	0x40114e24	2.2703943
46	0x40133641	2.3001864
47	0x401db3e9	2.4641058
48	0x40153f52	2.3319898
49	0x401bbb8c	2.433322
50	0x4016e10c	2.3574858
51	0x4019a95b	2.4009616
52	0x401e6b5f	2.4753034
53	0x4018158f	2.3763158
54	0x40222fd4	2.5341692
55	0x40175c85	2.365022
56	0x40176722	2.3656697
57	0x400b500c	2.1767607
58	0x401646fd	2.3480828
59	0x40164d2d	2.3484604
60	0x3fc52b93	1.5403923
61	0x4014ed7f	2.3269956
62	0x401d0550	2.4534492
63	0x4016021d	2.343879
64	0x40161ff8	2.3457012
65	0x400c0567	2.1878297
66	0x4017989c	2.3686895
67	0x401530fd	2.331115
68	0x401a5b8f	2.4118383
69	0x401a3491	2.4094584
70	0x401de45a	2.4670625
71	0x40160a9f	2.3443983
72	0x4017ef1c	2.373969
73	0x401ddecf	2.4667242
74	0x401f87ae	2.4926562
75	0x40169e2a	2.3534036
76	0x4010fa38	2.2652721
77	0x400e3ea3	2.222573
78	0x4011d6b1	2.2787287
79	0x401cdd78	2.4510174
80	0x40162b50	2.3463936
81	0x4017adb5	2.3699772
82	0x401b60a4	2.4277735
83	0x40154adc	2.332694
84	0x4018884f	2.3833196
85	0x4015d9f7	2.3414285
86	0x4006a67b	2.1039112
87	0x401bca5f	2.4342268
88	0x4016e839	2.3579237
89	0x4009defa	2.1542344
90	0x40166524	2.3499231
91	0x40157044	2.3349771
92	0x401a7ad2	2.4137464
93	0x4015cbcd	2.340564
94	0x401f739e	2.4914317
95	0x40188015	2.3828175
96	0x40109dbf	2.259628
97	0x401717db	2.360831
98	0x40169c11	2.3532755
99	0x40183440	2.378189
100	0x401a0b17	2.4069269
101	0x4019f41c	2.4055243
102	0x401aa773	2.4164703
103	0x401679a5	2.3511746
104	0x4027a5fb	2.6195056
105	0x401912ba	2.391768
106	0x40201426	2.5012298
107	0x4018fed8	2.3905544
108	0x401a94f9	2.4153426
109	0x401b4ab0	2.4264336
110	0x402378ba	2.5542436
111	0x401fdcf2	2.4978604
112	0x403c4309	2.9415915
113	0x402e3671	2.7220728
114	0x40164b5e	2.34835
115	0x40215031	2.5205195
116	0x401fd82c	2.497569
117	0x401eba86	2.4801345
118	0x401db472	2.4641385
119	0x401e80dc	2.476615
120	0x402a20d8	2.6582546
121	0x4025789b	2.5854862
122	0x400c30fd	2.19049
123	0x40512037	3.2675912
124	0x401e0b37	2.4694345
125	0x4021fb01	2.530945
126	0x4024ba2d	2.5738633
127	0x402b748b	2.6789882

last_layer.variational_strategy._variational_distribution.chol_variational_covar f4 [128, 128]
0	0x3f3d5f0a	0.73973143
1	0x00000000	0.0
2	0x00000000	0.0
3	0x00000000	0.0
4	0x00000000	0.0
5	0x00000000	0.0
6	0x00000000	0.0
7	0x00000000	0.0
8	0x00000000	0.0
9	0x00000000	0.0
10	0x00000000	0.0
11	0x00000000	0.0
12	0x00000000	0.0
13	0x00000000	0.0
14	0x00000000	0.0
15	0x00000000	0.0
16	0x00000000	0.0
17	0x00000000	0.0
18	0x00000000	0.0
19	0x00000000	0.0
20	0x00000000	0.0
21	0x00000000	0.0
22	0x00000000	0.0
23	0x00000000	0.0
24	0x00000000	0.0
25	0x00000000	0.0
26	0x00000000	0.0
27	0x00000000	0.0
28	0x00000000	0.0
29	0x00000000	0.0
30	0x00000000	0.0
31	0x00000000	0.0
32	0x00000000	0.0
33	0x00000000	0.0
34	0x00000000	0.0
35	0x00000000	0.0
36	0x00000000	0.0
37	0x00000000	0.0
38	0x00000000	0.0
39	0x00000000	0.0
40	0x00000000	0.0
41	0x00000000	0.0
42	0x00000000	0.0
43	0x00000000	0.0
44	0x00000000	0.0
45	0x00000000	0.0
46	0x00000000	0.0
47	0x00000000	0.0
48	0x00000000	0.0
49	0x00000000	0.0
50	0x00000000	0.0
51	0x00000000	0.0
52	0x00000000	0.0
53	0x00000000	0.0
54	0x00000000	0.0
55	0x00000000	0.0
56	0x00000000	0.0
57	0x00000000	0.0
58	0x00000000	0.0
59	0x00000000	0.0
60	0x00000000	0.0
61	0x00000000	0.0
62	0x00000000	0.0
63	0x00000000	0.0
64	0x00000000	0.0
65	0x00000000	0.0
66	0x00000000	0.0
67	0x00000000	0.0
68	0x00000000	0.0
69	0x00000000	0.0
70	0x00000000	0.0
71	0x00000000	0.0
72	0x00000000	0.0
73	0x00000000	0.0
74	0x00000000	0.0
75	0x00000000	0.0
76	0x00000000	0.0
77	0x00000000	0.0
78	0x00000000	0.0
79	0x00000000	0.0
80	0x00000000	0.0
81	0x00000000	0.0
82	0x00000000	0.0
83	0x00000000	0.0
84	0x00000000	0.0
85	0x00000000	0.0
86	0x00000000	0.0
87	0x00000000	0.0
88	0x00000000	0.0
89	0x00000000	0.0
90	0x00000000	0.0
91	0x00000000	0.0
92	0x00000000	0.0
93	0x00000000	0.0
94	0x00000000	0.0
95	0x00000000	0.0
96	0x00000000	0.0
97	0x00000000	0.0
98	0x00000000	0.0
99	0x00000000	0.0
100	0x00000000	0.0
101	0x00000000	0.0
102	0x00000000	0.0
103	0x00000000	0.0
104	0x00000000	0.0
105	0x00000000	0.0
106	0x00000000	0.0
107	0x00000000	0.0
108	0x00000000	0.0
109	0x00000000	0.0
110	0x00000000	0.0
111	0x00000000	0.0
112	0x00000000	0.0
113	0x00000000	0.0
114	0x00000000	0.0
115	0x00000000	0.0
116	0x00000000	0.0
117	0x00000000	0.0
118	0x00000000	0.0
119	0x00000000	0.0
120	0x00000000	0.0
121	0x00000000	0.0
122	0x00000000	0.0
123	0x00000000	0.0
124	0x00000000	0.0
125	0x00000000	0.0
126	0x00000000	0.0
127	0x00000000	0.0
128	0xba8ca40d	-0.0010730043
129	0x3f7449ff	0.9542541
130	0x00000000	0.0
131	0x00000000	0.0
132	0x00000000	0.0
133	0x00000000	0.0
134	0x00000000	0.0
135	0x00000000	0.0
136	0x00000000	0.0
137	0x00000000	0.0
138	0x00000000	0.0
139	0x00000000	0.0
140	0x00000000	0.0
141	0x00000000	0.0
142	0x00000000	0.0
143	0x00000000	0.0
144	0x00000000	0.0
145	0x00000000	0.0
146	0x00000000	0.0
147	0x00000000	0.0
148	0x00000000	0.0
149	0x00000000	0.0
150	0x00000000	0.0
151	0x00000000	0.0
152	0x00000000	0.0
153	0x00000000	0.0
154	0x00000000	0.0
155	0x00000000	0.0
156	0x00000000	0.0
157	0x00000000	0.0
158	0x00000000	0.0
159	0x00000000	0.0
160	0x00000000	0.0
161	0x00000000	0.0
162	0x00000000	0.0
163	0x00000000	0.0
164	0x00000000	0.0
165	0x00000000	0.0
166	0x00000000	0.0
167	0x00000000	0.0
168	0x00000000	0.0
169	0x00000000	0.0
170	0x00000000	0.0
171	0x00000000	0.0
172	0x00000000	0.0
173	0x00000000	0.0
174	0x00000000	0.0
175	0x00000000	0.0
176	0x00000000	0.0
177	0x00000000	0.0
178	0x00000000	0.0
179	0x00000000	0.0
180	0x00000000	0.0
181	0x00000000	0.0
182	0x00000000	0.0
183	0x00000000	0.0
184	0x00000000	0.0
185	0x00000000	0.0
186	0x00000000	0.0
187	0x00000000	0.0
188	0x00000000	0.0
189	0x00000000	0.0
190	0x00000000	0.0
191	0x00000000	0.0
192	0x00000000	0.0
193	0x00000000	0.0
194	0x00000000	0.0
195	0x00000000	0.0
196	0x00000000	0.0
197	0x00000000	0.0
198	0x00000000	0.0
199	0x00000000	0.0
200	0x00000000	0.0
201	0x00000000	0.0
202	0x00000000	0.0
203	0x00000000	0.0
204	0x00000000	0.0
205	0x00000000	0.0
206	0x00000000	0.0
207	0x00000000	0.0
208	0x00000000	0.0
209	0x00000000	0.0
210	0x00000000	0.0
211	0x00000000	0.0
212	0x00000000	0.0
213	0x00000000	0.0
214	0x00000000	0.0
215	0x00000000	0.0
216	0x00000000	0.0
217	0x00000000	0.0
218	0x00000000	0.0
219	0x00000000	0.0
220	0x00000000	0.0
221	0x00000000	0.0
222	0x00000000	0.0
223	0x00000000	0.0
224	0x00000000	0.0
225	0x00000000	0.0
226	0x00000000	0.0
227	0x00000000	0.0
228	0x00000000	0.0
229	0x00000000	0.0
230	0x00000000	0.0
231	0x00000000	0.0
232	0x00000000	0.0
233	0x00000000	0.0
234	0x00000000	0.0
235	0x00000000	0.0
236	0x00000000	0.0
237	0x00000000	0.0
238	0x00000000	0.0
239	0x00000000	0.0
240	0x00000000	0.0
241	0x00000000	0.0
242	0x00000000	0.0
243	0x00000000	0.0
244	0x00000000	0.0
245	0x00000000	0.0
246	0x00000000	0.0
247	0x00000000	0.0
248	0x00000000	0.0
249	0x00000000	0.0
250	0x00000000	0.0
251	0x00000000	0.0
252	0x00000000	0.0
253	0x00000000	0.0
254	0x00000000	0.0
255	0x00000000	0.0

last_layer.covar_module.base_kernel.raw_lengthscale f4 [1, 10]
0	0x3fdc8de1	1.7230798
1	0x3fe2e927	1.7727402
2	0x3fd26f58	1.644023
3	0x3fe1d953	1.7644447
4	0x3fd85ab1	1.6902677
5	0x3fd95beb	1.6981176
6	0x3fc9d535	1.5768191
7	0x3fdd362d	1.7282158
8	0x3fe9957d	1.8248745
9	0x3fdce520	1.7257423
