CompareCQR/Experiments/EXP1/model_bin/GPmodel_on_naval.pth (torch, 830431 bytes, 10 tensors)

hidden_layer.variational_strategy.inducing_points f4 [10, 128, 17]
00000000: bd61 b93b 7da2 dc3b aa6a f4bc c739 e6bc
00000010: 96d2 e33c e010 01bd 360c 01bd dbd3 b0bc
00000020: ecc4 1432 c4b6 2cbc 6107 e8bc 715e 0f2a
00000030: f08b d4bc 3cda 28bd 0d95 31bd 8b24 2fbd
00000040: 5360 0bbc 6e3a 8b3b a1f0 903b d695 1fbb
00000050: b664 cfba 63ec 203c dd3f 31bb f21e 31bb
00000060: a86f 53ba 3cf8 3b31 e6a8 a23a 27e7 10bb
00000070: d9e4 4628 1a3f fcba 98ff 8cbb 4401 a2bb
00000080: b2b7 9dbb a06d 11bc aa7c a23b 7dc2 a33b
00000090: 76e9 2b3a 1600 ef3a fe2f bb3b 096a c739
000000a0: 60d1 cf39 8e0d 353b b784 0d30 5bd5 793b
000000b0: b725 9b3a 1cfa 8ba9 c7b8 1f3b a542 11ba
000000c0: acdf 72ba 45ca 4eba 3667 453b d1b8 56ba
000000d0: 3322 efb9 b7b3 17bc f036 21bc 9d73 143c
000000e0: 84d6 18bc a0c8 18bc 31f6 1fbc dace 2ab3
000000f0: ac28 aebb b788 1bbc c620 aaa7 571c 28bc
00000100: 367c 3cbc a4c0 41bc aaee 41bc 26ee f2bc
00000110: 4d6b 243b d39f 2a3b 3904 caba 1cea 6eba
00000120: c329 923b a6a2 deba 4aa5 ddba 729a 8bb9
00000130: 6f79 ec30 c855 ad3a f421 9fba ed3c f0a8
00000140: 5996 c4b9 4a5c 30bb d9b2 3abb cbe9 34bb
00000150: dab7 70bb 38da 533a 4cec 5f3a e6b8 a0bb
00000160: 04be 9ebb 924d 533b 151b a3bb aa84 a2bb
00000170: f8d1 69bb 4f12 efb0 f544 22ba df45 9dbb
00000180: 8b65 b5a8 e88a 87bb c58b d3bb ef95 cbbb
00000190: e668 cbbb bab0 90bc 9d39 a93a a31e a83a
000001a0: b043 49bb 5de0 51bb c593 143a 3e4e 4dbb
000001b0: 4cbe 49bb 13e9 b3ba 02a2 0c30 2e08 913a
000001c0: 492b 3ebb 5465 a4a8 6f86 0ebb e7e2 a0bb
000001d0: aea3 81bb 37c1 8bbb fa0a a9bc 8830 9339
000001e0: efd7 b839 cd73 adbb ed7d b8bb 2ec3 503b
000001f0: 462b b2bb 2d9c b0bb f470 b8bb fda6 b6b0
00000200: f1d6 14bb 861b adbb fcdb 0028 ad7f aebb
00000210: 9b01 debb 78f8 e3bb fdec e4bb 6d83 4dbc
00000220: ddcd f5ba 8a7d e0ba e4e3 1bbc f977 27bc
00000230: 2df5 963b 984e 1bbc d22a 1bbc 7168 0dbc
00000240: 0a26 97b1 0f0d 99bb da1b 1ebc b3b9 f1a7
00000250: cea8 1dbc 8ab4 3cbc 58d2 32bc 378f 33bc
00000260: baa7 c4bc 67b3 c43d 6718 c43d 1bc6 4a3d
00000270: 306f a13d 0008 fd3d f6ef 333d 6be5 333d
00000280: 5e1e ab3d 2f8b 31b2 fcaa c63d 3450 6c3d
00000290: 5583 4329 e070 8f3d b48a 253d a5a0 c23c
000002a0: 3bf3 d33c a314 a53c c23a edb7 a7ee a039
000002b0: 26d3 c2bb b376 d2bb 0352 cb3a 019f c3bb
000002c0: 1d7a c3bb f32b aabb c6f2 25b2 56e5 2fbb
000002d0: 4709 c2bb 6c6b 4228 af57 cdbb 5897 aebb
000002e0: 114b b7bb 17da b8bb 386f ecbb c514 5dba
000002f0: 63a6 03ba a501 76bb cad6 8fbb 37b6 fc3a
00000300: f118 7abb 2922 78bb 4a0d b0bb a858 e8b0
00000310: 0e8d 2bbb 1e3d 82bb 63c7 f628 765e a0bb
00000320: a7da 36bb dc58 83bb 45ec 83bb 1e9c 46bb
00000330: 2b67 f0b7 0455 ac38 9737 ddbb 0231 e7bb
00000340: 293e e33a 5909 d8bb 3773 d6bb 7986 b3bb
00000350: 2bc0 e42f aa5c 39bb b01f e4bb 4026 38a8
00000360: d098 e3bb 1b97 e0bb d2a4 c7bb 93c3 c9bb
00000370: 5a04 77bc 93b3 b9bb c442 bebb 3a08 b53b
00000380: 502b 943b 788c abba beaf b43b 12b5 b33b
00000390: 949a 98ba 85d9 92b2 6da6 98ba c3b8 9f3b
000003a0: 158c 4829 8043 1e3b 2fc8 d43b 24fc 833b
000003b0: 6d17 863b b984 3cbb 011d 3cbb 9854 37bb
000003c0: c5ef a23a ebe3 0a3a 429a dd3a a528 923a
000003d0: 0964 8f3a d3c6 1ebb e916 d3b1 8e6a 92ba
000003e0: e84a 753a f18f 4729 4a27 eeb9 22a7 103b
000003f0: eca6 0339 2997 2939 f227 223a 3f7a 9bba
0.0056574033 0.0067332373 -0.029836018 -0.028103722 0.027810376 -0.031510234 -0.031505786 -0.021585396
8.659509e-09 -0.010541622 -0.028323831 1.2733717e-13 -0.025945634 -0.04122375 -0.043355037 -0.04275946
-0.008506852 0.0042489087 0.0044232165 -0.0024350784 -0.0015822861 0.009821984 -0.0027046122 -0.0027026501
-0.00080656493 2.7353186e-09 0.0012409955 -0.0022110434 1.1040831e-14 -0.001924488 -0.00430293 -0.0049439985
-0.004813158 -0.008876234 0.004958709 0.00499755 0.0006557921 0.0018234279 0.005712508 0.0003803524
0.00039638113 0.0027626487 5.14841e-10 0.0038121555 0.0011836801 -6.216227e-14 0.002437161 -0.0005541242
-0.0009264897 -0.0007888417 0.0030121333 -0.0008190992 -0.00045611113 -0.009259156 -0.009839758 0.0090607675
-0.009328488 -0.0093251765 -0.009763286 -3.976934e-08 -0.005314907 -0.009493045 -4.722001e-15 -0.010260663
-0.011504224 -0.011825714 -0.011836687 -0.029654574 0.002508837 0.0026035204 -0.0015412635 -0.00091138645
0.004460545 -0.0016985729 -0.0016910222 -0.00026627217 1.7205773e-09 0.0013224417 -0.0012140856 -2.6671775e-14
-0.0003749605 -0.0026910477 -0.002848795 -0.0027605172 -0.0036730678 0.00080815284 0.0008541986 -0.004904854
-0.004844429 0.003224228 -0.0049775937 -0.0049596624 -0.003567813 -1.7394742e-09 -0.0006190085 -0.004799589
-2.0139074e-14 -0.004136432 -0.006455871 -0.006212942 -0.006207573 -0.017662395 0.0012910847 0.0012826513
-0.003071051 -0.00320246 0.00056677713 -0.0031327154 -0.0030783592 -0.0013726078 5.116193e-10 0.001106506
-0.00290175 -1.8251602e-14 -0.002174761 -0.0049098614 -0.0039562797 -0.0042649764 -0.020635117 0.00028074184
0.00035256098 -0.0052933455 -0.005630246 0.0031854617 -0.0054372875 -0.0053897114 -0.0056286994 -1.3289704e-09
-0.0022711123 -0.005282822 7.153129e-15 -0.0053252787 -0.0067750937 -0.00695711 -0.006986259 -0.012543541
-0.0018753369 -0.0017127257 -0.009514783 -0.010221475 0.004606864 -0.009479187 -0.009470658 -0.008630858
-4.399003e-09 -0.004670746 -0.009650195 -6.7092273e-15 -0.009622766 -0.011517653 -0.010914408 -0.010959438
-0.02400576 0.09604531 0.09574967 0.049505334 0.078825355 0.123550415 0.043930016 0.043919962
0.083554015 -1.0334403e-08 0.097005814 0.057693675 4.341261e-14 0.07003951 0.04041548 0.023758242
0.025872817 0.020151442 -2.8279963e-05 0.00030695388 -0.005945581 -0.0064228415 0.0015512112 -0.0059698825
-0.005965485 -0.0051932274 -9.659464e-09 -0.0026839576 -0.005921516 1.0792457e-14 -0.006266556 -0.0053281
-0.0055936654 -0.0056412327 -0.0072154067 -0.0008433576 -0.0005022047 -0.0037537601 -0.0043896185 0.0019280378
-0.003816184 -0.0037862158 -0.005372678 -1.6905419e-09 -0.0026176604 -0.003974571 2.7397957e-14 -0.004894073
-0.0027901323 -0.0040083956 -0.0040259683 -0.0030305455 -2.865827e-05 8.2174345e-05 -0.0067510116 -0.0070554027
0.0017337251 -0.006592911 -0.0065444964 -0.005478677 4.1609502e-10 -0.0028283992 -0.0069617853 -1.0222346e-14
-0.006945707 -0.0068539507 -0.006092646 -0.0061573475 -0.015076721 -0.005667159 -0.005806299 0.0055246623
0.004521765 -0.0013088128 0.005514114 0.0054842317 -0.0011642748 -1.7095553e-08 -0.0011646278 0.0048743202
4.4530423e-14 0.002414912 0.0064935903 0.0040278602 0.004092148 -0.0028765632 -0.002870381 -0.0027974006
0.0012431076 0.00052982447 0.0016906934 0.0011151029 0.0010939847 -0.0024227395 -6.143513e-09 -0.0011170672
0.000935717 4.4311726e-14 -0.0004542417 0.0022072275 0.00012555317 0.00016173407 0.0006185762 -0.0011861994

hidden_layer.variational_strategy._variational_distribution.variational_mean f4 [10, 128]
00000000: 9dbc 0dbe a4ae 1c3d ca67 d43c c822 00bb
00000010: 10a7 7d3c 16f3 e63a 8822 aabb ecc2 0c3b
00000020: 4592 6bbc 0fb0 153e a48a a33b 6344 5e3c
00000030: f470 16bc e5bb e83c 0090 bc3c e2ac 7bba
00000040: 90e2 2e3c 81a1 fa3c 3322 e53c c7f0 b13b
00000050: fb82 b13c 585c 913c b3f4 923b 2486 74bb
00000060: 6be3 f73b 6c36 42bb 1e5c 5d3c 371b 5ebb
00000070: a034 ecbb f857 833c ccbc 1c3c 6a8c d2bb
00000080: f197 c53a 6d9e 373b d249 c6ba da8d 68bb
00000090: 519f f9ba abe3 5abb 9f04 adbc 612d 0b3c
000000a0: 3236 f23b b2d9 4ebc ac15 d7bc b3f2 17bc
000000b0: bce8 a4ba 422b 203b e03a 023c a150 973a
000000c0: c7b0 753b 1beb 2f3b fb58 303b 3c7b 243c
000000d0: aa0f 82bb c4e1 febb 7a20 07bc 2620 4d3a
000000e0: 0834 3e3c d6dd 043b e017 34ba c301 7b3c
000000f0: 8e07 833b 4ed4 9fba 67a9 acbc 5605 b5bb
00000100: 16c7 563b b3fd 673b 19b3 44ba afb7 44bc
00000110: 946c fc3a 54b0 a83b 20b1 87bb d0b7 893c
00000120: 6804 53bc 6b8f e63b a0ee 5b39 5654 02bb
00000130: 4788 b9bb bc0c a4bc 336c 2a3c abef 05bb
00000140: 1472 513b eb57 963b 71a6 1e3b d7ed c93a
00000150: 0754 a0ba a9de f43a fd65 6339 72c6 a3ba
00000160: da27 473b b311 d83a bb2a eebb d963 963b
00000170: d3ab 353b 1cec 203b 31b4 023a 9121 583b
00000180: c908 b739 c24d 1b3c 1fb1 8dbc ccd5 d73b
00000190: 9b7b 98be 64e1 ba3b 1b9f 2eb9 1549 b83b
000001a0: 24b7 933b 40e6 6439 6ef7 d93a db44 8e38
000001b0: b007 f63b eefa cb3b 8c7a 5dba c44e cebb
000001c0: adfc 0f37 f468 bcba 5115 8eba 89e4 e03b
000001d0: a40e 943a 77fe 6c3b eb73 25ba 96c9 4b37
000001e0: 892d fab9 38ea 7cbb 7c18 e03a 5bbf 2e3c
000001f0: 406e 71ba 7ac5 66ba 0835 053b a311 aeba
00000200: c23d babd 269c 70be 480f f0bd 118d b7bd
00000210: af0f 88bd 4e05 61bd 4707 41bd f14e 00bf
00000220: e0a7 b53c ac95 973c f5e6 723c 2a6f 2c3c
00000230: 09ed d43b b88d d93b ce93 433a bf09 30ba
00000240: 07ea 07bb ec73 07bb 6374 f9b9 a33b e4ba
00000250: 4107 2bbb d97b 35bb 5b07 5bbb aaec 81bb
00000260: ca68 59bb 26ae 64bb 5e39 45bb c0c9 35bb
00000270: b6bb 39bb 94a6 1fbb 9b19 33bb 37a2 1abb
00000280: 2e43 26bb 2144 14bb e5a2 c9ba f607 10bb
00000290: 72d0 bdba 4cc2 d6ba c2df d8ba 3785 e9ba
000002a0: 5e7e 02bb d9fe b3ba ca75 f6ba e941 deba
000002b0: 829f ceba 4613 cdba 83e9 0c39 cfb2 a539
000002c0: c73e 95ba db48 cbb8 2f14 4e3b 6ab7 d23a
000002d0: b6cc cdba 08e0 9bb9 c408 bfba 87e5 5fba
000002e0: 5d50 2b38 29ae a8ba 4c3e e139 ac0c 94ba
000002f0: 6647 44ba 5880 80ba 83d7 db35 b2e7 68ba
00000300: f2b3 fc38 6703 13ba 5080 2db9 d959 d1ba
00000310: 3be7 51ba 9dd9 7e38 0614 8335 c261 ae3a
00000320: 96a3 60b9 52e5 6b3a d83c 613a cc66 203a
00000330: cc21 633a 3b66 be39 1353 3ebb c14f a63a
00000340: ecff 773a ce39 a0bb 0097 59ba 355e 7739
00000350: 7faf 86ba 350f 293a 8ddd 4dba dc76 41ba
00000360: 7ec5 7f3a e0f0 e4b9 0e66 503a 8ce5 2d39
00000370: b2d2 fa3a ba4d 2338 a862 663a 514a 2bba
00000380: e21d 86bb a7fd ba39 a7c4 7bbb 0f61 bcba
00000390: 4ea1 ac3b 2585 083a 7443 5cba 8a5a f7b9
000003a0: 8276 abb9 ef0f db3b bc7a 78b9 f05b 0dba
000003b0: ad4b 92b9 b941 0e3b 1d0c 733b 29eb 03ba
000003c0: bac0 843a f853 51b9 e8cb 2abb 3da1 eeba
000003d0: 21c7 c839 21e9 2eb9 f538 85bb 6f43 bcb9
000003e0: 13b6 f7b9 b58f f4b8 023f a939 dd17 a83a
000003f0: 6af4 f2bb 2b93 82bb b338 023b 84eb bb3b
-0.13841482 0.038252488 0.025928397 -0.0019551981 0.015481725 0.0017620053 -0.0051921047 0.0021478487
-0.014378135 0.14617942 0.0049908925 0.013566109 -0.009182204 0.028409908 0.023017883 -0.00096006517
0.010674134 0.03059459 0.027970409 0.005430314 0.021668902 0.017744228 0.004484737 -0.00373114
0.007564952 -0.0029634489 0.013510732 -0.0033890733 -0.007208422 0.016033158 0.009566497 -0.00642543
0.0015075189 0.0028018013 -0.0015128201 -0.003548494 -0.0019044672 -0.003339986 -0.021120368 0.008494706
0.0073917145 -0.012625145 -0.026255451 -0.009274173 -0.0012581567 0.0024439846 0.007948607 0.0011544415
0.00374894 0.0026843015 0.0026908505 0.010039147 -0.0039691525 -0.007778378 -0.008247489 0.000782492
0.011609085 0.0020273826 -0.0006870013 0.015320244 0.0039987033 -0.0012194009 -0.021076871 -0.0055243177
0.0032772473 0.003539902 -0.0007503494 -0.012006684 0.0019258433 0.005147973 -0.004140988 0.016811281
-0.0128794685 0.0070361397 0.00020974362 -0.0019886694 -0.0056619975 -0.020025603 0.010401773 -0.0020437043
0.0031958865 0.0045881174 0.0024208094 0.0015405965 -0.0012232073 0.001868208 0.000216864 -0.0012495054
0.0030388744 0.0016484767 -0.0072682775 0.0045895395 0.0027720823 0.0024554795 0.0004985957 0.0032978992
0.00034911025 0.009478988 -0.017296372 0.006586766 -0.29781803 0.005703138 -0.00016653205 0.0056239464
0.004507916 0.00021829549 0.0016629526 6.783913e-05 0.0075082406 0.0062249815 -0.0008448742 -0.0062960107
8.582295e-06 -0.001437454 -0.0010840093 0.006863181 0.0011295867 0.0036162415 -0.00063115236 1.2146678e-05
-0.00047717642 -0.0038591754 0.0017097141 0.01066574 -0.0009209849 -0.000880323 0.0020325799 -0.0013280403
-0.090938106 -0.23497066 -0.11721665 -0.08962453 -0.066436164 -0.0549367 -0.04712608 -0.50120455
0.022174776 0.018503986 0.014825572 0.01052455 0.0064979834 0.0066392086 0.0007460684 -0.00067153195
-0.0020738856 -0.002066846 -0.00047579696 -0.0017412793 -0.0026096853 -0.0027692227 -0.0033421132 -0.00396498
-0.0033174031 -0.003489384 -0.0030094008 -0.002773866 -0.0028340644 -0.0024360763 -0.0027328494 -0.0023595223
-0.0025369632 -0.0022623616 -0.0015383629 -0.0021977401 -0.0014481677 -0.0016384809 -0.0016546177 -0.001781619
-0.0019911746 -0.0013732567 -0.0018803414 -0.0016956899 -0.001576409 -0.0015646003 0.0001343843 0.00031604475
-0.0011386507 -9.693365e-05 0.0031445136 0.001607639 -0.0015701267 -0.0002973082 -0.0014574756 -0.0008540977
4.084442e-05 -0.0012869287 0.0004296176 -0.001129528 -0.0007487446 -0.0009803874 1.6379494e-06 -0.0008884623
0.00012049814 -0.0005608112 -0.00016546366 -0.0015972211 -0.00080071733 6.0760987e-05 9.766088e-07 0.0013304281
-0.00021423245 0.000899871 0.0008592135 0.00061188336 0.0008664399 0.00036315792 -0.0029041215 0.0012688563
0.00094604376 -0.0048897034 -0.0008300394 0.0002359085 -0.0010275691 0.00064491044 -0.0007853143 -0.0007380077
0.00097569067 -0.00043667015 0.00079497776 0.00016584079 0.0019136278 3.8934617e-05 0.00087885046 -0.00065342063
-0.004092918 0.0003566567 -0.0038416774 -0.0014372187 0.0052682525 0.00052078284 -0.0008402385 -0.00047178968
-0.00032703957 0.006685249 -0.00023696845 -0.0005392423 -0.00027903673 0.0021706654 0.0037086078 -0.0005032295
0.0010128238 -0.00019963074 -0.002606148 -0.0018206012 0.00038295335 -0.0001668078 -0.0040656277 -0.00035908396
-0.00047247167 -0.00011661594 0.00032281136 0.0012824495 -0.0074143903 -0.003984829 0.001987022 0.0057348628

hidden_layer.variational_strategy._variational_distribution.chol_variational_covar f4 [10, 128, 128]
00000000: 1a62 293f 0000 0000 0000 0000 0000 0000
00000010: 0000 0000 0000 0000 0000 0000 0000 0000
00000020: 0000 0000 0000 0000 0000 0000 0000 0000
00000030: 0000 0000 0000 0000 0000 0000 0000 0000
00000040: 0000 0000 0000 0000 0000 0000 0000 0000
00000050: 0000 0000 0000 0000 0000 0000 0000 0000
00000060: 0000 0000 0000 0000 0000 0000 0000 0000
00000070: 0000 0000 0000 0000 0000 0000 0000 0000
00000080: 0000 0000 0000 0000 0000 0000 0000 0000
00000090: 0000 0000 0000 0000 0000 0000 0000 0000
000000a0: 0000 0000 0000 0000 0000 0000 0000 0000
000000b0: 0000 0000 0000 0000 0000 0000 0000 0000
000000c0: 0000 0000 0000 0000 0000 0000 0000 0000
000000d0: 0000 0000 0000 0000 0000 0000 0000 0000
000000e0: 0000 0000 0000 0000 0000 0000 0000 0000
000000f0: 0000 0000 0000 0000 0000 0000 0000 0000
00000100: 0000 0000 0000 0000 0000 0000 0000 0000
00000110: 0000 0000 0000 0000 0000 0000 0000 0000
00000120: 0000 0000 0000 0000 0000 0000 0000 0000
00000130: 0000 0000 0000 0000 0000 0000 0000 0000
00000140: 0000 0000 0000 0000 0000 0000 0000 0000
00000150: 0000 0000 0000 0000 0000 0000 0000 0000
00000160: 0000 0000 0000 0000 0000 0000 0000 0000
00000170: 0000 0000 0000 0000 0000 0000 0000 0000
00000180: 0000 0000 0000 0000 0000 0000 0000 0000
00000190: 0000 0000 0000 0000 0000 0000 0000 0000
000001a0: 0000 0000 0000 0000 0000 0000 0000 0000
000001b0: 0000 0000 0000 0000 0000 0000 0000 0000
000001c0: 0000 0000 0000 0000 0000 0000 0000 0000
000001d0: 0000 0000 0000 0000 0000 0000 0000 0000
000001e0: 0000 0000 0000 0000 0000 0000 0000 0000
000001f0: 0000 0000 0000 0000 0000 0000 0000 0000
00000200: da5b 97bc f156 363f 0000 0000 0000 0000
00000210: 0000 0000 0000 0000 0000 0000 0000 0000
00000220: 0000 0000 0000 0000 0000 0000 0000 0000
00000230: 0000 0000 0000 0000 0000 0000 0000 0000
00000240: 0000 0000 0000 0000 0000 0000 0000 0000
00000250: 0000 0000 0000 0000 0000 0000 0000 0000
00000260: 0000 0000 0000 0000 0000 0000 0000 0000
00000270: 0000 0000 0000 0000 0000 0000 0000 0000
00000280: 0000 0000 0000 0000 0000 0000 0000 0000
00000290: 0000 0000 0000 0000 0000 0000 0000 0000
000002a0: 0000 0000 0000 0000 0000 0000 0000 0000
000002b0: 0000 0000 0000 0000 0000 0000 0000 0000
000002c0: 0000 0000 0000 0000 0000 0000 0000 0000
000002d0: 0000 0000 0000 0000 0000 0000 0000 0000
000002e0: 0000 0000 0000 0000 0000 0000 0000 0000
000002f0: 0000 0000 0000 0000 0000 0000 0000 0000
00000300: 0000 0000 0000 0000 0000 0000 0000 0000
00000310: 0000 0000 0000 0000 0000 0000 0000 0000
00000320: 0000 0000 0000 0000 0000 0000 0000 0000
00000330: 0000 0000 0000 0000 0000 0000 0000 0000
00000340: 0000 0000 0000 0000 0000 0000 0000 0000
00000350: 0000 0000 0000 0000 0000 0000 0000 0000
00000360: 0000 0000 0000 0000 0000 0000 0000 0000
00000370: 0000 0000 0000 0000 0000 0000 0000 0000
00000380: 0000 0000 0000 0000 0000 0000 0000 0000
00000390: 0000 0000 0000 0000 0000 0000 0000 0000
000003a0: 0000 0000 0000 0000 0000 0000 0000 0000
000003b0: 0000 0000 0000 0000 0000 0000 0000 0000
000003c0: 0000 0000 0000 0000 0000 0000 0000 0000
000003d0: 0000 0000 0000 0000 0000 0000 0000 0000
000003e0: 0000 0000 0000 0000 0000 0000 0000 0000
000003f0: 0000 0000 0000 0000 0000 0000 0000 0000
0.66165316 0.0 0.0 0.0 0.0 0.0 0.0 0.0
0.0 0.0 0.0 0.0 0.0 0.0 0.0 0.0
0.0 0.0 0.0 0.0 0.0 0.0 0.0 0.0
0.0 0.0 0.0 0.0 0.0 0.0 0.0 0.0
0.0 0.0 0.0 0.0 0.0 0.0 0.0 0.0
0.0 0.0 0.0 0.0 0.0 0.0 0.0 0.0
0.0 0.0 0.0 0.0 0.0 0.0 0.0 0.0
0.0 0.0 0.0 0.0 0.0 0.0 0.0 0.0
0.0 0.0 0.0 0.0 0.0 0.0 0.0 0.0
0.0 0.0 0.0 0.0 0.0 0.0 0.0 0.0
0.0 0.0 0.0 0.0 0.0 0.0 0.0 0.0
0.0 0.0 0.0 0.0 0.0 0.0 0.0 0.0
0.0 0.0 0.0 0.0 0.0 0.0 0.0 0.0
0.0 0.0 0.0 0.0 0.0 0.0 0.0 0.0
0.0 0.0 0.0 0.0 0.0 0.0 0.0 0.0
0.0 0.0 0.0 0.0 0.0 0.0 0.0 0.0
-0.018476415 0.7122641 0.0 0.0 0.0 0.0 0.0 0.0
0.0 0.0 0.0 0.0 0.0 0.0 0.0 0.0
0.0 0.0 0.0 0.0 0.0 0.0 0.0 0.0
0.0 0.0 0.0 0.0 0.0 0.0 0.0 0.0
0.0 0.0 0.0 0.0 0.0 0.0 0.0 0.0
0.0 0.0 0.0 0.0 0.0 0.0 0.0 0.0
0.0 0.0 0.0 0.0 0.0 0.0 0.0 0.0
0.0 0.0 0.0 0.0 0.0 0.0 0.0 0.0
0.0 0.0 0.0 0.0 0.0 0.0 0.0 0.0
0.0 0.0 0.0 0.0 0.0 0.0 0.0 0.0
0.0 0.0 0.0 0.0 0.0 0.0 0.0 0.0
0.0 0.0 0.0 0.0 0.0 0.0 0.0 0.0
0.0 0.0 0.0 0.0 0.0 0.0 0.0 0.0
0.0 0.0 0.0 0.0 0.0 0.0 0.0 0.0
0.0 0.0 0.0 0.0 0.0 0.0 0.0 0.0
0.0 0.0 0.0 0.0 0.0 0.0 0.0 0.0

hidden_layer.mean_module.weights f4 [17, 1]
00000000: 5c30 57bf f824 173f 2a26 b2bf 1945 e8be
00000010: c704 02be 2014 06bf 0972 ce3f 695f 203e
00000020: aae3 b51f c6ff 9b3e 8586 f2be 16d2 fc32
00000030: a3dd d33f 1f45 39be 1255 143c f88d a6be
00000040: cc12 943c
-0.84058166 0.59040785 -1.3917897 -0.45365217 -0.12697135 -0.5237446 1.6128551 0.15661396
7.703312e-20 0.30468577 -0.47368255 2.9432197e-08 1.6552013 -0.18092774 0.0090534855 -0.3253019
0.01807537

hidden_layer.covar_module.raw_outputscale f4 [10]
00000000: 9f4e e9c0 7adb ebc0 5a27 e7c0 e491 f9c0
00000010: 8881 e7c0 4607 fac0 7c06 e8c0 4cd3 f2c0
00000020: 8652 eec0 3169 e6c0
-7.2908473 -7.3705416 -7.2235537 -7.799059 -7.234562 -7.813388 -7.2507915 -7.588293
-7.4475737 -7.2003407

hidden_layer.covar_module.base_kernel.raw_lengthscale f4 [10, 1, 17]
00000000: a4d8 903c b79e 983c 699d 1f3c 61eb 293c
00000010: f1fb 5c3d 0ce4 383c 63b9 383c 3626 0ebb
00000020: 98fb c1a9 028f 343b 4f30 053c 3c0b 9815
00000030: d0f0 aa3b a237 b23c 34cd a53c 55a8 9f3c
00000040: d2c2 8f3e 5598 ba3b b516 de3b 2658 2e3c
00000050: 4356 713c 5b47 193d 87c2 413c 20e1 403c
00000060: 86cb 4b3b 4056 0200 9aa1 6d3b 12f3 4b3c
00000070: cae9 a017 ce58 063c fbd7 053d 793b bc3c
00000080: 0cdc b33c c931 f93e 6d9d 203c 165a 1e3c
00000090: cdef 893c 008a 873c a1c4 0a3d 2ffc 8a3c
000000a0: d100 8b3c ea21 643c 4246 0180 cb62 4a3c
000000b0: f961 843c 3b29 6d1e 7efd 883c 65c1 db3c
000000c0: f1b2 d03c 9d79 cc3c 7c0f da3e c30a 283d
000000d0: 0655 3e3d 50c0 193d dbd0 e83c a734 fdbd
000000e0: deb5 343d 92b3 343d c1c4 10bd b310 e42a
000000f0: 45ef 3e3c cdaa cf3c 73b8 8fb8 c8f0 4a3b
00000100: f115 e53d 3ad9 a7bc 31a7 aebc 8b81 e83f
00000110: 69b6 e3bb 5154 ffbb 203e 3b3c 48c9 8c3c
00000120: 17ed a83c 6a21 3a3c cd06 3b3c dfc0 4a3c
00000130: 2c22 e69a 563a f53b dbeb 603c e73b 4898
00000140: 9bcf 5c3c d429 e33c 49dd ab3c a02e a63c
00000150: 2fd6 b83e 6691 fc3c e72a 153d 1094 fe3c
00000160: 85e2 a63c e193 1cbe a20a 1f3d 920d 1f3d
00000170: 498c 2cbd a3ba 0baf c54c 023c 6fb6 8f3c
00000180: c96d ca34 44cc 9dbb 8b33 e43d 3281 e9bc
00000190: d972 f1bc 5951 f43f df85 c83b 986f dd3b
000001a0: 4b32 8a3c 78b9 993c eb49 023d 6a09 933c
000001b0: 6e86 923c e37f cf3b 1a36 a3ab 4b96 ae3b
000001c0: b8a4 973c a001 4c9b 7b3a 713c 2ec7 153d
000001d0: 13ca f53c 0c1a ee3c d3d5 cc3e 1cf6 2f3c
000001e0: c5a0 323c 8d61 653c 3c38 f53b 6440 e23c
000001f0: 5ce9 663c 36ea 673c 51ff 5d3c 09fb 4123
00000200: 9ffd 2c3c 009d 5f3c 5a2d 2b18 6b30 683c
00000210: eee5 c33c 022c c83c 62f0 bd3c 7880 d43e
00000220: 4d15 d43b 68d3 c73b de34 a03c b526 d93b
00000230: 17cb a93c 8846 a63c c55b a63c 4ac2 ed3b
00000240: 1c35 081b 53a7 e53b 0ae8 7e3c 7b9d 0d1b
00000250: 2872 7b3c c019 cd3c 8400 d83c 3d63 d33c
00000260: b650 ee3e 0c17 6b3b 56b6 883b 2068 fc3b
00000270: 5ec8 243c 8e57 b73c 0f93 0e3c 690d 0e3c
00000280: c64a 7fba c160 0200 2484 a5b9 aab6 0e3c
00000290: 808f 9333 3397 c93b f3ee ae3c 23b3 833c
000002a0: 0316 7e3c 28bd c63e
0.017681427 0.018630369 0.009742119 0.01037106 0.053951208 0.011284839 0.011274668 -0.0021690256
-8.614566e-14 0.002755106 0.008129193 6.1410036e-26 0.0052166954 0.021755043 0.02023945 0.019489447
0.28078324 0.005694429 0.006777609 0.010641133 0.014730039 0.037421566 0.011826164 0.011772424
0.0031096651 2.14612e-40 0.0036259652 0.012448089 1.0398774e-24 0.008199884 0.03267668 0.022977578
0.021955512 0.48670796 0.009803158 0.009665033 0.016837979 0.016545296 0.033878926 0.016965954
0.016968163 0.013924101 -1.17039e-40 0.012352656 0.016159998 1.2555202e-20 0.016722437 0.026825616
0.02547595 0.024960333 0.4258994 0.04102589 0.046467803 0.03753692 0.028419903 -0.12363558
0.044118755 0.044116564 -0.03534389 4.0512523e-13 0.011653726 0.025349999 -6.853128e-05 0.003096627
0.111858256 -0.020489324 -0.021319957 1.8164533 -0.006949235 -0.0077920337 0.011428386 0.017185822
0.020620866 0.011360506 0.011415196 0.012375086 -9.518098e-23 0.007483761 0.013728107 -2.5879637e-24
0.013477231 0.027729906 0.02097954 0.020285904 0.3610091 0.03083105 0.036417868 0.031076461
0.020371685 -0.15290786 0.0388285 0.0388313 -0.042125974 -1.2708283e-10 0.007952874 0.017543046
3.770531e-07 -0.00481561 0.111426435 -0.028503988 -0.029473709 1.9087325 0.0061194743 0.006757688
0.016869685 0.018765196 0.031808775 0.017948825 0.017886367 0.006332384 -1.1596863e-12 0.005327975
0.018511161 -1.687501e-22 0.0147234155 0.036566906 0.030003583 0.029065154 0.40006885 0.010739829
0.010902588 0.014000309 0.0074835103 0.027618594 0.014093723 0.014154961 0.013549642 1.051571e-17
0.010558515 0.013648272 2.2124129e-24 0.0141717 0.02391335 0.024435047 0.023185913 0.41504264
0.006472266 0.0060981996 0.019556459 0.0066269287 0.020726724 0.020297304 0.020307431 0.007255827
1.1266817e-22 0.007008472 0.015558252 1.1714131e-22 0.015347041 0.025036693 0.026367433 0.025804156
0.46545953 0.0035871891 0.0041721268 0.0077028424 0.010057537 0.022380617 0.008702054 0.008670189
-0.000973862 2.1838e-40 -0.00031569705 0.008710543 6.8713234e-08 0.0061520576 0.021354174 0.01607663
0.015508178 0.3881619

last_layer.variational_strategy.inducing_points f4 [128, 10]
00000000: 5933 3d3c e883 663c ee79 643c 3f68 643c
00000010: 87c6 64bb 4362 553c 0004 013c 4303 563c
00000020: 6cb3 833c 850b a43c 0a0e 46be 92a4 22be
00000030: a116 32be 4089 27be 7fbf 44be 9c28 37be
00000040: 269e 1dbe 22f9 31be 5299 41be f3b5 3ebe
00000050: 2a3b bbbd 2732 c43d f913 cb3d 577b 0b3f
00000060: 9510 00be b809 be3e 2e3f 93bd 31ba 91bd
00000070: 5af8 cbbd 1525 5d3e 0349 e43d c939 b03d
00000080: 059f 833e 7413 653c f85d f5bd 1e16 fd3d
00000090: a18b 033e 9dcf b6bd 29de 02be a64f a83d
000000a0: 58fe 8fbb 2d19 a73d b4b5 863d 4224 44bd
000000b0: 79ea 683c ebe0 71be d4c9 183c 1001 15bd
000000c0: bfc4 68bd 5a5d 253e 33e9 db3c edec b63e
000000d0: 9ea7 333e 9824 a43d 0285 ef3c 5af5 093e
000000e0: e78b 0d3e e648 fe3d 0177 b63e 88d9 593e
000000f0: 2b76 03be 5a66 25be 8e36 5bbd 5aac bebd
00000100: fc37 68bd 099a 283d 9211 973b 0ebe 64be
00000110: 7685 db3d 870a 173e 5905 373e c478 bc3c
00000120: f0da 88bd 629f e9bd e688 ecbc 3f26 e33b
00000130: 5b11 56be 952c 553e a96a c2bc 310b 1b3e
00000140: 7bfa f33c 7f47 25be c4e4 c03d d87d d73c
00000150: 88d3 c2bd 56cc e2bd 995c 813c b9eb 873e
00000160: b85c 2f3c 7182 563d 4ca5 213e 969f 67bd
00000170: 879f ef38 8c73 883d c6af e2bd d680 dcbd
00000180: a6f5 36be 3222 4c3c 2c99 153e 17e0 99bd
00000190: 1647 babe ad52 dabe 0567 ccbe db26 d6be
000001a0: 1020 b9be 2f08 e2be 8e6f cabe a642 d3be
000001b0: 4b86 d9be 9512 cebe 4b79 5e3d 9936 debc
000001c0: 4865 75be 632a 343d eafb 1dbe 8879 54bd
000001d0: 0ef0 f63d c341 8fbc cc90 80bd 8828 97bc
000001e0: 4086 083b 5693 50bd 16c5 8cbc 144b 593b
000001f0: 8398 743e 33b3 363d b389 363d 8106 7dbc
00000200: 84aa c3bc ad2d d7bd 5fa9 6f3e 4a15 343e
00000210: 7947 cb3d dc47 3b3e 1c12 563e 89dd 1f3e
00000220: 732e 693e dc28 3c3e 8f67 bf3d a08a 193e
00000230: 5ead 033e f21b b93d abcb 733e d602 263e
00000240: fbf1 9b3e 35c2 1b3e ec3f 983d c587 313c
00000250: 6ff7 2e3e e6a6 533e 79b4 69be 76d5 df3c
00000260: 0ea1 7bbc 7f19 1abc 3264 fabc 790b d63c
00000270: defb 8dbd e55d b3bd 9d07 a2bd 17b5 0bbe
00000280: e525 11be 0cda 02bd 1a21 8bbd a6e8 603c
00000290: c6f5 d839 9ad4 9cb9 ed42 cdbd c7c8 b4bd
000002a0: 52dc b9bd 914d 98bc 6d71 1b3c 423f e63b
000002b0: b7b3 94bc c816 12be 2986 d8bc b522 65bd
000002c0: e554 2d3d b21a a73b e560 743d d330 2ebe
000002d0: 9bb0 18be 68c5 343b 7237 123b 6233 9d3e
000002e0: 334a 813e df67 41be 104c e03e c281 333e
000002f0: 3e88 f53b ddbf b03e 0f1b 7d3e ca0b 0c3e
00000300: 6822 243e 9237 bd3d a3c4 1a3e 859b c73d
00000310: 0145 543e ac58 73bd 0d6d d13d 5f1b 1a3e
00000320: 97f7 acbe fe45 a83d 3e7b 74be 6988 c3be
00000330: 2a40 80be 4255 f63b 21bd 8a3e 5e7b 3f3d
00000340: e471 e6bd 08e7 753d 3f19 143e 2b3a 883d
00000350: 7d0e 083e af95 213e 658f 8a3d 290f 163e
00000360: e3ff cb3d 242e 8a3e 8f3b 2b3e d4ed db3d
00000370: f8a7 64be 18d4 bbbc f7aa 923e 3ecb 99be
00000380: eb16 d9bd dda9 eabd f79d 88be fe1a c13d
00000390: 0cd6 713e 12ab aabe 84bd 21bd 6eee 613e
000003a0: fa2a 933d 0530 043e 67a8 443e 3543 4f3e
000003b0: 8e50 b13d 6c6c b1bc 99ac 113e 4b1d e03d
000003c0: 15cd 82bd 7842 40bd 7262 32bd 9848 9fbc
000003d0: 3ae9 20bd 343d 2fbd b8eb debc 880c 80bd
000003e0: 1008 92bd e400 a0bd 8f93 113d 9ba9 243e
000003f0: cd62 d73d 2ea5 153e ea32 f53d 54e9 003e
0.011547887 0.014069535 0.013945086 0.01394087 -0.003490837 0.013023916 0.007874489 0.013062301
0.016076766 0.020025024 -0.19341293 -0.15883091 -0.17391445 -0.1636095 -0.19213675 -0.17886585
-0.1539236 -0.17380193 -0.18906143 -0.18624096 -0.09142144 0.09579878 0.09915919 0.54485077
-0.12506326 0.3711679 -0.07189785 -0.07115591 -0.09959479 0.21596177 0.111467384 0.08604772
0.2570726 0.013981689 -0.11980814 0.12357734 0.12846233 -0.08926318 -0.1278006 0.08218317
-0.004394334 0.08159099 0.06577626 -0.04788614 0.014216059 -0.23620956 0.009325463 -0.036377966
-0.056828257 0.16148892 0.026844596 0.35727635 0.1754441 0.08014792 0.029238228 0.134725
0.138229 0.12416248 0.35637668 0.21274388 -0.12838046 -0.16152325 -0.053518824 -0.09310217
-0.056694016 0.041162524 0.004610249 -0.22338125 0.10718815 0.1475011 0.17873134 0.023006804
-0.06682384 -0.11407353 -0.028873872 0.0069320495 -0.20905058 0.20817788 -0.0237325 0.15140988
0.029782524 -0.16140555 0.094186336 0.026305124 -0.09513003 -0.1107413 0.015791224 0.2654703
0.010703258 0.052370492 0.15785712 -0.056548677 0.000114261224 0.06662664 -0.110686824 -0.10766761
-0.17867145 0.012459325 0.14609212 -0.07513445 -0.3638236 -0.42641202 -0.39922348 -0.4182652
-0.36157274 -0.4414687 -0.39538234 -0.41261786 -0.4248527 -0.40248552 0.054314893 -0.027125644
-0.23964417 0.043985736 -0.15428129 -0.051873714 0.120575055 -0.017487412 -0.06277618 -0.018451944
0.0020831972 -0.05092176 -0.017183822 0.0033156322 0.23886304 0.04460449 0.044564914 -0.015443445
-0.02388502 -0.10506759 0.23404454 0.17586246 0.09925742 0.18289131 0.20905346 0.15611853
0.22771625 0.18374962 0.09345924 0.14994287 0.12859103 0.09038533 0.23808162 0.1621202
0.30458054 0.15210803 0.07434067 0.010835593 0.17086576 0.20669135 -0.22822751 0.027323466
-0.015358223 -0.009405493 -0.030565355 0.026128517 -0.069328055 -0.08758143 -0.07911608 -0.13643299
-0.14174612 -0.031946227 -0.06793423 0.013727343 0.00041381846 -0.0002991304 -0.10022531 -0.08827358
-0.09075226 -0.018591674 0.009487492 0.007026584 -0.018152101 -0.14266503 -0.02643116 -0.055941302
0.04231729 0.005099618 0.05966272 -0.17010812 -0.1491112 0.0027583484 0.002231088 0.30703264
0.25251922 -0.1888728 0.4380803 0.17529967 0.007493048 0.3452138 0.24717353 0.13676372
0.1602875 0.09239115 0.15114073 0.0974646 0.20729448 -0.059410736 0.10225878 0.15049504
-0.33782646 0.08216475 -0.23875138 -0.3819001 -0.25048953 0.0075174877 0.2709742 0.04674851
-0.11252192 0.06003478 0.14462756 0.0665172 0.13286777 0.15779756 0.067656316 0.1465422
0.09960916 0.26988328 0.16721939 0.107387215 -0.223297 -0.022928283 0.2864606 -0.30037874
-0.106000744 -0.1145818 -0.26683018 0.094289765 0.23616809 -0.3333364 -0.039487377 0.2206361
0.071859315 0.12908943 0.19204865 0.20240481 0.08657943 -0.021658145 0.14225997 0.10943087
-0.063867725 -0.04693839 -0.043550916 -0.019443795 -0.039284922 -0.042782977 -0.027212009 -0.0625239
-0.07130444 -0.0781267 0.035541113 0.16080324 0.10516892 0.14613792 0.11972602 0.12589008

last_layer.variational_strategy._variational_distribution.variational_mean f4 [128]
00000000: fedf 413f 4949 833e bf88 1bbd 759f 3d3c
00000010: 0289 e13c 213b 44bb 3ac9 ab3b dfb3 523c
00000020: f856 82bb cd5a 023c 7365 163d f915 b03b
00000030: 5b19 c63b 532f 3cbc 79fe 6fbc 7ee2 8e3c
00000040: a6fa bb3b 3e22 293d 77d8 0cbd a3ca 20bd
00000050: b164 593d b891 71bd 56e6 993d 1226 6dbd
00000060: 9ca1 113d c62b 3bbd f911 0ebd d76a 933d
00000070: 6403 b13d 1923 4a3d d0af 613d 853f 093d
00000080: 6f6a 963c 5c87 4abd 16df 703d 5589 6eba
00000090: e13a 1ebb 9727 20bd c014 473d 77ef 4e3d
000000a0: 8d44 823d 2290 3fbc 11a7 68bd aca0 793c
000000b0: f44f 94bd f724 8cbd 9b16 453d 9bb1 283d
000000c0: 30c0 0d3d a448 e63c 1de6 9bbd 7d34 b4bc
000000d0: 0b03 013e 7dfd a3bd 8998 8c3d 01b8 913d
000000e0: 3dd7 d53d d420 94bd ca7d 8ebd d92b 89bd
000000f0: 7930 473c 4181 1d3d cdfe 0abc 7cb0 4e3d
00000100: c773 cd3d 24a6 38bd ae39 9dbd ca02 97bd
00000110: 84c9 e53b 83ea 243e a674 9dbc c0cb b6bb
00000120: adc4 07bd 4033 653e 3d3f 2d3e 9be6 503e
00000130: daf9 81bd 6d50 89bd 234b 8d3c 19e2 8e3a
00000140: 8ca7 c6bd 4fe8 c1bd 5523 523e 98fc bebd
00000150: 999a b4bd 9f94 31bd e2ba 8e3d 619f 85bd
00000160: 3750 9c3d 030b 43bd 735c dbbd 4c91 033e
00000170: e6ac d9bd ea54 153c 5eaf debd 90e3 dabd
00000180: c50b d7bd 3602 d3bd ff02 cfbd a124 cbbd
00000190: e4c9 c7bd d2c1 c4bd 4a15 c1bd 6ffe 073e
000001a0: 5ca1 c0bd e2d0 fb3d 97fa bebd 0e71 0c3e
000001b0: 68a6 363e 4bcf c0bd a10e bebd c64f f63d
000001c0: 9961 ea3d 18a2 bdbd 6f5c bbbd 0869 e43d
000001d0: ae87 b9bd eca3 d63d b57c b7bd ee64 b5bd
000001e0: f4ea b1bd 0e19 a43e e657 34bd ac4a 24bd
000001f0: bf2a 8d3e 16f1 9bbd 5e39 9abd c036 e03f
0.7573241 0.2564185 -0.037972208 0.011573662 0.02753115 -0.002994247 0.005242494 0.012860267
-0.0039776526 0.007956219 0.036717843 0.005373713 0.006045503 -0.011485892 -0.014648073 0.017441984
0.0057366667 0.04129242 -0.034386124 -0.03925575 0.053074542 -0.05897686 0.07514636 -0.057897635
0.035554513 -0.045696042 -0.03468511 0.071981125 0.08643225 0.049349878 0.05509931 0.033507843
0.018361298 -0.049445495 0.0588065 -0.00090994436 -0.0024143981 -0.039100256 0.048603773 0.05052134
0.06360731 -0.011692079 -0.056799952 0.015236061 -0.07241812 -0.06842988 0.04811726 0.041185003
0.034607112 0.02811081 -0.0761225 -0.021997685 0.12598817 -0.080073334 0.06865031 0.07115174
0.10441444 -0.07232824 -0.06957586 -0.066978164 0.012157553 0.038453344 -0.008483601 0.050461277
0.100318484 -0.04508032 -0.07677017 -0.07373579 0.007012548 0.16105084 -0.019220661 -0.005578488
-0.03314655 0.22382832 0.16918655 0.20400469 -0.063464835 -0.06704793 0.017247742 0.0010901123
-0.09699926 -0.094681375 0.2052129 -0.09325522 -0.0881855 -0.043354627 0.06969239 -0.0652454
0.07632487 -0.047617923 -0.10710993 0.12848395 -0.10628681 0.009114483 -0.108732924 -0.10687935
-0.10500292 -0.10303156 -0.10107993 -0.09919096 -0.097553045 -0.09607281 -0.09427889 0.13280652
-0.09405777 0.122957006 -0.0932514 0.13715002 0.17836916 -0.09414538 -0.09280134 0.12026934
0.114443965 -0.092594326 -0.0914849 0.111528456 -0.09059082 0.10480484 -0.08959333 -0.088571414
-0.08687392 0.32050365 -0.04402914 -0.040110275 0.27571675 -0.07614343 -0.07530473 1.7516708

last_layer.variational_strategy._variational_distribution.chol_variational_covar f4 [128, 128]
00000000: 4d4a 5d3c 0000 0000 0000 0000 0000 0000
00000010: 0000 0000 0000 0000 0000 0000 0000 0000
00000020: 0000 0000 0000 0000 0000 0000 0000 0000
00000030: 0000 0000 0000 0000 0000 0000 0000 0000
00000040: 0000 0000 0000 0000 0000 0000 0000 0000
00000050: 0000 0000 0000 0000 0000 0000 0000 0000
00000060: 0000 0000 0000 0000 0000 0000 0000 0000
00000070: 0000 0000 0000 0000 0000 0000 0000 0000
00000080: 0000 0000 0000 0000 0000 0000 0000 0000
00000090: 0000 0000 0000 0000 0000 0000 0000 0000
000000a0: 0000 0000 0000 0000 0000 0000 0000 0000
000000b0: 0000 0000 0000 0000 0000 0000 0000 0000
000000c0: 0000 0000 0000 0000 0000 0000 0000 0000
000000d0: 0000 0000 0000 0000 0000 0000 0000 0000
000000e0: 0000 0000 0000 0000 0000 0000 0000 0000
000000f0: 0000 0000 0000 0000 0000 0000 0000 0000
00000100: 0000 0000 0000 0000 0000 0000 0000 0000
00000110: 0000 0000 0000 0000 0000 0000 0000 0000
00000120: 0000 0000 0000 0000 0000 0000 0000 0000
00000130: 0000 0000 0000 0000 0000 0000 0000 0000
00000140: 0000 0000 0000 0000 0000 0000 0000 0000
00000150: 0000 0000 0000 0000 0000 0000 0000 0000
00000160: 0000 0000 0000 0000 0000 0000 0000 0000
00000170: 0000 0000 0000 0000 0000 0000 0000 0000
00000180: 0000 0000 0000 0000 0000 0000 0000 0000
00000190: 0000 0000 0000 0000 0000 0000 0000 0000
000001a0: 0000 0000 0000 0000 0000 0000 0000 0000
000001b0: 0000 0000 0000 0000 0000 0000 0000 0000
000001c0: 0000 0000 0000 0000 0000 0000 0000 0000
000001d0: 0000 0000 0000 0000 0000 0000 0000 0000
000001e0: 0000 0000 0000 0000 0000 0000 0000 0000
000001f0: 0000 0000 0000 0000 0000 0000 0000 0000
00000200: 2d6f 76bd 89ff 7d3d 0000 0000 0000 0000
00000210: 0000 0000 0000 0000 0000 0000 0000 0000
00000220: 0000 0000 0000 0000 0000 0000 0000 0000
00000230: 0000 0000 0000 0000 0000 0000 0000 0000
00000240: 0000 0000 0000 0000 0000 0000 0000 0000
00000250: 0000 0000 0000 0000 0000 0000 0000 0000
00000260: 0000 0000 0000 0000 0000 0000 0000 0000
00000270: 0000 0000 0000 0000 0000 0000 0000 0000
00000280: 0000 0000 0000 0000 0000 0000 0000 0000
00000290: 0000 0000 0000 0000 0000 0000 0000 0000
000002a0: 0000 0000 0000 0000 0000 0000 0000 0000
000002b0: 0000 0000 0000 0000 0000 0000 0000 0000
000002c0: 0000 0000 0000 0000 0000 0000 0000 0000
000002d0: 0000 0000 0000 0000 0000 0000 0000 0000
000002e0: 0000 0000 0000 0000 0000 0000 0000 0000
000002f0: 0000 0000 0000 0000 0000 0000 0000 0000
00000300: 0000 0000 0000 0000 0000 0000 0000 0000
00000310: 0000 0000 0000 0000 0000 0000 0000 0000
00000320: 0000 0000 0000 0000 0000 0000 0000 0000
00000330: 0000 0000 0000 0000 0000 0000 0000 0000
00000340: 0000 0000 0000 0000 0000 0000 0000 0000
00000350: 0000 0000 0000 0000 0000 0000 0000 0000
00000360: 0000 0000 0000 0000 0000 0000 0000 0000
00000370: 0000 0000 0000 0000 0000 0000 0000 0000
00000380: 0000 0000 0000 0000 0000 0000 0000 0000
00000390: 0000 0000 0000 0000 0000 0000 0000 0000
000003a0: 0000 0000 0000 0000 0000 0000 0000 0000
000003b0: 0000 0000 0000 0000 0000 0000 0000 0000
000003c0: 0000 0000 0000 0000 0000 0000 0000 0000
000003d0: 0000 0000 0000 0000 0000 0000 0000 0000
000003e0: 0000 0000 0000 0000 0000 0000 0000 0000
000003f0: 0000 0000 0000 0000 0000 0000 0000 0000
0.013506484 0.0 0.0 0.0 0.0 0.0 0.0 0.0
0.0 0.0 0.0 0.0 0.0 0.0 0.0 0.0
0.0 0.0 0.0 0.0 0.0 0.0 0.0 0.0
0.0 0.0 0.0 0.0 0.0 0.0 0.0 0.0
0.0 0.0 0.0 0.0 0.0 0.0 0.0 0.0
0.0 0.0 0.0 0.0 0.0 0.0 0.0 0.0
0.0 0.0 0.0 0.0 0.0 0.0 0.0 0.0
0.0 0.0 0.0 0.0 0.0 0.0 0.0 0.0
0.0 0.0 0.0 0.0 0.0 0.0 0.0 0.0
0.0 0.0 0.0 0.0 0.0 0.0 0.0 0.0
0.0 0.0 0.0 0.0 0.0 0.0 0.0 0.0
0.0 0.0 0.0 0.0 0.0 0.0 0.0 0.0
0.0 0.0 0.0 0.0 0.0 0.0 0.0 0.0
0.0 0.0 0.0 0.0 0.0 0.0 0.0 0.0
0.0 0.0 0.0 0.0 0.0 0.0 0.0 0.0
0.0 0.0 0.0 0.0 0.0 0.0 0.0 0.0
-0.06016462 0.062011275 0.0 0.0 0.0 0.0 0.0 0.0
0.0 0.0 0.0 0.0 0.0 0.0 0.0 0.0
0.0 0.0 0.0 0.0 0.0 0.0 0.0 0.0
0.0 0.0 0.0 0.0 0.0 0.0 0.0 0.0
0.0 0.0 0.0 0.0 0.0 0.0 0.0 0.0
0.0 0.0 0.0 0.0 0.0 0.0 0.0 0.0
0.0 0.0 0.0 0.0 0.0 0.0 0.0 0.0
0.0 0.0 0.0 0.0 0.0 0.0 0.0 0.0
0.0 0.0 0.0 0.0 0.0 0.0 0.0 0.0
0.0 0.0 0.0 0.0 0.0 0.0 0.0 0.0
0.0 0.0 0.0 0.0 0.0 0.0 0.0 0.0
0.0 0.0 0.0 0.0 0.0 0.0 0.0 0.0
0.0 0.0 0.0 0.0 0.0 0.0 0.0 0.0
0.0 0.0 0.0 0.0 0.0 0.0 0.0 0.0
0.0 0.0 0.0 0.0 0.0 0.0 0.0 0.0
0.0 0.0 0.0 0.0 0.0 0.0 0.0 0.0

last_layer.covar_module.base_kernel.raw_lengthscale f4 [1, 10]
00000000: 50da 2f40 7bd1 2940 dad1 2c40 ee0f 0f40
00000010: 8da3 2c40 3a21 0c40 dbe4 2b40 6b9e 2b40
00000020: acb6 2a40 d9be 2d40
2.7476997 2.6534107 2.7003083 2.2353473 2.6974823 2.189528 2.6858432 2.681544
2.6673994 2.7147734
