CompareCQR/Experiments/EXP1/model_bin/simple_demo.pth (torch, 3127 bytes, 5 tensors)

raw_model.0.weight f4 [10, 11]
0	0xbea319c0	-0.31855583
1	0x3e19e1b0	0.15027499
2	0x3c8acd00	0.016943455
3	0x3ee38509	0.44437435
4	0x3e220a90	0.15824342
5	0x3f6b63c4	0.91949105
6	0x3ea0ca47	0.31404325
7	0xbd03f86c	-0.032219335
8	0x3e71eb8f	0.23625015
9	0xbe363e9c	-0.17797321
10	0xbd93c7c5	-0.072158374
11	0x3df4a214	0.119449764
12	0x3eb12de1	0.34605315
13	0x3e5cf98f	0.21579574
14	0x3d8ffc47	0.0703054
15	0x3b86f4b7	0.0041185278
16	0x3c847b0e	0.016171958
17	0xbe03aafc	-0.12858194
18	0xbf029431	-0.5100737
19	0x3eb3a0f0	0.35083723
20	0x3de3ac3b	0.11116835
21	0xbd657325	-0.056018014
22	0x3d87afd2	0.06625332
23	0x3bbd0289	0.0057681245
24	0x3db5ffdb	0.08886691
25	0x3e84b760	0.25921154
26	0xbe978b39	-0.29598406
27	0x3d241242	0.040056475
28	0xbddf75aa	-0.109111145
29	0xbe8db28a	-0.27675277
30	0x3eab7aac	0.3349203
31	0x3e0ef308	0.13959897
32	0x3e8be074	0.27319682
33	0xbd72d03b	-0.059280615
34	0xbd485373	-0.04890771
35	0xbd02be15	-0.031919558
36	0x3ed58485	0.41702667
37	0x3d5ee728	0.054419667
38	0x3eaecdd8	0.3414142
39	0xbd435505	-0.047688503
40	0x3c4682e0	0.012116164
41	0xbdcaea34	-0.09907952
42	0xbd2ecaa5	-0.042673726
43	0x3d8778e2	0.066148534
44	0xbcf274a0	-0.029596627
45	0xbdccadad	-0.099940635
46	0xbd984769	-0.074354954
47	0xbd94b381	-0.072608
48	0x3e71fdcd	0.23631974
49	0x3ea03a14	0.3129431
50	0x3de2dbee	0.110771045
51	0x3e119eec	0.1422078
52	0x3caff31b	0.021478226
53	0xbd6dcc1b	-0.05805598
54	0x3e6fd931	0.23422696
55	0xbe066d9c	-0.1312775
56	0xbddc2e47	-0.10751014
57	0xbd82a5a3	-0.06379249
58	0x3d4026db	0.046912055
59	0xbb6ba4d4	-0.00359564
60	0x3d2b0c1b	0.04175959
61	0x3e513647	0.20430861
62	0x3d03dfca	0.032195844
63	0xbe00459f	-0.12526558
64	0xbc6c31ff	-0.014416217
65	0xbdfe6fbf	-0.124236576
66	0x3eb6cedb	0.35704693
67	0xbeeb987e	-0.4601478
68	0xbd672fe1	-0.056442145
69	0xbe982688	-0.29716897
70	0x3d020961	0.031747226
71	0xbe28594a	-0.16440311
72	0xbde9b5a5	-0.11411599
73	0x3e804f4e	0.25060505
74	0x3e4d2abe	0.20035836
75	0x3d83ab38	0.06429142
76	0xbe740fdf	-0.2383418
77	0x3df7d2f0	0.1210078
78	0xbf44a0a5	-0.76807624
79	0xbdc0a175	-0.094057955
80	0xbd532438	-0.051548213
81	0x3e62d9b5	0.22153361
82	0xbd82de26	-0.06390028
83	0xbe942585	-0.28934875
84	0xbe2b7b4f	-0.16746257
85	0xbe39531d	-0.18098111
86	0x3e48e90a	0.19620147
87	0xbf1e3459	-0.61798626
88	0x3d89b854	0.06724611
89	0x3d978cbd	0.073998906
90	0x3d18ca5f	0.03730237
91	0x3e828383	0.2549096
92	0xbe6e5b5b	-0.23277037
93	0x3d6365e0	0.055517077
94	0xbdb545a1	-0.08851171
95	0xbf17fc7d	-0.5936964
96	0x3e0624d9	0.13099994
97	0x3dfecb29	0.124410935
98	0x3ecb1dd5	0.39671198
99	0xbdd3ba1c	-0.10338232
100	0xbd93e5cc	-0.07221565
101	0x3d354e38	0.04426405
102	0x3ced2f6b	0.028953275
103	0xbd6f9e66	-0.05850067
104	0xbe9ba095	-0.30395952
105	0x3ebb9b31	0.3664184
106	0x3e5c6df1	0.21526314
107	0xbd83c355	-0.06433741
108	0xbef89058	-0.48547626
109	0xbe82d38d	-0.25552025

raw_model.0.bias f4 [10]
0	0xbd649d15	-0.055813868
1	0x3f2b2e53	0.6686756
2	0x3ee61be9	0.4494317
3	0x3f8dd34f	1.1080111
4	0x3f9723f4	1.1807847
5	0x3fa3a09b	1.2783388
6	0x3ebba688	0.3665049
7	0x3db24fe6	0.08706646
8	0x3f5b84e8	0.85749674
9	0x3f37c637	0.71786827

raw_model.2.weight f4 [10, 10]
0	0xbece6308	-0.4030993
1	0x3e7b0f62	0.24517587
2	0x3ed57c85	0.41696563
3	0xbe2ccf7f	-0.16876028
4	0x3e2a21f9	0.16614522
5	0x3ecbaafe	0.39778894
6	0xbea3fdc3	-0.32029542
7	0xbd969e43	-0.07354405
8	0x3ef0ae31	0.47007897
9	0xbda0ea11	-0.078571446
10	0x3e0a4a12	0.13504818
11	0xbdad492f	-0.08461224
12	0xbbac7f4a	-0.0052641975
13	0xbeddabbb	-0.43295082
14	0xbe98d5d8	-0.2985065
15	0xbd98a0ad	-0.074525215
16	0x3cc3286d	0.023822987
17	0xbe8dfdef	-0.27732798
18	0xbe370b81	-0.17875482
19	0x3dc869f7	0.09785836
20	0xbe85142e	-0.25991958
21	0x3d86dd30	0.06585157
22	0xbe29fc35	-0.16600116
23	0xbe5b2494	-0.21400672
24	0xbc928b6e	-0.01788875
25	0xbef1c9b9	-0.47224215
26	0xbe09a459	-0.134416
27	0x3e048bf1	0.12944008
28	0xbd7f702c	-0.062362835
29	0xbe4ab30a	-0.1979486
30	0xbdc228c5	-0.094804324
31	0x3ebd4af7	0.36971256
32	0x3e818d56	0.25303143
33	0x3eed36bf	0.4633083
34	0x3d88920c	0.06668481
35	0x3ede494d	0.434153
36	0x3e338389	0.17530645
37	0x3e82e635	0.2556626
38	0x3f06cdf0	0.52657986
39	0x3eaf85ac	0.3428167
40	0x3df5fe2b	0.12011369
41	0x3e47f5cb	0.19527356
42	0x3e64ef9d	0.2235703
43	0x3db8cc53	0.09023347
44	0xbdde7173	-0.108614825
45	0xbbe02792	-0.0068406546
46	0xbe28415e	-0.16431186
47	0xbda659a5	-0.08122567
48	0x3ea68330	0.32521963
49	0x3e2ab44c	0.1667034
50	0xbe4309a6	-0.1904665
51	0xbe873757	-0.26409408
52	0x3e3d1d4b	0.18468206
53	0xbc1ada6a	-0.009451488
54	0xbd81644c	-0.06317958
55	0x3dad48c0	0.084611416
56	0xbeb541cc	-0.35401762
57	0xbe868095	-0.26269975
58	0xbebac348	-0.36477113
59	0xbe6b176d	-0.22958155
60	0xbe9433b0	-0.28945684
61	0x3ec25e8a	0.37962753
62	0x3e200289	0.15625967
63	0x3ed5ad08	0.41733575
64	0x3ddbbb46	0.10729079
65	0x3ea45b2b	0.32100806
66	0x3e2cc665	0.16872557
67	0x3e0313d5	0.12800534
68	0x3f08c894	0.5343106
69	0x3d123aea	0.035700716
70	0xbe6e8867	-0.23294221
71	0xbe421ee0	-0.1895709
72	0xbdc1e15d	-0.09466813
73	0xbd32f288	-0.043688327
74	0x3e190970	0.14945006
75	0x3e978cf4	0.29599726
76	0xbe2b86f9	-0.16750707
77	0xbde7cc4a	-0.11318262
78	0xbdbce98b	-0.09224232
79	0x3e0c0cd4	0.13676769
80	0xbe86e244	-0.26344502
81	0x3ea32fe1	0.31872466
82	0xbe3d8ee9	-0.18511547
83	0x3efd327e	0.49452585
84	0x3f115dd7	0.56783813
85	0x3f097dd1	0.53707606
86	0x3e9d9907	0.30780813
87	0x3ea15e4a	0.3151725
88	0x3d612016	0.05496224
89	0x3e3a8b10	0.1821711
90	0x3df5106d	0.119660236
91	0xbe4d0459	-0.2002119
92	0xbd9eb208	-0.077488005
93	0xbd933532	-0.071878806
94	0xbf097d59	-0.5370689
95	0xbf1a91a1	-0.6037846
96	0xbe934a8b	-0.2876781
97	0xbe1f8781	-0.15579034
98	0xbe939920	-0.28827763
99	0xbdcf64bf	-0.10126638

raw_model.2.bias f4 [10]
0	0x3f347ab9	0.7049976
1	0xbf48c7ea	-0.78430045
2	0xbebbb5ea	-0.36662227
3	0x3f6a4cbf	0.91523355
4	0x3f09a160	0.53761864
5	0x3cfd0ff6	0.0308914
6	0x3f449f2c	0.76805377
7	0x3f8dbb0e	1.107271
8	0x3edb5d23	0.42844495
9	0xbf7b4879	-0.9815746

tail.weight f4 [1, 10]
0	0x3ea8b8a3	0.32953367
1	0xbf11e136	-0.5698427
2	0xbe8821d8	-0.2658832
3	0x3ef74bcf	0.48300025
4	0x3e1a7cf9	0.15086736
5	0xbd3abec6	-0.045592092
6	0x3f062789	0.52404076
7	0x3e9112b5	0.28334585
8	0x3ecd62f2	0.40114552
9	0xbf095404	-0.5364382
