CompareOQR/Experiments/EXP1/model_bin/GPmodel_on_yacht.pth (torch, 773599 bytes, 10 tensors)

hidden_layer.variational_strategy.inducing_points f4 [10, 128, 6]
0.08106789 0.17781183 0.052879322 -1.2081593 0.15192744 0.41566917 -0.006367785 -0.1925524
-0.430318 1.9736892 0.67793715 -0.22046931 -0.06942902 -1.4408242 -0.3110519 -0.8261575
0.23887195 1.1853148 0.14968465 -0.67188334 0.9850464 0.08915403 0.5666876 0.41165024
-0.39601824 0.16203514 -0.4029932 -0.14024477 -0.19828747 -0.39103246 -0.005531604 0.795857
1.0202609 0.11304793 0.8668429 1.6976821 0.10142144 -0.16425045 1.2858603 -0.036385033
0.4111047 0.38335633 -0.5253932 0.8572226 -0.2364299 0.08869756 0.18085147 -1.1311967
-0.117843695 0.21894643 -0.78906786 -0.35069326 -1.329671 -0.46581513 0.4082887 -0.9306005
0.13612904 0.26135314 -0.3352457 0.109908186 0.10068752 -0.5245514 0.1639718 0.14062516
-1.7040014 0.28775266 0.077247 0.18743858 -0.27944288 -1.2345474 -0.13420449 1.2710232
-0.67121404 0.08690163 -0.15309228 0.42316726 -0.47900015 0.34560063 0.026200885 -0.32176504
-1.397996 -0.067428105 0.13202381 -0.11346711 -0.36696824 0.03156974 0.2514821 0.9202252
0.1667655 1.738826 0.06988389 -0.65807235 1.308006 -0.39714882 1.1941644 0.30355126
0.38376105 0.60259473 0.20212086 -0.055927202 -0.19388951 1.9693004 -0.69286466 0.34946853
-0.3896763 -0.15906017 -0.68879735 -0.69936866 0.077446185 -0.21472806 1.3946426 -0.21859054
-0.333653 1.179848 -0.4054021 -0.08428666 -0.08869383 2.5639606 -0.6981112 -0.18619435
0.8777546 -0.22685876 0.14831758 -0.28033802 1.1360266 0.03355865 0.11644476 0.6411392
-0.20532869 0.050081152 0.3423005 0.5046018 0.05684276 0.09889844 -0.1736274 -0.17258567
0.60207 0.9909353 0.08673087 0.1998509 0.9452315 -0.035007853 1.2226231 0.6240307
0.43758953 0.4830255 -0.5647355 -0.22674775 -1.0994029 0.77724195 -0.1276204 0.25983045
0.051376227 0.82816505 -0.27214396 0.11013073 0.035129845 -1.1824685 -1.2015538 -1.7783705
-0.14527078 1.2193421 -0.26897335 1.4477168 -0.93701905 0.2910057 -0.540218 0.14612757
0.9054172 0.09890264 -0.8404839 0.51723796 -0.19965051 0.15419106 0.2085184 -0.1652772
0.016768573 -0.47562236 -0.24511424 -0.13555343 -1.5784081 -1.6788292 -0.4250752 -1.0931365
0.058187135 0.66093636 0.027293086 0.87322164 0.90211564 0.08199981 0.1924859 0.86330223
-0.05648887 0.4588728 -0.61461735 0.6218019 0.017639052 -0.5732013 -0.5501299 0.76641655
0.87806475 0.18194242 -0.76135963 1.3656652 0.6746736 -0.68839854 -0.21117143 1.0631036
-0.5210735 0.18030924 0.7385652 1.3360864 0.91114146 -0.40443307 -0.36254436 0.21313368
-1.5305462 -0.036463983 0.074091196 0.014933316 -0.11532995 0.7132992 0.079918146 1.118024
0.21562235 -0.14561363 0.42727417 0.085795514 0.3612996 0.050097205 0.14952788 0.20501186
0.3516656 -0.2172008 -0.017885301 0.768073 -0.3184595 -0.002659342 -0.01612669 -0.19584762
0.6490747 -0.34888273 0.036637813 -0.07447754 -0.2361726 -0.97114986 -0.08898695 -0.13435233
-0.21995571 0.5670842 -0.9995109 1.4656028 0.47668055 0.9038123 0.2133071 0.13002722
00000000: ec06 a63d 4e14 363e fd97 583d f7a4 9abf
00000010: de92 1b3e 97d2 d43e daa8 d0bb 752c 45be
00000020: a452 dcbe d9a1 fc3f 4a8d 2d3f b5c2 61be
00000030: cd30 8ebd ed6c b8bf 3242 9fbe 0f7f 53bf
00000040: d99a 743e 65b8 973f ef46 193e 8c00 2cbf
00000050: 002c 7c3f 6396 b63d 7012 113f d2c3 d23e
00000060: e7c2 cabe 8aec 253e 2055 cebe 539c 0fbe
00000070: df0b 4bbe 6835 c8be 7542 b5bb 49bd 4b3f
00000080: e997 823f ac85 e73d 6be9 5d3f a64d d93f
00000090: 0bb6 cf3d 4531 28be 1297 a43f 7908 15bd
000000a0: 517c d23e 4847 c43e 2b80 06bf f172 5b3f
000000b0: ae1a 72be 11a7 b53d 2131 393e 0ecb 90bf
000000c0: 0958 f1bd 7e33 603e 5a00 4abf 118e b3be
000000d0: a932 aabf 527f eebe 370b d13e d63b 6ebf
000000e0: 6965 0b3e 14d0 853e 53a5 abbe 8b17 e13d
000000f0: 4235 ce3d 0049 06bf 39e8 273e 0b00 103e
00000100: b81c dabf 5154 933e ad33 9e3d e6ef 3f3e
00000110: 2313 8fbe a605 9ebf e76c 09be e3b0 a23f
00000120: afd4 2bbf 7bf9 b13d 39c4 1cbe 61a9 d83e
00000130: 823f f5be 91f2 b03e 3da3 d63c 63be a4be
00000140: 88f1 b2bf bf17 8abd 4031 073e 7261 e8bd
00000150: 43e3 bbbe 464f 013d 43c2 803e e193 6b3f
00000160: 93c4 2a3e da91 de3f 491f 8f3d 6e77 28bf
00000170: be6c a73f 1757 cbbe 61da 983f 126b 9b3e
00000180: 547c c43e a643 1a3f c5f8 4e3e ec13 65bd
00000190: f98a 46be 0912 fc3f 945f 31bf 8aed b23e
000001a0: a783 c7be abe0 22be 0655 30bf d309 33bf
000001b0: 1b9c 9e3d ace1 5bbe a683 b23f 33d6 5fbe
000001c0: 91d4 aabe 4205 973f dd90 cfbe 7c9e acbd
000001d0: 1ca5 b5bd ee17 2440 6ab7 32bf bba9 3ebe
000001e0: 87b4 603f aa4d 68be 90e0 173e 7788 8fbe
000001f0: 5269 913f cc74 093d 977a ee3d b321 243f
00000200: af41 52be e521 4d3d 0342 af3e 952d 013f
00000210: f4d3 683d 448b ca3d 62cb 31be 4cba 30be
00000220: 4221 1a3f f0ad 7d3f f49f b13d b7a5 4c3e
00000230: b1fa 713f 6564 0fbd ea7e 9c3f 7ac0 1f3f
00000240: bc0b e03e 1e4f f73e 8192 10bf 9030 68be
00000250: 3cb9 8cbf 54f9 463f ecae 02be 7f08 853e
00000260: e16f 523d a002 543f 7456 8bbe 388c e13d
00000270: 50e4 0f3d 215b 97bf 84cc 99bf a5a1 e3bf
00000280: ddc1 14be 6713 9c3f e0b6 89be c94e b93f
00000290: 7be0 6fbf b3fe 943e ba4b 0abf 77a2 153e
000002a0: 6cc9 673f 788d ca3d f429 57bf b569 043f
000002b0: 2f71 4cbe 43e4 1d3e d985 553e 6d3e 29be
000002c0: 3f5e 893c c684 f3be 3aff 7abe 85ce 0abe
000002d0: 4709 cabf e0e3 d6bf 75a3 d9be e6eb 8bbf
000002e0: a255 6e3d 2033 293f c095 df3c 748b 5f3f
000002f0: 0df1 663f 84ef a73d 061b 453e 6001 5d3f
00000300: e060 67bd 60f1 ea3e 9057 1dbf 692e 1f3f
00000310: c67f 903c 52bd 12bf 50d5 0cbf e033 443f
00000320: dac8 603f 1d4f 3a3e 77e8 42bf 1ece ae3f
00000330: 69b7 2c3f e33a 30bf 533d 58be c713 883f
00000340: 1365 05bf fca2 383e 9c12 3d3f e104 ab3f
00000350: 9140 693f da11 cfbe 6a9f b9be b73f 5a3e
00000360: f0e8 c3bf 425b 15bd 20bd 973d deaa 743c
00000370: 1c32 ecbd c79a 363f 20ac a33d 691b 8f3f
00000380: 1bcc 5c3e bd1b 15be aec3 da3e 8fb5 af3d
00000390: 43fc b83e ba32 4d3d d61d 193e a1ee 513e
000003a0: 830d b43e e369 5ebe 3284 92bc 6fa0 443f
000003b0: 200d a3be 5b48 2ebb 1f1c 84bc 478c 48be
000003c0: c229 263f c2a0 b2be 8811 163d ae87 98bd
000003d0: 3bd7 71be 479d 78bf ca3e b6bd a893 09be
000003e0: 123c 61be 6e2c 113f f2df 7fbf df98 bb3f
000003f0: 790f f43e 3e60 673f 2d6d 5a3e db25 053e

hidden_layer.variational_strategy._variational_distribution.variational_mean f4 [10, 128]
0.22677295 -0.20498043 -0.09863971 -0.14354193 0.57161945 -0.2514004 -0.54933864 -0.5434078
-0.13011189 -0.34576106 -0.3664293 0.049170464 0.23262237 0.2907547 -0.3467853 -0.18041891
0.0127841765 -0.13742323 0.19959366 -0.70437276 -0.48305622 0.09978534 -0.13922527 -0.0150814885
0.10003242 -0.43102673 0.086120196 -0.18595989 -0.44179723 0.08050335 0.27263874 -0.09986081
-0.021542562 -0.25517723 -0.5335936 -0.5072536 0.29909992 -0.3546153 0.115594275 -0.26323947
-0.034277223 -0.24537237 0.31241634 0.11320433 0.066479914 -0.21920075 -0.18599336 0.15611744
-0.10231245 -0.11311377 -0.10767026 -0.122069344 0.012768219 0.112947196 -0.027277976 -0.20243156
0.04583946 -0.45164084 -0.17381474 -0.24836278 -0.06608854 0.10988823 0.21089335 -0.06530971
-0.093897514 -0.048796065 0.14686355 -0.43040034 0.24578506 0.040262263 0.08619637 -0.30904263
-0.005972145 -0.15170532 -0.2845207 -0.04892194 -0.088473074 0.029730164 0.12784335 -0.14103815
-0.22369692 -0.24759576 0.0103512015 -0.0047334568 -0.0894532 0.10121806 -0.1623001 0.02512551
-0.010684543 -0.12833999 0.007562693 -0.050231725 -0.13537182 -0.16602218 0.10383446 0.032701604
0.10614343 -0.06513529 0.13090834 0.12322532 0.540301 0.074205756 0.19265774 0.19472873
-0.026723573 -0.06441251 -0.089455016 0.24028221 -0.115225635 0.019965583 0.27730137 -0.13838705
0.15397245 0.03282592 -0.24891265 -0.023417166 0.17747535 0.14930098 -0.024099533 0.07920396
-0.026262129 -0.017620075 0.04664092 -0.1045352 -0.015165171 -0.03258467 0.12358633 0.15196428
0.18615831 0.06798216 -0.09758779 -0.69614166 -0.33554637 0.11694737 -0.10978948 0.19147053
-0.59022117 -0.067089036 -0.26387003 -0.14409912 0.011744815 0.31613404 -0.05156321 -0.20694397
-0.1661295 0.2653964 -0.2869215 0.014331512 0.13333704 -0.40373564 0.3896388 0.40058172
0.24685675 -0.3388951 0.15987672 -0.60628533 0.13078839 -0.017799431 -0.37386566 0.38629448
0.11445023 0.16306005 0.24432242 0.49157435 -0.005507334 0.17284834 -0.21138164 -0.08843282
-0.093353204 0.09972075 -0.113362044 -0.5665761 0.087469235 -0.13328159 0.059568636 -0.31785214
-0.3132437 -0.3566695 -0.01193489 -0.5219452 0.19966069 -0.088129036 0.15420999 -0.032395694
0.48476017 -0.5750839 0.118142955 0.35884616 0.2943826 -0.01144547 0.18479651 0.02206187
0.23875669 -0.0155231 -0.41858056 -0.48324803 0.24986129 0.08033717 0.08763316 0.088463396
0.2453609 -0.018279007 -0.4712594 -0.08357192 -0.070970796 0.18181048 0.07580942 -0.14239147
-0.17202413 0.3129077 0.0012483699 -0.08267699 -0.48351988 0.019308517 0.062123496 0.09903653
-0.03211169 -0.044459987 -0.09128196 0.19792417 0.16492167 0.17138276 -0.15843762 0.16692275
-0.08438731 0.24318531 -0.14334792 -0.74002725 0.1828015 -0.28224882 0.17706698 -0.1101732
-0.14930414 0.08011978 0.18030524 0.10863536 -0.24949464 -0.22345953 -0.13022633 0.14139746
-0.0212288 -0.14528614 0.112899184 -0.01660562 0.062178515 -0.002145521 -0.22665113 0.28883493
-0.067591816 0.1748358 0.10044513 0.06913382 0.054238703 -0.078281306 -0.19413048 0.14831159
00000000: 2b37 683e 64e6 51be 9e03 cabd a8fc 12be
00000010: a755 123f 8eb7 80be 75a1 0cbf c61c 0bbf
00000020: 0d3c 05be 9807 b1be 9f9c bbbe f866 493d
00000030: 8f34 6e3e cddd 943e d88d b1be bcbf 38be
00000040: b974 513c adb8 0cbe 4862 4c3e c651 34bf
00000050: 2553 f7be 425c cc3d 1291 0ebe 5918 77bc
00000060: ccdd cc3d 89af dcbe c95f b03d 456c 3ebe
00000070: 3f33 e2be f1de a43d 4e97 8b3e d383 ccbd
00000080: 077a b0bc 97a6 82be 9799 08bf 5fdb 01bf
00000090: a023 993e 2390 b5be b1bc ec3d 53c7 86be
000000a0: 4666 0cbd e542 7bbe 09f5 9f3e acd7 e73d
000000b0: 9f26 883d 2976 60be 0b75 3ebe 40dd 1f3e
000000c0: 3189 d1bd 31a8 e7bd 3a82 dcbd 7eff f9bd
000000d0: cb31 513c dc50 e73d 1076 dfbc 384a 4fbe
000000e0: 28c2 3b3d 783d e7be 7efc 31be d052 7ebe
000000f0: 6e59 87bd 150d e13d 6df4 573e 19c1 85bd
00000100: 574d c0bd 62de 47bd 6663 163e 6f5d dcbe
00000110: 14af 7b3e 0bea 243d b987 b03d d63a 9ebe
00000120: fcb1 c3bb a458 1bbe b2ac 91be 5f62 48bd
00000130: 5f31 b5bd ac8c f33c 5ee9 023e 4e6c 10be
00000140: ce10 65be be89 7dbe 1698 293c 1d1b 9bbb
00000150: 3d33 b7bd 6a4b cf3d ff31 26be 03d4 cd3c
00000160: 390e 2fbc 8f6b 03be 78d0 f73b c8bf 4dbd
00000170: e99e 0abe b801 2abe 29a7 d43d 1ef2 053d
00000180: ba61 d93d a765 85bd d60c 063e 8e5d fc3d
00000190: 2b51 0a3f 30f9 973d 1248 453e f866 473e
000001a0: 65eb dabc b5ea 83bd 3134 b7bd 8a0c 763e
000001b0: 6bfb ebbd dd8e a33c 72fa 8d3e 56b5 0dbe
000001c0: f4aa 1d3e 7974 063d f5e2 7ebe 5bd5 bfbc
000001d0: 19bc 353e 5be2 183e 626c c5bc b035 a23d
000001e0: ad23 d7bc fa57 90bc 8d0a 3f3d 8d16 d6bd
000001f0: 5677 78bc 8177 05bd d41a fd3d 869c 1b3e
00000200: 49a0 3e3e 3b3a 8b3d 1bdc c7bd 5736 32bf
00000210: bccc abbe 1a82 ef3d 4fd9 e0bd da10 443e
00000220: bc18 17bf fa65 89bd f919 87be b88e 13be
00000230: 536d 403c 52dc a13e f233 53bd 1fe9 53be
00000240: da1d 2abe 09e2 873e 60e7 92be b8ce 6a3c
00000250: 8189 083e 70b6 cebe bd7e c73e 0c19 cd3e
00000260: 04c8 7c3e a983 adbe b9b6 233e 8435 1bbf
00000270: 64ed 053e 1dd0 91bc 526b bfbe 64c8 c53e
00000280: e264 ea3d 37f9 263e a82f 7a3e a2af fb3e
00000290: de76 b4bb 28ff 303e 6e74 58be 441c b5bd
000002a0: f72f bfbd 643a cc3d 5c2a e8bd 220b 11bf
000002b0: 1223 b33d f87a 08be 3efe 733d 84bd a2be
000002c0: 7a61 a0be 629d b6be 8f8a 43bc 339e 05bf
000002d0: da73 4c3e ff7c b4bd 39e9 1d3e 59b1 04bd
000002e0: 7c32 f83e b338 13bf eff4 f13d afba b73e
000002f0: 51b9 963e c885 3bbc 4c3b 3d3e 18bb b43c
00000300: a27c 743e 9a54 7ebc 3150 d6be 496c f7be
00000310: a3db 7f3e d087 a43d 0479 b33d 4c2c b53d
00000320: e33f 7b3e dbbd 95bc e948 f1be c127 abbd
00000330: 2359 91bd 872c 3a3e f841 9b3d 12cf 11be
00000340: 1827 30be 7035 a03e 58a0 a33a 8e52 a9bd
00000350: eb8f f7be e52c 9e3c 3575 7e3d aad3 ca3d
00000360: 8c87 03bd ad1b 36bd 09f2 babd a2ac 4a3e
00000370: 3ae1 283e f67e 2f3e 793d 22be cced 2a3e
00000380: 41d3 acbd 9205 793e ccc9 12be 6d72 3dbf
00000390: 5130 3b3e eb82 90be 0c51 353e 7da2 e1bd
000003a0: 2fe3 18be d715 a43d f0a1 383e 377c de3d
000003b0: 867b 7fbe 93d2 64be 0d5a 05be 7fca 103e
000003c0: 05e8 adbc e4c5 14be b037 e73d 8208 88bc
000003d0: e6ae 7e3d df9b 0cbb 3c17 68be 2ce2 933e
000003e0: 946d 8abd 2808 333e 2db6 cd3d 0896 8d3d
000003f0: 6729 5e3d f351 a0bd 24ca 46be fede 173e

hidden_layer.variational_strategy._variational_distribution.chol_variational_covar f4 [10, 128, 128]
0.52178776 0.0 0.0 0.0 0.0 0.0 0.0 0.0
0.0 0.0 0.0 0.0 0.0 0.0 0.0 0.0
0.0 0.0 0.0 0.0 0.0 0.0 0.0 0.0
0.0 0.0 0.0 0.0 0.0 0.0 0.0 0.0
0.0 0.0 0.0 0.0 0.0 0.0 0.0 0.0
0.0 0.0 0.0 0.0 0.0 0.0 0.0 0.0
0.0 0.0 0.0 0.0 0.0 0.0 0.0 0.0
0.0 0.0 0.0 0.0 0.0 0.0 0.0 0.0
0.0 0.0 0.0 0.0 0.0 0.0 0.0 0.0
0.0 0.0 0.0 0.0 0.0 0.0 0.0 0.0
0.0 0.0 0.0 0.0 0.0 0.0 0.0 0.0
0.0 0.0 0.0 0.0 0.0 0.0 0.0 0.0
0.0 0.0 0.0 0.0 0.0 0.0 0.0 0.0
0.0 0.0 0.0 0.0 0.0 0.0 0.0 0.0
0.0 0.0 0.0 0.0 0.0 0.0 0.0 0.0
0.0 0.0 0.0 0.0 0.0 0.0 0.0 0.0
-0.23305736 0.8365696 0.0 0.0 0.0 0.0 0.0 0.0
0.0 0.0 0.0 0.0 0.0 0.0 0.0 0.0
0.0 0.0 0.0 0.0 0.0 0.0 0.0 0.0
0.0 0.0 0.0 0.0 0.0 0.0 0.0 0.0
0.0 0.0 0.0 0.0 0.0 0.0 0.0 0.0
0.0 0.0 0.0 0.0 0.0 0.0 0.0 0.0
0.0 0.0 0.0 0.0 0.0 0.0 0.0 0.0
0.0 0.0 0.0 0.0 0.0 0.0 0.0 0.0
0.0 0.0 0.0 0.0 0.0 0.0 0.0 0.0
0.0 0.0 0.0 0.0 0.0 0.0 0.0 0.0
0.0 0.0 0.0 0.0 0.0 0.0 0.0 0.0
0.0 0.0 0.0 0.0 0.0 0.0 0.0 0.0
0.0 0.0 0.0 0.0 0.0 0.0 0.0 0.0
0.0 0.0 0.0 0.0 0.0 0.0 0.0 0.0
0.0 0.0 0.0 0.0 0.0 0.0 0.0 0.0
0.0 0.0 0.0 0.0 0.0 0.0 0.0 0.0
00000000: e293 053f 0000 0000 0000 0000 0000 0000
00000010: 0000 0000 0000 0000 0000 0000 0000 0000
00000020: 0000 0000 0000 0000 0000 0000 0000 0000
00000030: 0000 0000 0000 0000 0000 0000 0000 0000
00000040: 0000 0000 0000 0000 0000 0000 0000 0000
00000050: 0000 0000 0000 0000 0000 0000 0000 0000
00000060: 0000 0000 0000 0000 0000 0000 0000 0000
00000070: 0000 0000 0000 0000 0000 0000 0000 0000
00000080: 0000 0000 0000 0000 0000 0000 0000 0000
00000090: 0000 0000 0000 0000 0000 0000 0000 0000
000000a0: 0000 0000 0000 0000 0000 0000 0000 0000
000000b0: 0000 0000 0000 0000 0000 0000 0000 0000
000000c0: 0000 0000 0000 0000 0000 0000 0000 0000
000000d0: 0000 0000 0000 0000 0000 0000 0000 0000
000000e0: 0000 0000 0000 0000 0000 0000 0000 0000
000000f0: 0000 0000 0000 0000 0000 0000 0000 0000
00000100: 0000 0000 0000 0000 0000 0000 0000 0000
00000110: 0000 0000 0000 0000 0000 0000 0000 0000
00000120: 0000 0000 0000 0000 0000 0000 0000 0000
00000130: 0000 0000 0000 0000 0000 0000 0000 0000
00000140: 0000 0000 0000 0000 0000 0000 0000 0000
00000150: 0000 0000 0000 0000 0000 0000 0000 0000
00000160: 0000 0000 0000 0000 0000 0000 0000 0000
00000170: 0000 0000 0000 0000 0000 0000 0000 0000
00000180: 0000 0000 0000 0000 0000 0000 0000 0000
00000190: 0000 0000 0000 0000 0000 0000 0000 0000
000001a0: 0000 0000 0000 0000 0000 0000 0000 0000
000001b0: 0000 0000 0000 0000 0000 0000 0000 0000
000001c0: 0000 0000 0000 0000 0000 0000 0000 0000
000001d0: 0000 0000 0000 0000 0000 0000 0000 0000
000001e0: 0000 0000 0000 0000 0000 0000 0000 0000
000001f0: 0000 0000 0000 0000 0000 0000 0000 0000
00000200: 97a6 6ebe 6d29 563f 0000 0000 0000 0000
00000210: 0000 0000 0000 0000 0000 0000 0000 0000
00000220: 0000 0000 0000 0000 0000 0000 0000 0000
00000230: 0000 0000 0000 0000 0000 0000 0000 0000
00000240: 0000 0000 0000 0000 0000 0000 0000 0000
00000250: 0000 0000 0000 0000 0000 0000 0000 0000
00000260: 0000 0000 0000 0000 0000 0000 0000 0000
00000270: 0000 0000 0000 0000 0000 0000 0000 0000
00000280: 0000 0000 0000 0000 0000 0000 0000 0000
00000290: 0000 0000 0000 0000 0000 0000 0000 0000
000002a0: 0000 0000 0000 0000 0000 0000 0000 0000
000002b0: 0000 0000 0000 0000 0000 0000 0000 0000
000002c0: 0000 0000 0000 0000 0000 0000 0000 0000
000002d0: 0000 0000 0000 0000 0000 0000 0000 0000
000002e0: 0000 0000 0000 0000 0000 0000 0000 0000
000002f0: 0000 0000 0000 0000 0000 0000 0000 0000
00000300: 0000 0000 0000 0000 0000 0000 0000 0000
00000310: 0000 0000 0000 0000 0000 0000 0000 0000
00000320: 0000 0000 0000 0000 0000 0000 0000 0000
00000330: 0000 0000 0000 0000 0000 0000 0000 0000
00000340: 0000 0000 0000 0000 0000 0000 0000 0000
00000350: 0000 0000 0000 0000 0000 0000 0000 0000
00000360: 0000 0000 0000 0000 0000 0000 0000 0000
00000370: 0000 0000 0000 0000 0000 0000 0000 0000
00000380: 0000 0000 0000 0000 0000 0000 0000 0000
00000390: 0000 0000 0000 0000 0000 0000 0000 0000
000003a0: 0000 0000 0000 0000 0000 0000 0000 0000
000003b0: 0000 0000 0000 0000 0000 0000 0000 0000
000003c0: 0000 0000 0000 0000 0000 0000 0000 0000
000003d0: 0000 0000 0000 0000 0000 0000 0000 0000
000003e0: 0000 0000 0000 0000 0000 0000 0000 0000
000003f0: 0000 0000 0000 0000 0000 0000 0000 0000

hidden_layer.mean_module.weights f4 [6, 1]
0.042811617 -0.12003519 -0.4593014 0.45443463 0.4832345 -1.0492368
00000000: 3c5b 2f3d 02d5 f5bd 8e29 ebbe a8ab e83e
00000010: 836a f73e 644d 86bf

hidden_layer.covar_module.raw_outputscale f4 [10]
-2.0594056 -2.1024354 -2.107058 -2.011102 -2.0859902 -2.0887325 -2.113112 -2.109665
-2.0916903 -2.1739426
00000000: 4dcd 03c0 4d8e 06c0 0ada 06c0 e5b5 00c0
00000010: dd80 05c0 cbad 05c0 3a3d 07c0 c004 07c0
00000020: 41de 05c0 e021 0bc0

hidden_layer.covar_module.base_kernel.raw_lengthscale f4 [10, 1, 6]
1.7113943 1.8271072 1.8606166 2.0610905 1.8155042 1.6713086 1.794188 1.8337528
1.8883756 1.9779574 1.7590877 1.5765576 1.69308 1.8573552 1.7170113 1.9933738
1.757298 1.6686736 1.7760094 1.9187663 1.814299 2.0328918 1.6782745 1.5832822
1.7261934 1.763401 1.8039227 1.938907 1.6587862 1.6848269 1.8197556 1.7974703
1.8900295 2.0207658 1.7871726 1.6379145 1.6204419 1.8304708 1.8034576 1.9509952
1.7032323 1.6316379 1.6751649 1.7185544 1.7739578 1.9056625 1.7023516 1.7500054
1.7377893 1.7574581 1.6811209 1.9696611 1.7623954 1.6693785 1.7480652 1.7942233
1.822147 2.044641 1.7175678 1.7160641
00000000: f80e db3f a6de e93f af28 ee3f e8e8 0340
00000010: 7162 e83f 71ed d53f f4a7 e53f 69b8 ea3f
00000020: 4bb6 f13f b52d fd3f c929 e13f a4cc c93f
00000030: d8b6 d83f d1bd ed3f 07c7 db3f df26 ff3f
00000040: 24ef e03f 1997 d53f 4754 e33f 229a f53f
00000050: f33a e83f e61a 0240 b3d1 d63f fea8 ca3f
00000060: e8f3 dc3f 20b7 e13f f0e6 e63f 1b2e f83f
00000070: 1b53 d43f 68a8 d73f c0ed e83f 8213 e63f
00000080: 7dec f13f 3a54 0140 12c2 e43f 2fa7 d13f
00000090: a46a cf3f de4c ea3f b3d7 e63f 36ba f93f
000000a0: 8403 da3f 83d9 d03f ce6b d63f 97f9 db3f
000000b0: 0d11 e33f c0ec f33f a8e6 d93f 2d00 e03f
000000c0: e16f de3f 63f4 e03f f82e d73f db1d fc3f
000000d0: 2c96 e13f 32ae d53f 9ac0 df3f 1ca9 e53f
000000e0: 1d3c e93f 66db 0240 43d9 db3f fda7 db3f

last_layer.variational_strategy.inducing_points f4 [128, 10]
-0.45849293 0.3101288 2.5317912 -1.6614892 -0.63278025 0.38517883 -0.8079237 0.6123356
1.3380172 -0.94571894 1.256127 2.0608518 -0.24755059 1.3172308 1.1309416 0.15092368
-0.14910357 0.11513194 -0.20043486 1.200157 -0.14649779 1.7202303 -0.5727361 0.18067482
0.74060714 -0.28844342 -1.0843313 -1.0461727 2.1022377 0.43516478 1.4505482 0.9574801
-1.2009432 -0.99761426 -1.1536591 1.5000932 0.26266393 -1.2450862 -0.88681734 -0.3883273
0.79724556 -0.11014805 1.0793625 -0.94400984 -2.8605664 0.2768766 -1.0585188 -1.0984776
-0.4516041 -0.15478209 0.34936133 0.25064352 -1.2936192 -0.08176261 1.4203959 0.84688294
-1.2209179 -0.6267402 1.5767626 0.7340995 0.74200267 0.81685483 -1.3108624 1.4166992
-0.5644273 0.8026961 1.1208004 1.0439109 -0.70985216 -1.1644979 0.22603543 -0.6878209
-0.6045876 1.1878465 -1.0260963 0.20881511 -0.32168198 -0.97128546 2.5090854 -0.9511754
0.3913199 -1.5415038 -2.6519117 -0.5574773 -0.9347079 0.2500733 -0.15277576 0.66264886
-1.2601807 -0.76761436 1.2939061 1.3765708 -1.3030468 -1.304935 -0.39189884 0.25420982
-0.7209028 1.0190399 -0.9246713 0.71338236 0.45774803 -0.1242822 -0.30725074 -0.8964725
-0.47026992 1.1881378 -0.7379523 0.7536507 0.37435892 -2.7320366 1.4226438 0.98488
0.8793238 -0.3122798 0.78157806 -0.24304628 -1.1151932 0.8735516 1.6794631 0.013854541
1.7358334 0.40369266 -0.013764197 -0.5564917 1.1516103 1.0619653 -0.78146505 -1.1834137
-0.49914715 0.7339176 -0.4653491 0.6675542 -0.21668577 -0.51578295 1.0145139 1.0107977
-0.69644046 -1.2968944 1.2772001 -1.6259605 -0.65556306 -2.144478 -1.0655909 0.17746358
-1.9463131 -0.9545012 -1.1420695 -0.38477898 0.12429839 -1.2351243 1.1660403 0.6794993
1.9194994 -0.3844006 0.7953477 0.11175566 1.867062 0.5658106 -0.94767815 -0.7803546
0.73062193 -1.0042363 -1.1565548 -1.3174007 1.2576634 -1.5005026 -1.0532947 0.62731177
-0.75254756 1.415222 0.84878993 1.7330515 -0.5044731 0.6783232 -0.113429524 -0.7158785
-0.963003 0.65766495 0.67630523 0.8709835 0.8294532 -1.3945568 -0.73757917 -0.71770173
-1.2289861 0.7089848 -0.7851054 -1.3390721 1.4672705 0.45965967 -1.9414824 1.5998003
-0.29308757 0.33645564 0.1666443 -0.8020043 -0.6752238 1.3303964 -0.48848936 1.0610709
-2.091512 0.81493026 -1.2009084 -0.0033824972 -0.22766082 -0.40751782 -1.3158396 -0.8523542
-0.5351964 1.2444065 -0.99105597 0.732984 -1.2367294 -0.57241195 1.4277978 0.0497858
-0.65699184 0.9275362 -0.5580543 1.2177148 -1.1373924 -0.8853102 -1.6255754 -0.01920533
0.8985488 1.611163 -0.5039633 -0.85170525 -0.41567573 -0.4914182 -1.7522107 -0.981113
-0.39442012 -0.9408924 -1.6425672 -1.008971 -0.80839616 1.0404937 1.5218567 0.6778815
0.39502034 0.21798202 -0.83035374 -0.85795134 -1.143439 0.94115263 -0.76094246 -1.1167021
1.0522012 -0.8782666 0.13286585 -1.0284307 -1.4177856 -0.19831327 -0.5246341 0.6813325
00000000: 96bf eabe 34c9 9e3e de08 2240 aeab d4bf
00000010: e3fd 21bf 2936 c53e 16d4 4ebf 07c2 1c3f
00000020: 2644 ab3f a31a 72bf c5c8 a03f ffe4 0340
00000030: e77d 7dbe 059b a83f b2c2 903f bd8b 1a3e
00000040: 9bae 18be 4bca eb3d cc3e 4dbe bf9e 993f
00000050: 8403 16be 8230 dc3f d59e 12bf d202 393e
00000060: 6e98 3d3f dbae 93be 5ecb 8abf fde8 85bf
00000070: 108b 0640 ebcd de3e 90ab b93f 6a1d 753f
00000080: 82b8 99bf a663 7fbf 1aab 93bf 0e03 c03f
00000090: e37b 863e fc5e 9fbf 7606 63bf d6d2 c6be
000000a0: 4918 4c3f 4d95 e1bd 8d28 8a3f a1aa 71bf
000000b0: 8513 37c0 c5c2 8d3e 8b7d 87bf ea9a 8cbf
000000c0: a738 e7be 327f 1ebe 7ddf b23e 5954 803e
000000d0: 5095 a5bf 2873 a7bd 88cf b53f 52cd 583f
000000e0: 0a47 9cbf 0c72 20bf 5bd3 c93f f2ed 3b3f
000000f0: e3f3 3d3f 661d 513f 57ca a7bf 6656 b53f
00000100: 4f7e 10bf 7e7d 4d3f 6376 8f3f df9e 853f
00000110: dfb8 35bf 440e 95bf d575 673e 0815 30bf
00000120: 41c6 1abf 5b0b 983f 2057 83bf a1d3 553e
00000130: 80b3 a4be 2aa6 78bf db94 2040 3b80 73bf
00000140: 155b c83e ff4f c5bf ecb8 29c0 d5b6 0ebf
00000150: 0449 6fbf 9c09 803e 4071 1cbe 5ba3 293f
00000160: 9a4d a1bf 6082 44bf b79e a53f 7933 b03f
00000170: 3dca a6bf 1c08 a7bf f7a6 c8be ca27 823e
00000180: 168d 38bf e66f 823f 42b7 6cbf 3aa0 363f
00000190: f35d ea3e ab87 febd f84f 9dbe 397f 65bf
000001a0: 38c7 f0be e614 983f 71ea 3cbf 41ef 403f
000001b0: f9ab bf3e b0d9 2ec0 3119 b63f 1821 7c3f
000001c0: 5d1b 613f 23e3 9fbe 8015 483f 20e1 78be
000001d0: a7be 8ebf 14a1 5f3f a6f8 d63f 28fe 623c
000001e0: ca2f de3f ceb0 ce3e 3a83 61bc 3d76 0ebf
000001f0: f767 933f 7bee 873f 180e 48bf 1a7a 97bf
00000200: 3790 ffbe 06e2 3b3f 3d42 eebe d5e4 2a3f
00000210: e0e2 5dbe 5a0a 04bf 97db 813f d261 813f
00000220: ec49 32bf a300 a6bf 4b7b a33f 791f d0bf
00000230: fbd2 27bf 213f 09c0 4865 88bf 03b9 353e
00000240: ca20 f9bf 315a 74bf 552f 92bf c001 c5be
00000250: 2790 fe3d 8e18 9ebf cf40 953f abf3 2d3f
00000260: 28b2 f53f 28d0 c4be e89b 4b3f 27e0 e43d
00000270: e3fb ee3f f7d8 103f 099b 72bf 52c5 47bf
00000280: 0a0a 3b3f d18a 80bf fd09 94bf 96a0 a8bf
00000290: 1dfb a03f 7810 c0bf 5cd2 86bf 8197 203f
000002a0: f5a6 40bf ff25 b53f 4c4a 593f a2d4 dd3f
000002b0: 2625 01bf 97a6 2d3f bd4d e8bd d043 37bf
000002c0: 5d87 76bf bb5c 283f 5722 2d3f c6f8 5e3f
000002d0: 0b57 543f d680 b2bf fdd1 3cbf 4dbb 37bf
000002e0: 6b4f 9dbf 0780 353f abfc 48bf b766 abbf
000002f0: 85cf bb3f 8358 eb3e 7f82 f8bf 42c6 cc3f
00000300: 930f 96be ea43 ac3e cea4 2a3e 2750 4dbf
00000310: 78db 2cbf 6e4a aa3f 471b fabe 2cd1 873f
00000320: 55db 05c0 459f 503f 5eb7 99bf e3ac 5dbb
00000330: eb1f 69be 2da6 d0be 6f6d a8bf e333 5abf
00000340: a202 09bf b648 9f3f d8b5 7dbf d7a4 3b3f
00000350: 264d 9ebf 9789 12bf 14c2 b63f 32ec 4b3d
00000360: 9e30 28bf 0373 6d3f a6dc 0ebf 14de 9b3f
00000370: 1396 91bf b0a3 62bf db12 d0bf 7f54 9dbc
00000380: 4b07 663f 973a ce3f bd03 01bf 5b09 5abf
00000390: 73d3 d4be 2b9b fbbe 7148 e0bf 392a 7bbf
000003a0: 6ff1 c9be 53de 70bf a43f d2bf f625 81bf
000003b0: 0df3 4ebf e62e 853f 33cc c23f a489 2d3f
000003c0: 1b40 ca3e ae36 5f3e 1092 54bf b3a2 5bbf
000003d0: 365c 92bf 61ef 703f 20cd 42bf 18f0 8ebf
000003e0: 87ae 863f 14d6 60bf fc0d 083e 9ea3 83bf
000003f0: 007a b5bf a212 4bbe 6c4e 06bf cf6b 2e3f

last_layer.variational_strategy._variational_distribution.variational_mean f4 [128]
2.600076 2.6075785 2.602901 2.6636438 2.5834293 2.6336627 2.6497147 2.6467524
2.6277754 2.662958 2.6182945 2.656353 2.612945 2.647482 2.6456585 2.6277378
2.6778355 2.6742313 2.681475 2.6221988 2.6893814 2.6545901 2.6856172 2.680068
2.7226417 2.7087688 2.5709023 2.630866 2.6321394 2.7083874 2.5342112 2.677163
2.7039957 2.6199145 2.6337965 2.649467 2.6626837 2.669834 2.661237 2.7006097
2.7555656 2.7184184 2.6276038 2.6901348 2.675406 2.6816664 2.6625092 2.6953607
2.7097952 2.6671872 2.6789331 2.7724624 2.6595762 2.7766244 2.700014 2.7065494
2.6868331 2.6481922 2.68663 2.7394638 2.726358 2.7354553 2.7343516 2.6982625
2.719959 2.7357986 2.7107086 2.6455717 2.7652907 2.6831052 2.6981914 -2.8746254
2.7232769 -2.7461078 2.6811118 2.8071573 2.6704507 2.6794424 2.7241013 2.7608292
-3.2132337 2.8139007 2.7254112 2.7675033 2.8228486 -2.9668674 -2.780952 2.7547343
2.8529549 3.0389652 2.877848 2.7117615 2.678912 2.7478788 2.6872683 2.6710055
2.4810221 2.7872097 2.7519264 2.706514 2.7259989 2.7128386 2.7698503 2.8098793
3.235716 2.7686014 2.7399154 2.8915055 2.769223 3.101198 2.7351692 2.7585392
2.7765026 2.8066707 2.7996562 2.6551874 2.7941253 -3.0044467 2.7785707 2.7745743
2.7878444 2.8260381 2.7614522 2.797477 2.6712556 2.558634 2.8399262 3.4532475
00000000: a567 2640 91e2 2640 ee95 2640 2479 2a40
00000010: e856 2540 ee8d 2840 ed94 2940 6464 2940
00000020: 792d 2840 e76d 2a40 2392 2740 b001 2a40
00000030: 7e3a 2740 5870 2940 7852 2940 db2c 2840
00000040: a861 2b40 9b26 2b40 499d 2b40 1bd2 2740
00000050: d31e 2c40 cee4 2940 27e1 2b40 3c86 2b40
00000060: c33f 2e40 785c 2d40 aa89 2440 1c60 2840
00000070: f974 2840 3856 2d40 8430 2240 a356 2b40
00000080: 440e 2d40 aeac 2740 1f90 2840 de90 2940
00000090: 6969 2a40 8fde 2a40 b551 2a40 cad6 2c40
000000a0: 305b 3040 91fa 2d40 a92a 2840 2b2b 2c40
000000b0: da39 2b40 6ca0 2b40 8d66 2a40 ca80 2c40
000000c0: 496d 2d40 32b3 2a40 a473 2b40 0670 3140
000000d0: 7f36 2a40 37b4 3140 08cd 2c40 1b38 2d40
000000e0: 13f5 2b40 fb7b 2940 bff1 2b40 6053 2f40
000000f0: a67c 2e40 b311 2f40 9eff 2e40 55b0 2c40
00000100: cf13 2e40 5317 2f40 407c 2d40 0c51 2940
00000110: 86fa 3040 ffb7 2b40 2baf 2c40 ddf9 37c0
00000120: 2b4a 2e40 3bc0 2fc0 5697 2b40 77a8 3340
00000130: aae8 2a40 fc7b 2b40 ad57 2e40 6db1 3040
00000140: 9fa5 4dc0 f316 3440 236d 2e40 c61e 3140
00000150: 8da9 3440 28e1 3dc0 1efb 31c0 914d 3040
00000160: d096 3640 687e 4240 a92e 3840 808d 2d40
00000170: 4b73 2b40 3fdd 2f40 34fc 2b40 c1f1 2a40
00000180: 11c9 1e40 a561 3240 901f 3040 8637 2d40
00000190: c476 2e40 269f 2d40 3a45 3140 10d5 3340
000001a0: f915 4f40 c430 3140 c65a 2f40 6d0e 3940
000001b0: f33a 3140 077a 4640 030d 2f40 e88b 3040
000001c0: 38b2 3140 7ea0 3340 912d 3340 97ee 2940
000001d0: f3d2 3240 db48 40c0 1ad4 3140 a092 3140
000001e0: 0b6c 3240 cfdd 3440 a2bb 3040 dd09 3340
000001f0: daf5 2a40 a9c0 2340 5ac1 3540 0202 5d40

last_layer.variational_strategy._variational_distribution.chol_variational_covar f4 [128, 128]
0.9795591 0.0 0.0 0.0 0.0 0.0 0.0 0.0
0.0 0.0 0.0 0.0 0.0 0.0 0.0 0.0
0.0 0.0 0.0 0.0 0.0 0.0 0.0 0.0
0.0 0.0 0.0 0.0 0.0 0.0 0.0 0.0
0.0 0.0 0.0 0.0 0.0 0.0 0.0 0.0
0.0 0.0 0.0 0.0 0.0 0.0 0.0 0.0
0.0 0.0 0.0 0.0 0.0 0.0 0.0 0.0
0.0 0.0 0.0 0.0 0.0 0.0 0.0 0.0
0.0 0.0 0.0 0.0 0.0 0.0 0.0 0.0
0.0 0.0 0.0 0.0 0.0 0.0 0.0 0.0
0.0 0.0 0.0 0.0 0.0 0.0 0.0 0.0
0.0 0.0 0.0 0.0 0.0 0.0 0.0 0.0
0.0 0.0 0.0 0.0 0.0 0.0 0.0 0.0
0.0 0.0 0.0 0.0 0.0 0.0 0.0 0.0
0.0 0.0 0.0 0.0 0.0 0.0 0.0 0.0
0.0 0.0 0.0 0.0 0.0 0.0 0.0 0.0
-0.0023286832 0.9039033 0.0 0.0 0.0 0.0 0.0 0.0
0.0 0.0 0.0 0.0 0.0 0.0 0.0 0.0
0.0 0.0 0.0 0.0 0.0 0.0 0.0 0.0
0.0 0.0 0.0 0.0 0.0 0.0 0.0 0.0
0.0 0.0 0.0 0.0 0.0 0.0 0.0 0.0
0.0 0.0 0.0 0.0 0.0 0.0 0.0 0.0
0.0 0.0 0.0 0.0 0.0 0.0 0.0 0.0
0.0 0.0 0.0 0.0 0.0 0.0 0.0 0.0
0.0 0.0 0.0 0.0 0.0 0.0 0.0 0.0
0.0 0.0 0.0 0.0 0.0 0.0 0.0 0.0
0.0 0.0 0.0 0.0 0.0 0.0 0.0 0.0
0.0 0.0 0.0 0.0 0.0 0.0 0.0 0.0
0.0 0.0 0.0 0.0 0.0 0.0 0.0 0.0
0.0 0.0 0.0 0.0 0.0 0.0 0.0 0.0
0.0 0.0 0.0 0.0 0.0 0.0 0.0 0.0
0.0 0.0 0.0 0.0 0.0 0.0 0.0 0.0
00000000: 63c4 7a3f 0000 0000 0000 0000 0000 0000
00000010: 0000 0000 0000 0000 0000 0000 0000 0000
00000020: 0000 0000 0000 0000 0000 0000 0000 0000
00000030: 0000 0000 0000 0000 0000 0000 0000 0000
00000040: 0000 0000 0000 0000 0000 0000 0000 0000
00000050: 0000 0000 0000 0000 0000 0000 0000 0000
00000060: 0000 0000 0000 0000 0000 0000 0000 0000
00000070: 0000 0000 0000 0000 0000 0000 0000 0000
00000080: 0000 0000 0000 0000 0000 0000 0000 0000
00000090: 0000 0000 0000 0000 0000 0000 0000 0000
000000a0: 0000 0000 0000 0000 0000 0000 0000 0000
000000b0: 0000 0000 0000 0000 0000 0000 0000 0000
000000c0: 0000 0000 0000 0000 0000 0000 0000 0000
000000d0: 0000 0000 0000 0000 0000 0000 0000 0000
000000e0: 0000 0000 0000 0000 0000 0000 0000 0000
000000f0: 0000 0000 0000 0000 0000 0000 0000 0000
00000100: 0000 0000 0000 0000 0000 0000 0000 0000
00000110: 0000 0000 0000 0000 0000 0000 0000 0000
00000120: 0000 0000 0000 0000 0000 0000 0000 0000
00000130: 0000 0000 0000 0000 0000 0000 0000 0000
00000140: 0000 0000 0000 0000 0000 0000 0000 0000
00000150: 0000 0000 0000 0000 0000 0000 0000 0000
00000160: 0000 0000 0000 0000 0000 0000 0000 0000
00000170: 0000 0000 0000 0000 0000 0000 0000 0000
00000180: 0000 0000 0000 0000 0000 0000 0000 0000
00000190: 0000 0000 0000 0000 0000 0000 0000 0000
000001a0: 0000 0000 0000 0000 0000 0000 0000 0000
000001b0: 0000 0000 0000 0000 0000 0000 0000 0000
000001c0: 0000 0000 0000 0000 0000 0000 0000 0000
000001d0: 0000 0000 0000 0000 0000 0000 0000 0000
000001e0: 0000 0000 0000 0000 0000 0000 0000 0000
000001f0: 0000 0000 0000 0000 0000 0000 0000 0000
00000200: d29c 18bb 3566 673f 0000 0000 0000 0000
00000210: 0000 0000 0000 0000 0000 0000 0000 0000
00000220: 0000 0000 0000 0000 0000 0000 0000 0000
00000230: 0000 0000 0000 0000 0000 0000 0000 0000
00000240: 0000 0000 0000 0000 0000 0000 0000 0000
00000250: 0000 0000 0000 0000 0000 0000 0000 0000
00000260: 0000 0000 0000 0000 0000 0000 0000 0000
00000270: 0000 0000 0000 0000 0000 0000 0000 0000
00000280: 0000 0000 0000 0000 0000 0000 0000 0000
00000290: 0000 0000 0000 0000 0000 0000 0000 0000
000002a0: 0000 0000 0000 0000 0000 0000 0000 0000
000002b0: 0000 0000 0000 0000 0000 0000 0000 0000
000002c0: 0000 0000 0000 0000 0000 0000 0000 0000
000002d0: 0000 0000 0000 0000 0000 0000 0000 0000
000002e0: 0000 0000 0000 0000 0000 0000 0000 0000
000002f0: 0000 0000 0000 0000 0000 0000 0000 0000
00000300: 0000 0000 0000 0000 0000 0000 0000 0000
00000310: 0000 0000 0000 0000 0000 0000 0000 0000
00000320: 0000 0000 0000 0000 0000 0000 0000 0000
00000330: 0000 0000 0000 0000 0000 0000 0000 0000
00000340: 0000 0000 0000 0000 0000 0000 0000 0000
00000350: 0000 0000 0000 0000 0000 0000 0000 0000
00000360: 0000 0000 0000 0000 0000 0000 0000 0000
00000370: 0000 0000 0000 0000 0000 0000 0000 0000
00000380: 0000 0000 0000 0000 0000 0000 0000 0000
00000390: 0000 0000 0000 0000 0000 0000 0000 0000
000003a0: 0000 0000 0000 0000 0000 0000 0000 0000
000003b0: 0000 0000 0000 0000 0000 0000 0000 0000
000003c0: 0000 0000 0000 0000 0000 0000 0000 0000
000003d0: 0000 0000 0000 0000 0000 0000 0000 0000
000003e0: 0000 0000 0000 0000 0000 0000 0000 0000
000003f0: 0000 0000 0000 0000 0000 0000 0000 0000

last_layer.covar_module.base_kernel.raw_lengthscale f4 [1, 10]
1.4954157 1.4235063 1.4463317 1.3439691 1.4844666 1.3289527 1.335726 1.3150166
1.456103 1.4564301
00000000: c869 bf3f 7435 b63f 6621 b93f 2e07 ac3f
00000010: 0003 be3f 1f1b aa3f 12f9 aa3f 7752 a83f
00000020: 9561 ba3f 4d6c ba3f
