CompareOQR/Experiments/EXP1/model_bin/GPmodel_on_wine.pth (torch, 799361 bytes, 10 tensors)

hidden_layer.variational_strategy.inducing_points f4 [10, 128, 11]
0.0088831205 -0.008394215 -0.002985182 -0.0054685897 0.0035136275 0.01310894 -0.0023378998 -0.0037253564
0.001346804 -0.00052252674 0.0019040232 -0.001218848 -0.0036893594 -0.001724264 0.007244693 0.0038578908
0.0025468748 0.00022114886 -0.0009923292 -0.006416083 -0.0027685103 0.009742278 0.008972164 0.03013789
0.0016689559 -0.001227546 -0.0006188959 -6.467984e-05 -0.0076600984 0.006530005 0.027591443 0.000111002366
-0.00017413373 0.0013133973 -0.0003273717 0.0025247505 0.0008452016 0.0023570422 0.0033998932 0.0033194516
0.00058720965 0.0013406125 0.0006012381 0.0015113176 -0.004413022 0.0028954183 -9.713058e-05 -0.00313565
-0.0033342422 -0.0058653574 -0.0030942564 0.00085899595 -0.001276614 0.0011396058 -0.0048295166 0.0008392343
-0.0013494798 0.00087768934 0.00053356413 0.00021096395 -0.0007314059 0.0020705462 0.00056459516 0.001269505
0.0010957229 -0.00068060355 0.0029031304 -0.0033260337 -0.0009369644 0.0005662501 0.0021332982 0.0031224538
0.00057248684 -0.000970616 0.00039064026 8.478355e-06 0.001686884 0.001370079 -0.002839447 0.0026413857
-0.0005828449 -0.0014721951 -0.0019435356 0.0052497485 0.0013335093 0.0034821609 0.0026392252 -0.0024932418
-0.00056738383 -0.00092907145 -0.0005208643 7.11139e-05 0.00078691216 -0.000587183 -0.00023183713 -7.986062e-05
-0.00065230153 0.00053524267 -0.00049138 -0.00022107815 -0.0010297678 0.0008035232 0.00028366272 0.0014089118
0.0005299078 0.0009260145 2.7860204e-05 0.00031046773 0.00071812334 -0.00016367965 -0.00018369373 0.00013842844
0.0012414275 1.1125015e-05 0.00050807174 3.2349668e-05 0.00019785542 0.00048172585 0.000553128 0.0006278472
-0.0003116086 -0.0006425741 -0.0013255653 -0.00095884694 -0.0007995945 0.00032780186 -0.00094122294 -0.0011070523
-0.00043017487 -0.0016318338 0.00020283925 -0.0007390346 -0.00049672875 0.0014112559 0.0017301458 0.00011970006
8.289621e-05 -0.00027154258 -8.9894376e-05 0.0007538921 0.0005267947 0.00051900354 -0.00050048594 -0.0008782693
-0.0013555447 -0.00097114785 0.00024611142 0.0014492326 -0.00090791745 -0.00023516292 -0.00020865016 -0.00094107084
0.0007808179 -0.0007219363 3.5175537e-05 0.0002828052 0.0014480196 0.00026679604 -4.327269e-05 7.1147726e-05
0.0001527994 0.0006206075 0.00097390666 -0.00021355711 0.000102870465 0.00013257659 0.00035481533 0.0015235503
0.00031783292 0.0004144321 0.0002596467 0.00036435068 0.00063833565 0.00088405533 0.00030898963 -0.00023784142
-0.0048403 0.0009557746 0.00136206 0.0010373815 0.003096631 -0.000518038 0.00023420615 0.00048054327
-0.001818831 0.0065654083 -0.0017373003 9.7871525e-05 -0.00031396886 0.0008854429 0.0003432442 0.0007508172
8.2393875e-05 7.646633e-05 0.0003330774 0.00052802044 0.00026354843 -0.0001230522 1.3600434e-05 0.0001008162
0.0011496628 0.00039071369 0.0005233018 0.00017781969 0.00013235303 0.00059215515 0.0005739429 0.00023400459
-0.00026026537 0.00062285585 0.0009559484 0.00240141 0.0011552747 0.00057242264 0.0005672286 0.0007141076
0.001182812 0.0016063154 -0.0006664328 -0.0005501544 -0.0004426619 0.00014799302 0.00067739777 -0.00015552914
0.0004950479 -0.00030075683 1.189353e-05 0.00033114868 5.7936275e-05 0.00047417285 -0.00053486647 -0.00060426275
0.00053464586 0.00067689986 -5.934213e-05 0.00037290622 -0.000448812 8.698702e-05 0.00037492657 8.0584e-05
0.00045385718 -0.0005662875 -2.8289835e-05 0.00011563993 0.00096263166 0.00037212693 0.00042378833 -2.4765975e-05
4.1756746e-05 0.00061246776 0.0004363745 0.00018486731 -0.00049205567 -7.913763e-05 -0.00034142006 0.0008126968
00000000: 828a 113c e487 09bc 0ba3 43bb db31 b3bb
00000010: e344 663b e1c6 563c 7337 19bb 1c25 74bb
00000020: 3e87 b03a 2dfa 08ba 6b90 f93a c1c1 9fba
00000030: 2ec9 71bb b300 e2ba e464 ed3b abd4 7c3b
00000040: 78e9 263b 32e4 6739 0b11 82ba 013e d2bb
00000050: e56f 35bb 139e 1f3c fcff 123c bce3 f63c
00000060: dec0 da3a 9ce5 a0ba 673d 22ba baa4 87b8
00000070: 9001 fbbb a7f9 d53b 7307 e23c f1c9 e838
00000080: ab97 36b9 4d26 ac3a 16a3 abb9 4976 253b
00000090: 8590 5d3a 9b78 1a3b bed0 5e3b 288b 593b
000000a0: f9ee 193a 7eb7 af3a 689c 1d3a 6717 c63a
000000b0: 1d9b 90bb 0fc1 3d3b 95b2 cbb8 7a7f 4dbb
000000c0: 4d83 5abb 2f32 c0bb 02c9 4abb 3e2e 613a
000000d0: 0f54 a7ba d35e 953a ec40 9ebb 0f00 5c3a
000000e0: 07e1 b0ba bc14 663a e2de 0b3a 3436 5d39
000000f0: d2bb 3fba 00b2 073b 5701 143a 8565 a63a
00000100: 5c9e 8f3a 886a 32ba 7242 3e3b 96f9 59bb
00000110: 9e9e 75ba 6770 143a cece 0b3b 15a2 4c3b
00000120: f112 163a f070 7eba d9ce cc39 423e 0e37
00000130: 6f1a dd3a 3994 b33a 0416 3abb 191b 2d3b
00000140: 0fca 18ba acf6 c0ba 3cbe feba 1506 ac3b
00000150: 26c9 ae3a f734 643b daf6 2c3b a865 23bb
00000160: 7cbc 14ba ee8c 73ba 9d8a 08ba fc22 9538
00000170: c848 4e3a 2fed 19ba 4e19 73b9 d87a a7b8
00000180: 37ff 2aba 874f 0c3a f4cf 00ba 37d1 67b9
00000190: 46f9 86ba 87a3 523a 91b8 9439 3cab b83a
000001a0: 83e9 0a3a c8bf 723a 55b5 e937 46c6 a239
000001b0: 7140 3c3a 6ca1 2bb9 e99d 40b9 1a27 1139
000001c0: 65b7 a23a 93a5 3a37 1e30 053a 31af 0738
000001d0: 6977 4f39 2690 fc39 cbff 103a 1d96 243a
000001e0: 665f a3b9 6b72 28ba 97be adba 215b 7bba
000001f0: e19b 51ba d2dc ab39 67bc 76ba 831a 91ba
00000200: 1889 e1b9 42e3 d5ba 3fb1 5439 c6bb 41ba
00000210: e736 02ba e4f9 b83a 0fc6 e23a 7b07 fb38
00000220: 90d8 ad38 d45d 8eb9 ad85 bcb8 d8a0 453a
00000230: 9818 0a3a bd0d 083a 0b33 03ba a83b 66ba
00000240: 88ac b1ba a194 7eba 8408 8139 2df4 bd3a
00000250: 4f01 6eba 1196 76b9 1ac9 5ab9 32b2 76ba
00000260: cdaf 4c3a 5340 3dba 7289 1338 7945 9439
00000270: 7acb bd3a c2e0 8b39 b27f 35b8 2535 9538
00000280: c738 2039 44b0 223a c54d 7f3a 4dee 5fb9
00000290: 29bc d738 4204 0b39 8206 ba39 ddb1 c73a
000002a0: d0a2 a639 2348 d939 3121 8839 5206 bf39
000002b0: fb55 273a f3bf 673a e3ff a139 1265 79b9
000002c0: 619b 9ebb f38c 7a3a 2687 b23a bff8 873a
000002d0: d9f0 4a3b f1cc 07ba 3c95 7539 6df1 fb39
000002e0: d765 eeba a322 d73b 20b6 e3ba 6040 cd38
000002f0: 309c a4b9 111d 683a 75f5 b339 7dd2 443a
00000300: e0ca ac38 8c5c a038 e4a0 ae39 da6a 0a3a
00000310: df2c 8a39 9307 01b9 6b2d 6437 496d d338
00000320: 48b0 963a b4d8 cc39 302e 093a 1c75 3a39
00000330: 3fc8 0a39 dc3a 1b3a a874 163a 215f 7539
00000340: 3a74 88b9 2647 233a 9c98 7a3a f960 1d3b
00000350: 966c 973a a20e 163a 11b2 143a f332 3b3a
00000360: 9608 9b3a 008b d23a 8cb3 2eba 3d38 10ba
00000370: 1315 e8b9 932e 1b39 6593 313a 8915 23b9
00000380: 1ac6 013a e6ae 9db9 538a 4737 069e ad39
00000390: 9a00 7338 679a f839 4836 0cba 6367 1eba
000003a0: 7a27 0c3a fb71 313a 20e6 78b8 a082 c339
000003b0: 874e ebb9 cd6c b638 cb91 c439 35ff a838
000003c0: aef3 ed39 e972 14ba f54f edb7 b783 f238
000003d0: 1e59 7c3a 081a c339 e82f de39 87c0 cfb7
000003e0: f723 2f38 048e 203a 32c9 e439 f1d8 4139
000003f0: 4cfd 00ba b1f6 a5b8 a000 b3b9 290b 553a

hidden_layer.variational_strategy._variational_distribution.variational_mean f4 [10, 128]
-0.007546088 -0.009966531 0.014954545 -0.0026261425 -0.0015273629 -0.0013658542 -0.0013662254 0.0002826449
-0.0012924845 -0.00082849304 -0.0010350994 -0.0012203516 -0.0012028271 -0.0004213884 -0.0015146042 -0.00090119225
0.002190678 -0.00086484535 -0.0009451126 -0.0010622711 -0.0006324897 -0.0007062724 -0.0008312052 -0.00080521335
-0.00059915363 -0.00060633133 0.0012133342 -0.0016141585 -0.00025799288 0.0002472367 -0.00038002897 -0.0028638898
-9.484052e-05 -0.0003270714 -0.00021639909 4.289259e-05 0.0018074231 -0.0011584306 -0.000404706 0.0017579253
-0.00057101576 -0.00034052436 -0.00075367565 -0.005290273 -0.00016863085 0.001692219 0.007952125 -0.0002870861
-0.00025670088 -0.00017933217 -0.00023076132 -0.00017779162 0.00067556853 -0.00072671584 -0.0001384815 -0.00042596055
-0.005948874 0.00012893994 0.0020432726 -0.01770085 -0.0012614909 -0.0025614053 0.0020029736 -0.00080674933
0.00034704444 0.0015730422 0.0005923165 -0.0015376209 0.00016673842 0.0011553884 0.001707111 2.4290941e-05
-0.0001592382 0.0027071927 0.0039032106 0.004677478 0.009633841 -0.013855219 0.004437721 0.00069741876
-0.0049008997 -0.0029148103 0.0016731838 -0.00067430106 0.0027986672 -0.0048121354 0.00013075932 -0.014737249
0.00026791816 1.0810428e-06 0.0035505835 -0.00019504281 0.00048698782 -0.00019259582 -0.00023969736 0.0008547175
0.00045589122 -0.00068815215 0.001087862 0.00056746625 0.0019429028 -0.00023939132 -1.4981811e-05 0.0056222845
-0.005069351 -0.0048630047 0.00056996313 -0.0036448208 -7.508485e-05 -5.2506635e-05 -8.606585e-05 -0.0072655333
-0.00013690288 -0.006249644 -0.043045048 0.00091305387 -0.0010004332 0.0015185649 -0.010774132 -0.00026053604
0.018149035 -0.008609432 -0.00019026136 0.001061954 -0.0014082618 0.000791133 0.00029320497 -0.012541597
0.033864263 1.8919808 -0.52612 1.0515817 0.86917835 -1.4004 0.20672692 0.12043113
0.05385384 0.47714224 -0.053209417 -0.058278218 0.050469078 -0.27790752 0.23817348 0.50062656
0.99011016 -0.44326758 0.6194606 -0.062131666 0.07248904 -1.3383627 0.08805792 -0.833243
2.199303 -0.37863395 1.2799238 -2.4630606 0.20903087 -3.437795 0.040068503 -0.34424502
1.8854843 -0.049009785 -0.31691787 -0.05915373 0.19794998 -0.034623124 -0.71075773 -0.4255149
0.10517324 2.5386753 1.7199962 0.041230746 -0.058473393 -0.7198219 0.10236503 -0.08549804
0.05831016 -0.035281986 -0.010051555 0.17697707 0.16975944 0.0051384126 -0.026324611 -0.05816259
0.046401337 2.3050234 -0.0897405 -0.0901289 -0.33164594 0.051877942 -0.16658197 -0.1839134
0.010826931 -0.047091 -0.12938422 -0.0033399195 2.0287333 0.5860021 -0.16390862 -0.01372146
0.6926877 -0.019322636 0.028854767 -0.0052286778 -0.10434889 -0.029649848 -0.0055339495 -0.039407004
0.1995441 -0.438016 2.3753297 -1.3009692 -0.062680826 0.26794776 0.033484742 0.039124846
0.11141772 0.0033693502 0.035337638 -0.018072547 -0.05334293 0.032851975 0.02287641 0.024858762
-0.18103945 0.028558169 0.03667517 0.030446878 0.017183775 0.039352324 -0.003217635 0.03671148
0.028952898 0.026498165 0.0022247937 0.017252974 0.034144588 0.035254512 -0.090391554 0.059811976
-0.030926008 0.02450543 0.020697206 0.08303026 0.03637868 -0.014905658 0.011262516 0.018688383
0.037128735 0.00955116 0.03074907 3.7118652 0.027160335 0.027049512 0.033755787 0.016140409
00000000: 2d45 f7bb a94a 23bc e803 753c 5c1b 2cbb
00000010: cb31 c8ba 7606 b3ba eb12 b3ba f52f 9439
00000020: 9568 a9ba 3a2f 59ba 2cac 87ba 34f4 9fba
00000030: 2ea8 9dba cbed dcb9 af85 c6ba fd3d 6cba
00000040: 7a91 0f3b cab6 62ba 6fc1 77ba e73b 8bba
00000050: aacd 25ba 2325 39ba 3de5 59ba f414 53ba
00000060: 8510 1dba 35f2 1eba bd08 9f3a 2c92 d3ba
00000070: 3843 87b9 8c9f 8139 a03e c7b9 19b0 3bbb
00000080: 1ee5 c6b8 c87a abb9 30e9 62b9 91e7 3338
00000090: 0ee7 ec3a 7bd6 97ba b82e d4b9 2f6a e63a
000000a0: 38b0 15ba 6888 b2b9 5192 45ba 075a adbb
000000b0: 80d2 30b9 73cd dd3a a149 023c 0b84 96b9
000000c0: cf95 86b9 1d0b 3cb9 85f8 71b9 936d 3ab9
000000d0: a318 313a 1381 3eba 5835 11b9 7553 dfb9
000000e0: c6ee c2bb 0d34 0739 6de8 053b 5f01 91bc
000000f0: 9c58 a5ba 40dd 27bb 5244 033b 087c 53ba
00000100: 84f3 b539 8a2e ce3a b045 1b3a ff89 c9ba
00000110: 81d6 2e39 6770 973a 24c1 df3a 66c4 cb37
00000120: 2ef9 26b9 286b 313b 02cd 7f3b 8845 993b
00000130: 42d7 1d3c 0001 63bc 4d6a 913b fbd2 363a
00000140: ba97 a0bb 6706 3fbb bb4e db3a 94c3 30ba
00000150: d869 373b 1eaf 9dbb 701c 0939 8174 71bc
00000160: 5e77 8c39 5918 9135 e8b0 683b 6884 4cb9
00000170: 6652 ff39 8cf3 49b9 4557 7bb9 1f0f 603a
00000180: af04 ef39 1c65 34ba 9796 8e3a 04c2 143a
00000190: 00a9 fe3a 1e05 7bb9 635a 7bb7 243b b83b
000001a0: cc1c a6bb d759 9fbb 9469 153a f2dd 6ebb
000001b0: df76 9db8 923a 5cb8 407e b4b8 b613 eebb
000001c0: 968d 0fb9 d0c9 ccbb 0150 30bd 025a 6f3a
000001d0: f820 83ba 950a c73a fc85 30bc 8e98 88b9
000001e0: 49ad 943c 930e 0dbc e580 47b9 4331 8b3a
000001f0: 6d95 b8ba 0964 4f3a 4eb9 9939 457b 4dbc
00000200: 41b5 0a3d 6d2c f23f cdaf 06bf 3b9a 863f
00000210: 7982 5e3f 4f40 b3bf 39b0 533e 99a4 f63d
00000220: d895 5c3d fd4b f43e 1ef2 59bd 24b5 6ebd
00000230: aab8 4e3d e549 8ebe c0e3 733e 1029 003f
00000240: dc77 7d3f f8f3 e2be f894 1e3f c67d 7ebd
00000250: 2275 943d 784f abbf b657 b43d 6a4f 55bf
00000260: 61c1 0c40 4fdc c1be 8bd4 a33f c9a2 1dc0
00000270: 300c 563e d504 5cc0 df1e 243d e240 b0be
00000280: 8d57 f13f 7cbe 48bd 0f43 a2be 2e4b 72bd
00000290: 66b3 4a3e fad0 0dbd 38f4 35bf 17dd d9be
000002a0: 1165 d73d a879 2240 d628 dc3f 92e1 283d
000002b0: cc81 6fbd 3f46 38bf c2a4 d13d 9919 afbd
000002c0: a2d6 6e3d d883 10bd 47af 24bc 7a39 353e
000002d0: 6bd5 2d3e 2160 a83b b6a6 d7bc e53b 6ebd
000002e0: 540f 3e3d 8185 1340 dec9 b7bd 8095 b8bd
000002f0: 7fcd a9be f77d 543d 7794 2abe cb53 3cbe
00000300: 7163 313c 7ee2 40bd 4c7d 04be 8de2 5abb
00000310: c4d6 0140 3c04 163f a9d7 27be f9cf 60bc
00000320: fb53 313f 814a 9ebc d560 ec3c 5455 abbb
00000330: dfb4 d5bd 3de4 f2bc 2256 b5bb 3d69 21bd
00000340: 4a55 4c3e a243 e0be 6705 1840 2986 a6bf
00000350: ce5e 80bd 7330 893e 4c27 093d 6041 203d
00000360: f92e e43d 51d0 5c3b 33be 103d e10c 94bc
00000370: 1e7e 5abd cb8f 063d 4f67 bb3c 9aa4 cb3c
00000380: 6862 39be d2f2 e93c b438 163d bb6b f93c
00000390: fdc4 8c3c e72f 213d f5de 52bb c75e 163d
000003a0: a12e ed3c ae12 d93c d8cd 113b 1c56 8d3c
000003b0: 32db 0b3d 0967 103d 351f b9bd 67fd 743d
000003c0: 8a58 fdbc 9dbf c83c 308d a93c c50b aa3d
000003d0: d001 153d dc36 74bc 6a86 383c 6118 993c
000003e0: 4d14 183d 787c 1c3c 79e5 fb3c 338f 6d40
000003f0: 5a7f de3c f096 dd3c 8243 0a3d e438 843c

hidden_layer.variational_strategy._variational_distribution.chol_variational_covar f4 [10, 128, 128]
0.84964615 0.0 0.0 0.0 0.0 0.0 0.0 0.0
0.0 0.0 0.0 0.0 0.0 0.0 0.0 0.0
0.0 0.0 0.0 0.0 0.0 0.0 0.0 0.0
0.0 0.0 0.0 0.0 0.0 0.0 0.0 0.0
0.0 0.0 0.0 0.0 0.0 0.0 0.0 0.0
0.0 0.0 0.0 0.0 0.0 0.0 0.0 0.0
0.0 0.0 0.0 0.0 0.0 0.0 0.0 0.0
0.0 0.0 0.0 0.0 0.0 0.0 0.0 0.0
0.0 0.0 0.0 0.0 0.0 0.0 0.0 0.0
0.0 0.0 0.0 0.0 0.0 0.0 0.0 0.0
0.0 0.0 0.0 0.0 0.0 0.0 0.0 0.0
0.0 0.0 0.0 0.0 0.0 0.0 0.0 0.0
0.0 0.0 0.0 0.0 0.0 0.0 0.0 0.0
0.0 0.0 0.0 0.0 0.0 0.0 0.0 0.0
0.0 0.0 0.0 0.0 0.0 0.0 0.0 0.0
0.0 0.0 0.0 0.0 0.0 0.0 0.0 0.0
-7.956739e-05 0.8460854 0.0 0.0 0.0 0.0 0.0 0.0
0.0 0.0 0.0 0.0 0.0 0.0 0.0 0.0
0.0 0.0 0.0 0.0 0.0 0.0 0.0 0.0
0.0 0.0 0.0 0.0 0.0 0.0 0.0 0.0
0.0 0.0 0.0 0.0 0.0 0.0 0.0 0.0
0.0 0.0 0.0 0.0 0.0 0.0 0.0 0.0
0.0 0.0 0.0 0.0 0.0 0.0 0.0 0.0
0.0 0.0 0.0 0.0 0.0 0.0 0.0 0.0
0.0 0.0 0.0 0.0 0.0 0.0 0.0 0.0
0.0 0.0 0.0 0.0 0.0 0.0 0.0 0.0
0.0 0.0 0.0 0.0 0.0 0.0 0.0 0.0
0.0 0.0 0.0 0.0 0.0 0.0 0.0 0.0
0.0 0.0 0.0 0.0 0.0 0.0 0.0 0.0
0.0 0.0 0.0 0.0 0.0 0.0 0.0 0.0
0.0 0.0 0.0 0.0 0.0 0.0 0.0 0.0
0.0 0.0 0.0 0.0 0.0 0.0 0.0 0.0
00000000: 6982 593f 0000 0000 0000 0000 0000 0000
00000010: 0000 0000 0000 0000 0000 0000 0000 0000
00000020: 0000 0000 0000 0000 0000 0000 0000 0000
00000030: 0000 0000 0000 0000 0000 0000 0000 0000
00000040: 0000 0000 0000 0000 0000 0000 0000 0000
00000050: 0000 0000 0000 0000 0000 0000 0000 0000
00000060: 0000 0000 0000 0000 0000 0000 0000 0000
00000070: 0000 0000 0000 0000 0000 0000 0000 0000
00000080: 0000 0000 0000 0000 0000 0000 0000 0000
00000090: 0000 0000 0000 0000 0000 0000 0000 0000
000000a0: 0000 0000 0000 0000 0000 0000 0000 0000
000000b0: 0000 0000 0000 0000 0000 0000 0000 0000
000000c0: 0000 0000 0000 0000 0000 0000 0000 0000
000000d0: 0000 0000 0000 0000 0000 0000 0000 0000
000000e0: 0000 0000 0000 0000 0000 0000 0000 0000
000000f0: 0000 0000 0000 0000 0000 0000 0000 0000
00000100: 0000 0000 0000 0000 0000 0000 0000 0000
00000110: 0000 0000 0000 0000 0000 0000 0000 0000
00000120: 0000 0000 0000 0000 0000 0000 0000 0000
00000130: 0000 0000 0000 0000 0000 0000 0000 0000
00000140: 0000 0000 0000 0000 0000 0000 0000 0000
00000150: 0000 0000 0000 0000 0000 0000 0000 0000
00000160: 0000 0000 0000 0000 0000 0000 0000 0000
00000170: 0000 0000 0000 0000 0000 0000 0000 0000
00000180: 0000 0000 0000 0000 0000 0000 0000 0000
00000190: 0000 0000 0000 0000 0000 0000 0000 0000
000001a0: 0000 0000 0000 0000 0000 0000 0000 0000
000001b0: 0000 0000 0000 0000 0000 0000 0000 0000
000001c0: 0000 0000 0000 0000 0000 0000 0000 0000
000001d0: 0000 0000 0000 0000 0000 0000 0000 0000
000001e0: 0000 0000 0000 0000 0000 0000 0000 0000
000001f0: 0000 0000 0000 0000 0000 0000 0000 0000
00000200: 6bdd a6b8 0e99 583f 0000 0000 0000 0000
00000210: 0000 0000 0000 0000 0000 0000 0000 0000
00000220: 0000 0000 0000 0000 0000 0000 0000 0000
00000230: 0000 0000 0000 0000 0000 0000 0000 0000
00000240: 0000 0000 0000 0000 0000 0000 0000 0000
00000250: 0000 0000 0000 0000 0000 0000 0000 0000
00000260: 0000 0000 0000 0000 0000 0000 0000 0000
00000270: 0000 0000 0000 0000 0000 0000 0000 0000
00000280: 0000 0000 0000 0000 0000 0000 0000 0000
00000290: 0000 0000 0000 0000 0000 0000 0000 0000
000002a0: 0000 0000 0000 0000 0000 0000 0000 0000
000002b0: 0000 0000 0000 0000 0000 0000 0000 0000
000002c0: 0000 0000 0000 0000 0000 0000 0000 0000
000002d0: 0000 0000 0000 0000 0000 0000 0000 0000
000002e0: 0000 0000 0000 0000 0000 0000 0000 0000
000002f0: 0000 0000 0000 0000 0000 0000 0000 0000
00000300: 0000 0000 0000 0000 0000 0000 0000 0000
00000310: 0000 0000 0000 0000 0000 0000 0000 0000
00000320: 0000 0000 0000 0000 0000 0000 0000 0000
00000330: 0000 0000 0000 0000 0000 0000 0000 0000
00000340: 0000 0000 0000 0000 0000 0000 0000 0000
00000350: 0000 0000 0000 0000 0000 0000 0000 0000
00000360: 0000 0000 0000 0000 0000 0000 0000 0000
00000370: 0000 0000 0000 0000 0000 0000 0000 0000
00000380: 0000 0000 0000 0000 0000 0000 0000 0000
00000390: 0000 0000 0000 0000 0000 0000 0000 0000
000003a0: 0000 0000 0000 0000 0000 0000 0000 0000
000003b0: 0000 0000 0000 0000 0000 0000 0000 0000
000003c0: 0000 0000 0000 0000 0000 0000 0000 0000
000003d0: 0000 0000 0000 0000 0000 0000 0000 0000
000003e0: 0000 0000 0000 0000 0000 0000 0000 0000
000003f0: 0000 0000 0000 0000 0000 0000 0000 0000

hidden_layer.mean_module.weights f4 [11, 1]
0.054395415 -0.13288541 0.00083715824 0.4068235 0.011713864 -0.020232392 -0.031028206 -0.40279543
0.07047794 0.034437157 0.04542002
00000000: bacd 5e3d 1d13 08be bd74 5b3a 2b4b d03e
00000010: 82eb 3f3c 67be a5bc dd2e febc 343b cebe
00000020: bd56 903d fa0d 0d3d 580a 3a3d

hidden_layer.covar_module.raw_outputscale f4 [10]
-3.7309859 -2.454886 -3.7260711 -3.6682158 -3.7232776 -3.690716 -3.8148177 -3.6953058
-3.795747 -3.6814222
00000000: 79c8 6ec0 da1c 1dc0 f377 6ec0 0cc4 6ac0
00000010: 2e4a 6ec0 b134 6cc0 f925 74c0 e47f 6cc0
00000020: 85ed 72c0 6c9c 6bc0

hidden_layer.covar_module.base_kernel.raw_lengthscale f4 [10, 1, 11]
0.19761814 0.13065311 0.076947466 0.1568878 0.014710588 0.15675898 0.19958812 0.10243914
0.2651759 0.21686704 0.21454655 4.189102 1.7477633 3.8293898 3.3453484 2.477923
1.5514346 2.9747217 3.304281 3.2360451 5.275485 2.1162014 0.104951374 0.047170747
0.044615407 0.107041664 0.005779632 0.06487308 0.10872372 0.055212498 0.15466477 0.15099132
0.1533315 0.14760718 0.1129263 0.06740027 0.19720757 0.01611875 0.13080958 0.17878385
0.11393964 0.26725614 0.198305 0.19136277 0.16145343 0.09710928 0.058541156 0.18908085
0.01616608 0.14127879 0.16008931 0.09212671 0.22382498 0.19266126 0.20392899 0.100019135
0.07406788 0.043939065 0.12390784 0.0055301846 0.09329086 0.14047237 0.078900754 0.16757809
0.14757527 0.1956928 0.18674012 0.13641748 0.075727314 0.22942281 0.023547867 0.15607192
0.22837569 0.15164272 0.28661227 0.23363666 0.2545209 0.082935125 0.07643342 0.0370617
0.103418924 0.003594903 0.07554841 0.11998237 0.084206924 0.14960729 0.12319872 0.15093525
0.059818435 0.039364897 0.028077312 0.071788356 0.0027141422 0.052105345 0.092010505 0.04209535
0.10689495 0.08647392 0.10433049 0.07361899 0.060010638 0.031662293 0.09188539 0.0006394926
0.08071217 0.09784572 0.08360884 0.14299378 0.11831605 0.15948904
00000000: 695c 4a3e eec9 053e a296 9d3d 32a7 203e
00000010: ae04 713c 6d85 203e d460 4c3e 9dcb d13d
00000020: 23c5 873e 6512 5e3e 17b2 5b3e 200d 8640
00000030: b5b6 df3f b914 7540 301a 5640 4a96 1e40
00000040: 6995 c63f d761 3e40 5779 5340 5d1b 4f40
00000050: c6d0 a840 d86f 0740 bff0 d63d 1d36 413d
00000060: a5be 363d a938 db3d 1163 bd3b 2ddc 843d
00000070: 8baa de3d 8026 623d 7160 1e3e 789d 1a3e
00000080: ef02 1d3e 5626 173e e745 e73d 2709 8a3d
00000090: c8f0 493e 780b 843c f2f2 053e 1d13 373e
000000a0: 3059 e93d ccd5 883e 7710 4b3e 9af4 433e
000000b0: 0c54 253e 3be1 c63d dac8 6f3d 699e 413e
000000c0: ba6e 843c 63ab 103e 74ee 233e eeac bc3d
000000d0: 6032 653e fe48 453e c3d2 503e d5d6 cc3d
000000e0: e7b0 973d 73f9 333d 65c3 fd3d 8d36 b53b
000000f0: 470f bf3d fdd7 0f3e b896 a13d 9799 2b3e
00000100: f91d 173e b263 483e cd38 3f3e 06b1 0b3e
00000110: ec16 9b3d d0ed 6a3e 75e7 c03c 51d1 1f3e
00000120: 51db 693e 3b48 1b3e d8be 923e 733e 6f3e
00000130: 9050 823e e4d9 a93d 2089 9c3d 02ce 173d
00000140: 4dcd d33d 7798 6b3b 20b9 9a3d 51b9 f53d
00000150: ae74 ac3d a732 193e 9c4f fc3d c58e 1a3e
00000160: 2d04 753d 163d 213d 6402 e63c c605 933d
00000170: c0df 313b 6a6c 553d 0170 bc3d 2c6c 2c3d
00000180: bdeb da3d 3d19 b13d 39ab d53d 8ec5 963d
00000190: b7cd 753d 52b0 013d 682e bc3d 9fa3 273a
000001a0: 6c4c a53d 5663 c83d 1d3b ab3d f66c 123e
000001b0: af4f f23d 1851 233e

last_layer.variational_strategy.inducing_points f4 [128, 10]
-0.2525111 -1.558389 0.124950364 -0.15056302 0.2599865 0.15682724 2.286792 -1.13865
0.011878411 0.35459387 -1.6307493 -0.78379977 -0.31233075 -0.8960399 0.4877513 -1.0449378
-0.3499901 0.90246725 1.662957 0.58974624 -0.9402332 -0.3634049 -0.32933408 -0.1927193
0.5765572 -0.511805 -1.9899138 2.0379853 0.17362826 -0.14448057 -0.37826422 -1.3143224
-0.18886438 0.9883294 -0.04080124 0.9931977 0.84057194 -0.40911546 -0.93100345 -0.2554941
0.78474444 -1.3599409 0.030841764 -0.22638279 0.65223783 -0.0059596403 0.03871548 -0.04640562
0.1579889 0.13806961 -0.24778189 -0.86728984 -0.17222717 -0.26572523 0.17526034 0.18026371
0.5441535 -0.15828222 -0.635319 1.3233187 0.3075662 -0.41194192 -0.03538717 0.36822283
-1.4364564 0.13817146 -1.0060695 0.52772796 -0.25495312 0.44634357 0.09642666 0.05258555
-1.2489507 0.2589138 0.42921075 0.79524875 -0.5992269 -0.24769755 -1.1684206 0.9260691
-0.19188267 -0.4089448 0.69569236 0.15008254 -1.5070467 0.8813183 -0.38138485 -0.037958447
-0.38125008 -0.358661 -1.5459857 -0.16228963 0.46502423 -1.029773 0.9637786 -0.74440384
0.10283787 0.26264513 0.22145161 -0.6222385 0.46318218 -0.95510256 0.31826922 0.7052932
-0.49806952 -0.05274277 0.41366675 -0.29609948 0.32384673 -0.34289467 -0.6071739 0.2327684
0.65589255 0.44920194 1.3803823 0.6493055 -1.08489 1.032444 0.025930697 1.0228379
-0.5580703 -0.32379064 -0.082147166 -1.1856203 0.90566987 -0.13038045 0.2814652 -0.5625322
0.46783903 -0.025378875 -0.4915636 -0.6024402 -0.14840084 0.09770862 0.06335802 -0.347454
0.5357838 0.94184893 0.017609352 -0.20487225 0.04422071 -0.318162 0.43325394 0.99840647
-0.0037344692 0.57694286 1.9791151 0.55971295 0.24608578 0.30266622 0.38886365 -0.20093569
0.22743772 -0.76493955 -0.83844835 0.20805947 0.25589812 0.47932234 0.1551533 -0.015705466
0.2048314 -0.7727483 -0.24236408 0.9221355 0.46321476 -0.22245067 0.037434768 -0.2240061
-0.23674767 0.14907438 0.3587953 0.39906618 0.94358855 -0.21859471 -0.8656302 0.72671443
-0.40900078 -0.5817692 0.7086365 0.18385375 -0.38364348 -0.20101184 0.24940328 -0.40735
0.11037197 -0.66753286 0.7064723 0.10688987 -0.12274422 0.62827647 -0.81928843 0.30232787
-0.17535567 1.0601382 0.18350825 -0.037921265 -0.3234256 0.06980035 -0.4008656 0.58514774
0.7586565 0.40087864 0.46825504 -0.012702577 -1.1135182 0.4265767 -0.7309932 0.14897376
0.14710836 -0.15550189 -1.094212 0.69724226 -0.5271043 0.07294025 0.83233124 -0.09770713
0.5841552 -0.10749592 -0.4187426 0.56737363 1.3750657 0.039139424 -0.16881196 -0.018043904
-0.29570222 -0.047665473 0.2387425 -0.11043269 -0.30117774 -0.37507188 0.0016114861 -0.3152666
-0.5435236 -0.38122198 -0.12294664 -0.50287217 0.58215976 0.09447282 0.4073702 -0.32742497
0.16620103 -0.3303408 0.68627644 0.04738629 -0.046101622 -0.6022831 -0.13260691 0.07488102
-0.10046664 -0.27670473 -0.022765754 -0.72018534 -0.040470313 -0.11488355 0.11861871 0.23444724
00000000: 2349 81be 4a79 c7bf fae5 ff3d 312d 1abe
00000010: f31c 853e 5297 203e cd5a 1240 48bf 91bf
00000020: ab9d 423c 548d b53e 65bc d0bf 1aa7 48bf
00000030: d1e9 9fbe df62 65bf 8aba f93e 86c0 85bf
00000040: e731 b3be 1808 673f c6db d43f 9cf9 163f
00000050: 1fb3 70bf 3510 babe 7a9e a8be 3558 45be
00000060: 4199 133f a705 03bf 7fb5 febf 5a6e 0240
00000070: 9bcb 313e b7f2 13be d9ab c1be b73b a8bf
00000080: aa65 41be 2803 7d3f 331f 27bd 3442 7e3f
00000090: b92f 573f 9577 d1be 3e56 6ebf 1fd0 82be
000000a0: 03e5 483f 8b12 aebf dea7 fc3c e4d0 67be
000000b0: 0ff9 263f 1649 c3bb 2094 1e3d d213 3ebd
000000c0: d8c7 213e 1f62 0d3e 89ba 7dbe b506 5ebf
000000d0: 525c 30be 230d 88be 7277 333e 0d97 383e
000000e0: a54d 0b3f bc14 22be 44a4 22bf 8262 a93f
000000f0: 5179 9d3e 0dea d2be 23f2 10bd b487 bc3e
00000100: cedd b7bf d27c 0d3e e3c6 80bf 2e19 073f
00000110: 3789 82be 2587 e43e 577b c53d f263 573d
00000120: 9edd 9fbf 5990 843e 83c1 db3e 6c95 4b3f
00000130: ef66 19bf 6da4 7dbe ce8e 95bf dd12 6d3f
00000140: e47c 44be 3661 d1be e518 323f 3daf 193e
00000150: e8e6 c0bf 139e 613f e044 c3be 517a 1bbd
00000160: 3633 c3be 6aa2 b7be dce2 c5bf 412f 26be
00000170: a817 ee3e 9acf 83bf 32ba 763f 4091 3ebf
00000180: a99c d23d 6c79 863e 36c4 623e 064b 1fbf
00000190: 3726 ed3e 9a81 74bf 2ff4 a23e 188e 343f
000001a0: f802 ffbe ce08 58bd 21cc d33e 5a9a 97be
000001b0: 3dcf a53e e48f afbe c06f 1bbf d75a 6e3e
000001c0: 93e8 273f ccfd e53e 5eb0 b03f e338 263f
000001d0: addd 8abf 2027 843f 9d6c d43c 5aec 823f
000001e0: b2dd 0ebf e3c7 a5be c63c a8bd 68c2 97bf
000001f0: fbd9 673f 7482 05be 351c 903e 1c02 10bf
00000200: 9988 ef3e 5ce7 cfbc 39ae fbbe 8539 1abf
00000210: 64f6 17be 751b c83d d9c1 813d 7ee5 b1be
00000220: 2129 093f 031d 713f 7d41 903c 08ca 51be
00000230: c620 353d 21e6 a2be 76d3 dd3e 9197 7f3f
00000240: ffbd 74bb 87b2 133f a553 fd3f 5949 0f3f
00000250: e9fd 7b3e 11f7 9a3e 2319 c73e 16c2 4dbe
00000260: 6fe5 683e 14d3 43bf 8da4 56bf 8b0d 553e
00000270: 1405 833e bd69 f53e 82e0 1e3e c0a8 80bc
00000280: 53bf 513e d5d2 45bf 4a2e 78be 1211 6c3f
00000290: 7c2a ed3e 1cca 63be 3355 193d db61 65be
000002a0: fb6d 72be f4a6 183e 04b4 b73e 6752 cc3e
000002b0: 058f 713f 4bd7 5fbe f199 5dbf f509 3a3f
000002c0: 8d68 d1be d4ee 14bf 3469 353f 2844 3c3e
000002d0: eb6c c4be 0cd6 4dbe 9363 7f3e 2e90 d0be
000002e0: b30a e23d 6fe3 2abf 5edb 343f 13e9 da3d
000002f0: 5261 fbbd bad6 203f e3bc 51bf b8ca 9a3e
00000300: 7090 33be 9cb2 873f 96e9 3b3e 5453 1bbd
00000310: 0a98 a5be 7cf3 8e3d 423e cdbe 3ecc 153f
00000320: 5037 423f f73f cd3e 20bf ef3e 781e 50bc
00000330: c487 8ebf 4368 da3e 5f22 3bbf 948c 183e
00000340: 93a3 163e e33b 1fbe 240f 8cbf 787e 323f
00000350: 4ff0 06bf b361 953d a913 553f ad1a c8bd
00000360: 328b 153f d226 dcbd 6e65 d6be 663f 113f
00000370: 2702 b03f a950 203d 0bdd 2cbe cfd0 93bc
00000380: 4866 97be df3c 43bd ea78 743e 892a e2bd
00000390: f833 9abe 6c09 c0be 8038 d33a a06a a1be
000003a0: 5d24 0bbf 872f c3be 73cb fbbd 3bbc 00bf
000003b0: 6c08 153f f77a c13d d492 d03e 3fa4 a7be
000003c0: 9a30 2a3e 6e22 a9be d0af 2f3f 2018 423d
000003d0: 0ed5 3cbd 3a2f 1abf 1bca 07be 385b 993d
000003e0: 74c1 cdbd 3eac 8dbe 3f7f babc 115e 38bf
000003f0: 33c4 25bd 1148 ebbd 5eee f23d f012 703e

last_layer.variational_strategy._variational_distribution.variational_mean f4 [128]
1.6142409 1.6968117 1.3848705 1.4022002 1.1808531 1.3482354 1.2087513 1.2801903
1.1959219 1.2937366 0.9338155 1.1624647 1.0620971 0.91864926 1.0308752 0.93928164
1.0198431 1.065147 0.91485894 1.0062717 0.8848109 0.8567287 0.6820374 0.7386516
0.7314973 0.6126103 0.5685462 0.8152838 0.8855994 1.053069 1.0325229 0.5420112
0.98980224 0.8327507 0.84390223 0.90708935 0.76642305 0.81017035 1.0567698 0.6461577
0.17445417 0.9585618 0.6349341 0.6509855 0.6468327 0.7361793 0.37373677 0.670398
0.8546859 0.8048708 0.31639564 0.83735806 0.775548 0.24167415 0.31975338 0.3423251
0.54140097 0.5098191 0.5493274 0.058222204 0.68124497 0.0048352364 0.4231679 -0.0011328412
0.031800635 0.35097602 0.18304837 0.50557894 0.4886412 0.06259471 0.18387908 -0.018666254
0.35542336 -0.04048153 0.9812923 0.27750412 0.5957858 0.17084256 0.12304646 0.31533086
0.2870942 -0.050228 0.59852225 -0.031835403 -0.0005144238 0.37535018 0.086806834 -0.01873057
0.06011997 0.80243266 -0.016013786 -0.03393201 0.00095547247 0.07924797 0.11933378 -0.0245467
0.21556732 0.08787786 0.18714933 -0.09669357 -0.049412612 -0.06585915 -0.018442132 -0.06064374
0.6208606 -0.038138933 0.036352474 0.15061276 -0.044254135 -0.023522215 0.07943283 -0.01576245
0.08156972 -0.029299326 0.020591397 0.14465801 -0.04720935 0.024183834 -0.0065432726 0.09288344
-0.049288373 -0.031644948 -0.041538134 -0.009085573 0.24268834 -0.0208238 -0.03366583 -0.021066519
00000000: 729f ce3f 2031 d93f 7043 b13f 4c7b b33f
00000010: 3226 973f fa92 ac3f 5db8 9a3f 47dd a33f
00000020: f813 993f 2999 a53f 880e 6f3f a5cb 943f
00000030: ccf2 873f 992c 6b3f b8f3 833f c374 703f
00000040: 388a 823f bd56 883f 3234 6a3f 83cd 803f
00000050: f882 623f 9252 5b3f 019a 2e3f 4518 3d3f
00000060: 6843 3b3f 07d4 1c3f 3e8c 113f 70b6 503f
00000070: a4b6 623f f7ca 863f b629 843f 3fc1 0a3f
00000080: ae63 7d3f 262f 553f fa09 583f 0237 683f
00000090: 4d34 443f 5367 4f3f 3c44 873f 976a 253f
000000a0: 1da4 323e 4e64 753f 0b8b 223f fca6 263f
000000b0: d496 253f 3f76 3c3f 6d5a bf3e 349f 2b3f
000000c0: b2cc 5a3f 030c 4e3f 9cfe a13e 195d 563f
000000d0: 508a 463f 6e79 773e b7b6 a33e 3c45 af3e
000000e0: 4199 0a3f 8183 023f b8a0 0c3f 687a 6e3d
000000f0: 1266 2e3f e770 9e3b 77a9 d83e d87b 94ba
00000100: 6241 023d 21b3 b33e 0871 3b3e 9f6d 013f
00000110: 2e2f fa3e a831 803d cc4a 3c3e f9e9 98bc
00000120: 0dfa b53e f6cf 25bd f935 7b3f 0515 8e3e
00000130: 6b85 183f 5af1 2e3e c8ff fb3d 0c73 a13e
00000140: 03fe 923e e0bb 4dbd c138 193f d765 02bd
00000150: 66da 06ba e62d c03e c8c7 b13d da70 99bc
00000160: 5c40 763d 3a6c 4d3f 582f 83bc 4bfc 0abd
00000170: ac78 7a3a c24c a23d 4565 f43d 2916 c9bc
00000180: aebd 5c3e 4ff9 b33d 13a4 3f3e 4707 c6bd
00000190: e164 4abd 29e1 86bd f413 97bc 9265 78bd
000001a0: b8f0 1e3f 9237 1cbd 55e6 143d 3b3a 1a3e
000001b0: d343 35bd a9b1 c0bc aead a23d 4120 81bc
000001c0: 060e a73d 2405 f0bc 4aaf a83c 3b21 143e
000001d0: 975e 41bd 2d1d c63c f368 d6bb ac39 be3d
000001e0: 9be2 49bd 229e 01bd e423 2abd a8db 14bc
000001f0: 4b83 783e ac96 aabc 2ee5 09bd b193 acbc

last_layer.variational_strategy._variational_distribution.chol_variational_covar f4 [128, 128]
0.5453127 0.0 0.0 0.0 0.0 0.0 0.0 0.0
0.0 0.0 0.0 0.0 0.0 0.0 0.0 0.0
0.0 0.0 0.0 0.0 0.0 0.0 0.0 0.0
0.0 0.0 0.0 0.0 0.0 0.0 0.0 0.0
0.0 0.0 0.0 0.0 0.0 0.0 0.0 0.0
0.0 0.0 0.0 0.0 0.0 0.0 0.0 0.0
0.0 0.0 0.0 0.0 0.0 0.0 0.0 0.0
0.0 0.0 0.0 0.0 0.0 0.0 0.0 0.0
0.0 0.0 0.0 0.0 0.0 0.0 0.0 0.0
0.0 0.0 0.0 0.0 0.0 0.0 0.0 0.0
0.0 0.0 0.0 0.0 0.0 0.0 0.0 0.0
0.0 0.0 0.0 0.0 0.0 0.0 0.0 0.0
0.0 0.0 0.0 0.0 0.0 0.0 0.0 0.0
0.0 0.0 0.0 0.0 0.0 0.0 0.0 0.0
0.0 0.0 0.0 0.0 0.0 0.0 0.0 0.0
0.0 0.0 0.0 0.0 0.0 0.0 0.0 0.0
-0.1482707 0.5418553 0.0 0.0 0.0 0.0 0.0 0.0
0.0 0.0 0.0 0.0 0.0 0.0 0.0 0.0
0.0 0.0 0.0 0.0 0.0 0.0 0.0 0.0
0.0 0.0 0.0 0.0 0.0 0.0 0.0 0.0
0.0 0.0 0.0 0.0 0.0 0.0 0.0 0.0
0.0 0.0 0.0 0.0 0.0 0.0 0.0 0.0
0.0 0.0 0.0 0.0 0.0 0.0 0.0 0.0
0.0 0.0 0.0 0.0 0.0 0.0 0.0 0.0
0.0 0.0 0.0 0.0 0.0 0.0 0.0 0.0
0.0 0.0 0.0 0.0 0.0 0.0 0.0 0.0
0.0 0.0 0.0 0.0 0.0 0.0 0.0 0.0
0.0 0.0 0.0 0.0 0.0 0.0 0.0 0.0
0.0 0.0 0.0 0.0 0.0 0.0 0.0 0.0
0.0 0.0 0.0 0.0 0.0 0.0 0.0 0.0
0.0 0.0 0.0 0.0 0.0 0.0 0.0 0.0
0.0 0.0 0.0 0.0 0.0 0.0 0.0 0.0
00000000: 9d99 0b3f 0000 0000 0000 0000 0000 0000
00000010: 0000 0000 0000 0000 0000 0000 0000 0000
00000020: 0000 0000 0000 0000 0000 0000 0000 0000
00000030: 0000 0000 0000 0000 0000 0000 0000 0000
00000040: 0000 0000 0000 0000 0000 0000 0000 0000
00000050: 0000 0000 0000 0000 0000 0000 0000 0000
00000060: 0000 0000 0000 0000 0000 0000 0000 0000
00000070: 0000 0000 0000 0000 0000 0000 0000 0000
00000080: 0000 0000 0000 0000 0000 0000 0000 0000
00000090: 0000 0000 0000 0000 0000 0000 0000 0000
000000a0: 0000 0000 0000 0000 0000 0000 0000 0000
000000b0: 0000 0000 0000 0000 0000 0000 0000 0000
000000c0: 0000 0000 0000 0000 0000 0000 0000 0000
000000d0: 0000 0000 0000 0000 0000 0000 0000 0000
000000e0: 0000 0000 0000 0000 0000 0000 0000 0000
000000f0: 0000 0000 0000 0000 0000 0000 0000 0000
00000100: 0000 0000 0000 0000 0000 0000 0000 0000
00000110: 0000 0000 0000 0000 0000 0000 0000 0000
00000120: 0000 0000 0000 0000 0000 0000 0000 0000
00000130: 0000 0000 0000 0000 0000 0000 0000 0000
00000140: 0000 0000 0000 0000 0000 0000 0000 0000
00000150: 0000 0000 0000 0000 0000 0000 0000 0000
00000160: 0000 0000 0000 0000 0000 0000 0000 0000
00000170: 0000 0000 0000 0000 0000 0000 0000 0000
00000180: 0000 0000 0000 0000 0000 0000 0000 0000
00000190: 0000 0000 0000 0000 0000 0000 0000 0000
000001a0: 0000 0000 0000 0000 0000 0000 0000 0000
000001b0: 0000 0000 0000 0000 0000 0000 0000 0000
000001c0: 0000 0000 0000 0000 0000 0000 0000 0000
000001d0: 0000 0000 0000 0000 0000 0000 0000 0000
000001e0: 0000 0000 0000 0000 0000 0000 0000 0000
000001f0: 0000 0000 0000 0000 0000 0000 0000 0000
00000200: 46d4 17be 07b7 0a3f 0000 0000 0000 0000
00000210: 0000 0000 0000 0000 0000 0000 0000 0000
00000220: 0000 0000 0000 0000 0000 0000 0000 0000
00000230: 0000 0000 0000 0000 0000 0000 0000 0000
00000240: 0000 0000 0000 0000 0000 0000 0000 0000
00000250: 0000 0000 0000 0000 0000 0000 0000 0000
00000260: 0000 0000 0000 0000 0000 0000 0000 0000
00000270: 0000 0000 0000 0000 0000 0000 0000 0000
00000280: 0000 0000 0000 0000 0000 0000 0000 0000
00000290: 0000 0000 0000 0000 0000 0000 0000 0000
000002a0: 0000 0000 0000 0000 0000 0000 0000 0000
000002b0: 0000 0000 0000 0000 0000 0000 0000 0000
000002c0: 0000 0000 0000 0000 0000 0000 0000 0000
000002d0: 0000 0000 0000 0000 0000 0000 0000 0000
000002e0: 0000 0000 0000 0000 0000 0000 0000 0000
000002f0: 0000 0000 0000 0000 0000 0000 0000 0000
00000300: 0000 0000 0000 0000 0000 0000 0000 0000
00000310: 0000 0000 0000 0000 0000 0000 0000 0000
00000320: 0000 0000 0000 0000 0000 0000 0000 0000
00000330: 0000 0000 0000 0000 0000 0000 0000 0000
00000340: 0000 0000 0000 0000 0000 0000 0000 0000
00000350: 0000 0000 0000 0000 0000 0000 0000 0000
00000360: 0000 0000 0000 0000 0000 0000 0000 0000
00000370: 0000 0000 0000 0000 0000 0000 0000 0000
00000380: 0000 0000 0000 0000 0000 0000 0000 0000
00000390: 0000 0000 0000 0000 0000 0000 0000 0000
000003a0: 0000 0000 0000 0000 0000 0000 0000 0000
000003b0: 0000 0000 0000 0000 0000 0000 0000 0000
000003c0: 0000 0000 0000 0000 0000 0000 0000 0000
000003d0: 0000 0000 0000 0000 0000 0000 0000 0000
000003e0: 0000 0000 0000 0000 0000 0000 0000 0000
000003f0: 0000 0000 0000 0000 0000 0000 0000 0000

last_layer.covar_module.base_kernel.raw_lengthscale f4 [1, 10]
2.696219 2.3555238 2.7225382 2.7449691 2.7495723 2.72689 2.5615747 2.685148
2.748428 2.76841
00000000: da8e 2c40 e7c0 1640 113e 2e40 93ad 2f40
00000010: fef8 2f40 5e85 2e40 d7f0 2340 77d9 2b40
00000020: 3fe6 2f40 a12d 3140
